example_model/exported/policy.onnx (onnx, 739085 bytes, 8 tensors)

actor.0.weight f4 [512, 36]
0.9584063 -0.5714566 0.11840395 -1.9389465 1.0235082 0.11210356 -1.1529735 0.17306606
0.19065684 0.46014214 -1.0764196 -0.2811682 -0.49711737 -0.8485536 0.09041526 -0.72062826
-0.05177564 -0.07329537 -0.061877966 -0.05828853 -0.03893855 0.0118428655 -0.024829358 -0.053160876
0.0047795754 -0.0014281543 -0.46437982 0.09944841 0.21639295 -0.3279808 -0.09508528 0.167699
0.09847447 0.10167149 0.016182864 -0.20832103 0.05612692 0.2072602 -0.29374826 -2.3519053
0.7549031 0.44171923 0.19062005 -0.44121516 0.83712184 1.7127422 -0.6288667 0.21030307
-0.24801335 0.40429044 0.46889395 0.87687784 0.030700464 -0.13647337 -0.10267817 -0.1995596
0.09706793 0.09602974 -0.025790397 -0.040053576 -0.0155569045 0.037870746 -0.39022717 -0.07991254
-0.28744197 -0.14967535 -0.25372162 -0.08694811 0.17478223 0.25845572 0.32877228 -0.26170546
0.22891034 0.0052478244 0.17274547 2.2544355 1.306876 0.37386653 -0.56107944 0.073920965
0.77641463 0.3029375 -1.299563 -0.60049236 -0.13441418 -0.5447382 0.24487987 -1.1801646
0.047243197 -0.09012821 -0.10347615 -0.06458694 0.021423515 -0.0289036 -0.010248274 -0.027607935
-0.020207684 -0.008839138 0.03238618 0.055299863 -0.080758765 -0.43103462 -0.076781504 -0.39485896
0.02426603 0.051546905 0.09387102 -0.27235508 -0.16100176 0.56519455 -0.0012696646 3.0451167
-0.71349597 0.298375 0.27475777 -0.25261146 -0.2844372 0.22575013 0.78559506 1.1506956
-0.50998485 -0.1523893 -0.04935022 -1.1114821 0.11307168 -0.0008712295 -0.025590349 -0.108864225
-0.19467682 -0.04607893 -0.08286915 0.055458263 0.045516122 0.038149863 -0.031060163 -0.16257674
-0.17550029 -0.019771595 0.009163088 0.23771247 -0.13913096 -0.08659376 -0.15048125 -0.48437434
-0.4175314 -1.1198968 -0.31176567 2.4847615 -0.21005188 0.070645675 -0.3089686 -0.94413275
0.84623826 -0.4836212 0.607214 -0.6347884 0.8708814 0.16212772 -0.27488452 0.57120216
-0.078651346 0.028291037 0.001731432 -0.039181802 0.015029931 0.010128699 -0.002454107 -0.027842542
0.072691835 -0.008282396 -0.034583643 -0.38438296 0.18419465 0.005384638 -0.05903659 -0.010367074
0.017068021 -0.040402457 -0.058107466 0.07241145 -0.5028671 0.24086973 -0.021095315 0.32377863
-0.16953519 0.12934011 0.016087795 -0.18912573 -0.29546064 -0.63233906 0.46069217 -0.69650143
-0.009186761 0.0014363243 -0.28712353 -0.0653558 -0.0069116447 -0.012432758 0.013780851 -0.01572609
-0.03958153 0.044915557 -0.015020602 0.009894705 -0.010123076 0.019418346 0.47763702 -0.055725213
0.12858188 0.17194955 -0.07016397 0.024380827 -0.043631647 0.0050651096 0.002911817 0.05690807
-0.063376255 0.33760613 -0.033606425 -3.2981198 1.0333741 0.2985213 -0.49210557 -0.0126347765
-0.0899685 -0.96554905 -0.5165703 0.7087171 0.087432824 0.6584138 1.089463 -0.5986471
-0.001977504 -0.016040487 -0.1537367 -0.089884154 0.00060825417 -0.05122103 -0.01361664 -0.03961248
-0.0063893134 -0.10139528 -0.24509607 -0.41118288 -0.14108807 -0.11001899 -0.054713078 0.10058071
0.17706217 0.11083439 0.028040877 0.1615063 0.27129707 -0.009613569 -0.0076520857 0.60674775
00000000: 1e5a 753f fb4a 12bf c57d f23d 662f f8bf
00000010: 5102 833f 8d96 e53d a394 93bf 3b38 313e
00000020: 8c3b 433e c097 eb3e 1ec8 89bf 47f5 8fbe
00000030: 2b86 febe cf3a 59bf a32b b93d 187b 38bf
00000040: b212 54bd e21b 96bd c073 7dbd f4bf 6ebd
00000050: 077e 1fbd 9408 423c f066 cbbc 38bf 59bd
00000060: fc9d 9c3b e830 bbba 31c3 edbe 9cab cb3d
00000070: 1d96 5d3e 19ed a7be 12bc c2bd 49b9 2b3e
00000080: fcac c93d 2439 d03d ed91 843c 1c52 55be
00000090: 57e5 653d 053c 543e 2c66 96be 9e85 16c0
000000a0: 5441 413f 0629 e23e e731 433e f4e6 e1be
000000b0: 9e4d 563f 233b db3f 68fd 20bf b059 573e
000000c0: 36f7 7dbe 28ff ce3e de12 f03e 117b 603f
000000d0: 8a7f fb3c adbf 0bbe ef48 d2bd 5a59 4cbe
000000e0: 8dcb c63d 3eab c43d 6246 d3bc 380f 24bd
000000f0: 63e2 7ebc 5b1e 1b3d dbcb c7be 30a9 a3bd
00000100: 982b 93be 7f44 19be cde7 81be da11 b2bd
00000110: 1dfa 323e 4f54 843e d754 a83e 42fe 85be
00000120: 7967 6a3e f1f5 ab3b 30e4 303e ac48 1040
00000130: b647 a73f 6f6b bf3e e7a2 0fbf e063 973d
00000140: 1cc3 463f a01a 9b3e 1558 a6bf deb9 19bf
00000150: dfa3 09be f673 0bbf cac1 7a3e a20f 97bf
00000160: 1582 413d 2495 b8bd 4eeb d3bd 2846 84bd
00000170: 5e80 af3c 3ec7 ecbc 60e8 27bc 092a e2bc
00000180: 968a a5bc 08d2 10bc 5fa7 043d 1c82 623d
00000190: da64 a5bd 92b0 dcbe 9f3f 9dbd f42a cabe
000001a0: 8ec9 c63c d922 533d 733f c03d 2072 8bbe
000001b0: a5dd 24be 97b0 103f e06a a6ba 31e3 4240
000001c0: aca7 36bf 9cc4 983e 0dad 8c3e 4a56 81be
000001d0: c1a1 91be 0b2b 673e c21c 493f fe49 933f
000001e0: 5e8e 02bf f10b 1cbe 7523 4abd 0c45 8ebf
000001f0: 2092 e73d 3963 64ba daa2 d1bc 35f4 debd
00000200: 5c59 47be 43bd 3cbd 4db7 a9bd 3428 633d
00000210: 1d6f 3a3d 0843 1c3d e271 febc 847a 26be
00000220: 59b6 33be 0af8 a1bc c720 163c e66a 733e
00000230: 5978 0ebe 1258 b1bd c217 1abe eaff f7be
00000240: adc6 d5be c758 8fbf c09f 9fbe 5506 1f40
00000250: d717 57be aeae 903d 2231 9ebe afb2 71bf
00000260: 12a3 583f 339d f7be 6072 1b3f 7e81 22bf
00000270: 15f2 5e3f cf04 263e aabd 8cbe 4e3a 123f
00000280: f513 a1bd 9bc2 e73c 38f1 e23a 197d 20bd
00000290: 1a40 763c d8f2 253c 15d5 20bb 0b16 e4bc
000002a0: 75df 943d e3b2 07bc 94a7 0dbd d8cd c4be
000002b0: 869d 3c3e 9e71 b03b 5ad0 71bd a9da 29bc
000002c0: 3cd2 8b3c 0c7d 25bd 1802 6ebd 744c 943d
000002d0: e6bb 00bf 8ea6 763e 15d0 acbc 50c6 a53e
000002e0: a29a 2dbe bc71 043e 8dca 833c 2daa 41be
000002f0: 9e46 97be f9e0 21bf d8df eb3e eb4d 32bf
00000300: 1284 16bc 0c43 bc3a db01 93be 43d9 85bd
00000310: 147b e2bb c4b2 4bbc 14c9 613c 00d4 80bc
00000320: 3e20 22bd 60f9 373d f918 76bc 671d 223c
00000330: 42db 25bc 3913 9f3c d78c f43e 1f40 64bd
00000340: f8aa 033e 8b13 303e 21b2 8fbd 4dba c73c
00000350: 19b7 32bd 38f9 a53b 2fd4 3e3b 7018 693d
00000360: 69cb 81bd b6da ac3e e4a6 09bd 6514 53c0
00000370: 9a45 843f c9d7 983e 43f5 fbbe 1802 4fbc
00000380: 6841 b8bd 392e 77bf f43d 04bf 7c6e 353f
00000390: fb0f b33d cf8d 283f 8673 8b3f f040 19bf
000003a0: 0399 01bb 5767 83bc 276d 1dbe 2f15 b8bd
000003b0: 3f73 1f3a 25cd 51bd 5418 5fbc b240 22bd
000003c0: 725d d1bb 54a8 cfbd 77fa 7abe 9086 d2be
000003d0: 6479 10be a351 e1bd d21a 60bd 42fd cd3d
000003e0: c94f 353e 24fd e23d fbb5 e53c e861 253e
000003f0: 73e7 8a3e 3b82 1dbc 59be fabb d253 1b3f

actor.0.bias f4 [512]
-0.17310767 -0.3278909 -0.4511012 -0.3263884 -0.20901227 -0.3737721 -0.27183595 0.111292884
-0.38358688 -0.07261398 0.30353582 0.25183642 -0.084903665 -0.34327412 -0.08866283 -0.17419235
-0.32539824 0.23154388 0.22249876 0.050192654 -0.12843573 -0.59315604 0.018667096 -0.16171342
-0.23794559 0.12096069 0.19719164 -0.18712138 0.24325007 -0.1441077 0.026196359 0.12296003
0.09586715 -0.29034606 0.060242087 -0.23549551 -0.34582573 0.034516193 -0.64157325 -0.12936093
0.037818372 -0.56901616 -0.11013031 -0.039458513 0.21763016 -0.60354733 0.14515465 -0.302318
-0.317685 -0.2426829 -0.27159277 -0.1128387 0.2608312 0.15730295 0.28494802 -0.0957465
0.034624808 0.32161748 -0.16389522 -0.31751055 -0.42253637 0.32258603 0.068200216 0.17193675
-0.78796786 0.19356377 0.014793117 0.29583004 -0.066121496 -0.21060036 0.1486936 0.10333123
0.09989666 0.33456787 -0.28609273 -0.21016991 -0.009572733 0.51404023 0.09664961 0.02579056
0.037584905 -0.2377433 -0.3444618 -0.5617347 0.3337051 0.10745232 0.10335936 -0.008459186
-0.5147848 0.27755603 -0.24423078 -0.018585304 -0.68768036 0.28336358 0.15036191 -0.22231887
-0.2320455 -0.6528725 -4.514181e-05 -0.5511225 -0.03578777 -0.089963935 -0.5873968 0.018528892
-0.08517996 -0.36894864 0.10267873 0.062190827 -0.11301596 -0.23785199 0.1105627 -0.21787275
-0.45105934 -0.36371955 0.3077993 -0.28179356 0.09281439 -0.18427855 -0.20392361 0.33624676
0.25155404 -0.5088803 -0.2752158 0.22623652 0.16528128 0.2332339 0.2656074 0.3852723
0.18876019 -0.3060622 -0.048984513 -0.5274034 -0.016730396 0.088626705 0.20541242 -0.42462817
-0.37607145 0.053832836 0.26179788 0.27633864 -0.010227863 -0.15855666 0.3950839 -0.12781629
0.06080153 0.111125775 0.004592907 0.037885696 0.34650213 -0.0818845 -0.0084775835 -0.18593855
0.24147615 0.5586398 -0.30476752 0.2350828 -0.06081186 0.28680447 -0.3388206 -0.07241947
0.20173238 -0.11719845 0.04209289 -0.34847435 -0.42242187 -0.55016905 -0.13918605 -0.112776205
-0.024792278 -0.4022453 -0.30764726 0.32830128 0.010818117 -0.45739144 -0.7878417 -0.16776648
-0.12149298 -0.00632574 0.06471529 -0.20034902 -0.097301066 -0.25698128 -0.46356967 0.107281566
0.1599173 0.24891903 -0.10216918 -0.3913708 -0.08766969 -0.30642286 -0.274157 -0.42994893
-0.051149573 -0.33976847 -0.15705788 -0.2839694 0.18121688 -0.7325283 0.25261173 -0.010608224
-0.22986338 -0.1927096 0.19015642 0.42434302 -0.39350697 0.17954496 -0.1751337 0.018939316
-0.15960062 -0.21082327 -0.09574246 -0.3512709 -0.20915678 -0.3092088 -0.10999238 0.136353
0.015438925 -0.27306813 0.26407486 -0.50834405 -0.16739133 -0.22223113 -0.020949319 0.06504687
-0.27447164 -0.054957535 0.1838425 -0.3256777 -0.32943073 -0.20997135 -0.022533536 0.23405986
0.2616582 -0.030461669 0.08715636 -0.029641146 -0.05057712 -0.3069042 -0.2735367 -0.2948477
-0.6065815 -0.19913693 -0.2886679 0.24495909 -0.5410741 0.15063834 -0.4938334 -0.38010865
0.44417435 -0.25065976 0.13966388 0.4085641 -0.5249911 0.06882454 -0.042478167 -0.33743036
00000000: 2343 31be 51e1 a7be bdf6 e6be 611c a7be
00000010: 5007 56be 0f5f bfbe 152e 8bbe 86ed e33d
00000020: 8065 c4be a3b6 94bd 0c69 9b3e b4f0 803e
00000030: f9e1 adbd a0c1 afbe dc94 b5bd 7b5f 32be
00000040: 999a a6be d719 6d3e b7d6 633e d096 4d3d
00000050: a884 03be 13d9 17bf bdeb 983c 3498 25be
00000060: 02a8 73be 3dba f73d 9bec 493e bf9c 3fbe
00000070: 8c16 793e f890 13be bf99 d63c 78d2 fb3d
00000080: ff55 c43d 3da8 94be 68c0 763d bc25 71be
00000090: 1210 b1be da60 0d3d 253e 24bf 3177 04be
000000a0: 70e7 1a3d 0bab 11bf 008c e1bd 409f 21bd
000000b0: 71da 5e3e 1482 1abf 6ca3 143e 6dc9 9abe
000000c0: 9ca7 a2be de81 78be 350e 8bbe fa17 e7bd
000000d0: ab8b 853e 0614 213e b5e4 913e be16 c4bd
000000e0: bed2 0d3d 0cab a43e 26d4 27be be90 a2be
000000f0: b056 d8be ff29 a53e 8eac 8b3d 3010 303e
00000100: 43b8 49bf 9535 463e d45e 723c 0977 973e
00000110: b56a 87bd 9fa7 57be 2343 183e 539f d33d
00000120: 9f96 cc3d 7b4c ab3e bf7a 92be c836 57be
00000130: f4d6 1cbc 2498 033f 3bf0 c53d b946 d33c
00000140: a1f2 193d fb72 73be 4c5d b0be d8cd 0fbf
00000150: 65db aa3e f60f dc3d 12ae d33d 6698 0abc
00000160: f0c8 03bf d31b 8e3e a217 7abe 3540 98bc
00000170: d20b 30bf 0815 913e 79f8 193e 8fa7 63be
00000180: 569d 6dbe a722 27bf a656 3db8 5d16 0dbf
00000190: 3296 12bd 033f b8bd a35f 16bf e7c9 973c
000001a0: d572 aebd d6e6 bcbe 3a49 d23d cfbb 7e3d
000001b0: e974 e7bd 798f 73be b26e e23d 091a 5fbe
000001c0: 40f1 e6be 7339 babe df97 9d3e 3f47 90be
000001d0: 7915 be3d 84b3 3cbe 5ad1 50be 8928 ac3e
000001e0: b1cb 803e fb45 02bf 16e9 8cbe 8caa 673e
000001f0: 7f3f 293e ded4 6e3e b1fd 873e 6942 c53e
00000200: 5a4a 413e 2fb4 9cbe fca3 48bd e903 07bf
00000210: 2f0e 89bc eb81 b53d a257 523e dd68 d9be
00000220: 708c c0be d27f 5c3d 5f0a 863e 427c 8d3e
00000230: c492 27bc ad5c 22be 7048 ca3e 46e2 02be
00000240: 060b 793d e995 e33d 1980 963b 082e 1b3d
00000250: ba68 b13e 10b3 a7bd 90e5 0abc ad66 3ebe
00000260: 8645 773e 0503 0f3f 7d0a 9cbe 8cb9 703e
00000270: db15 79bd 09d8 923e e579 adbe a950 94bd
00000280: ef92 4e3e be05 f0bd 9869 2c3d 3b6b b2be
00000290: ae47 d8be e1d7 0cbf ca86 0ebe 36f7 e6bd
000002a0: 2d19 cbbc 19f3 cdbe f183 9dbe 1b17 a83e
000002b0: 793e 313c 362f eabe feaf 49bf faca 2bbe
000002c0: 50d1 f8bd 2748 cfbb 7389 843d 4b28 4dbe
000002d0: c845 c7bd 0d93 83be 0159 edbe 70b6 db3d
000002e0: 5cc1 233e a1e4 7e3e 133e d1bd c161 c8be
000002f0: 2b8c b3bd 75e3 9cbe 4e5e 8cbe 4422 dcbe
00000300: 3782 51bd 22f6 adbe c8d3 20be 7064 91be
00000310: eb90 393e fa86 3bbf 5356 813e 1ece 2dbc
00000320: 4e61 6bbe aa55 45be 5db8 423e 7d43 d93e
00000330: bf79 c9be a2da 373e 4056 33be a026 9b3c
00000340: 586e 23be 0ee2 57be 9f14 c4bd c8d9 b3be
00000350: 322d 56be 9e50 9ebe af43 e1bd 1fa0 0b3e
00000360: 8bf3 7c3c 96cf 8bbe d234 873e d622 02bf
00000370: a268 2bbe 8f90 63be e89d abbc 4b37 853d
00000380: 8c87 8cbe 271b 61bd 3541 3c3e 3abf a6be
00000390: 25ab a8be bb02 57be 4098 b8bc 63ad 6f3e
000003a0: 10f8 853e c08a f9bc 097f b23d fdd1 f2bc
000003b0: f429 4fbd 8c22 9dbe 010d 8cbe 47f6 96be
000003c0: ed48 1bbf 8dea 4bbe 47cc 93be 8ed6 7a3e
000003d0: d583 0abf f040 1a3e bbd7 fcbe 9a9d c2be
000003e0: d26a e33e 7a56 80be 0c04 0f3e 502f d13e
000003f0: d165 06bf e1f3 8c3d 96fd 2dbd acc3 acbe

actor.2.weight f4 [256, 512]
-0.09624887 -0.17235866 0.021827606 0.05574155 0.21226986 0.20445208 -0.29010224 -0.16501035
-0.015995523 -0.1591404 0.07998714 -0.029906748 -0.054325197 0.093372874 -0.1570074 -0.23090988
0.025854371 0.050671272 -0.02050402 -0.21698964 -0.14633496 0.2203123 -0.16863865 0.2719724
0.08749741 -0.15099372 0.123792216 -0.18591881 0.18661697 -0.12340744 0.008542818 0.1012816
-0.059060276 0.024180338 -0.05338571 -0.009046357 0.26325944 0.15424274 -0.17382368 0.14687946
-0.09409214 -0.113724634 0.11564971 -0.22105192 -0.10847203 -0.17138346 0.1112942 -0.12675814
-0.05427179 -0.066049516 -0.14774103 0.04993479 0.18438594 -0.028908947 -0.027709763 0.10350782
0.15459964 -0.020569269 -0.09530463 0.23422132 0.1881077 0.078986354 -0.20305432 0.15510872
0.29887107 0.04996357 -0.022023711 0.04972965 0.26965597 0.031509638 0.124970175 -0.0941724
0.047004584 0.20054674 -0.32578018 0.29034036 -0.2131719 0.13133048 0.18601349 0.12726308
0.21234123 -0.14960697 -0.036430556 0.028084949 -0.04846405 -0.2701549 0.25538936 -0.0825555
-0.13500437 0.25965 0.0863661 -0.15974097 0.32533687 0.08081895 -0.19405252 0.16249874
0.10507836 -0.16337009 -0.053093426 -0.01673312 0.036053743 -0.083349116 0.037185058 0.0691311
0.031847157 -0.04845191 0.11455407 0.13808006 -0.14982194 0.22523992 -0.25311852 0.17795004
-0.07887489 -0.0071636033 -0.055964675 0.2177081 -0.040774677 -0.14708807 0.28191692 0.081127964
0.14707781 0.15845692 0.16174188 0.0574793 -2.6318437e-05 -0.114158295 0.05834866 0.10305383
0.17038617 0.078532815 0.046466254 0.21460563 0.07131734 0.14452568 -0.14959219 -0.03972692
-0.25620455 -0.01543506 -0.0020492084 -0.28165302 0.05810508 -0.06007719 -0.16971245 -0.27828386
-0.2566609 -0.030222151 0.09851368 0.21383046 0.027203962 0.0890284 -0.27878687 0.040881395
0.056406517 0.09372937 0.010776198 -0.051018354 -0.08663119 0.16849993 0.017521955 -0.097714774
-0.09452043 0.27406853 0.15920475 -0.09476464 -0.14323984 -0.13427342 0.05049546 -0.10686505
0.14947969 -0.06608598 -0.045287054 0.30810583 0.17703812 -0.22819515 0.04864537 -0.057231013
0.1584073 0.15728712 -0.07358812 0.02598856 0.045600887 -0.089203745 0.09996498 -0.016022693
-0.24672349 0.013171439 0.01695619 -0.018100996 0.016252423 -0.10496835 -0.04530032 -0.0038571337
0.14870867 -0.19623624 0.1008751 -0.06363552 0.07388109 -0.15014675 -0.19713569 0.024810575
-0.29561052 0.01767812 -0.32965732 0.18778005 0.14169067 -0.021243202 -0.24156362 0.066212885
0.11495091 -0.03843152 0.02173902 -0.054760728 0.001148432 -0.0431206 0.014519072 0.10999878
-0.056920957 -0.075754546 0.1256212 -0.003011652 0.1319797 -0.03808783 0.007985007 -0.21458164
0.18097495 0.025568334 0.12229667 -0.27837858 -0.035360053 0.17681837 -0.099735714 -0.058982726
0.08745419 -0.24966346 0.21671067 0.095493935 0.052838214 -0.105613805 0.10811174 0.00038582142
-0.11146324 -0.105365545 -0.038694 0.007710205 0.055267975 0.15126143 0.028331043 0.32960677
-0.0024132242 -0.020912424 -0.07840846 0.042447153 0.16117969 0.1659476 0.047200426 -0.07616605
00000000: 211e c5bd ca7e 30be cfcf b23c 4051 643d
00000010: 455d 593e e35b 513e 4888 94be 79f8 28be
00000020: 0b09 83bc b3f5 22be 4cd0 a33d fffe f4bc
00000030: 1984 5ebd 473a bf3d 8cc6 20be a473 6cbe
00000040: 8ccc d33c ae8c 4f3d 0cf8 a7bc 8832 5ebe
00000050: d5d8 15be 8c99 613e 9caf 2cbe f73f 8b3e
00000060: d831 b33d 199e 1abe c686 fd3d 8061 3ebe
00000070: 8518 3f3e 0abd fcbd 2df7 0b3c ba6c cf3d
00000080: 30e9 71bd d815 c63c f9aa 5abd 2c37 14bc
00000090: f1c9 863e cff1 1d3e d6fe 31be 9267 163e
000000a0: 61b3 c0bd 76e8 e8bd c1d9 ec3d 6f5b 62be
000000b0: 9526 debd 257f 2fbe 37ee e33d e3cc 01be
000000c0: 194c 5ebd f844 87bd 6d49 17be 6c88 4c3d
000000d0: abcf 3c3e 75d2 ecbc 96ff e2bc e8fb d33d
000000e0: 5e4f 1e3e e280 a8bc 132f c3bd b7d7 6f3e
000000f0: 4e9f 403e 99c3 a13d 79ed 4fbe d2d4 1e3e
00000100: a105 993e 9aa6 4c3d 126b b4bc 51b1 4b3d
00000110: 5910 8a3e 4010 013d 5df0 ff3d 76dd c0bd
00000120: e187 403d 205c 4d3e a9cc a6be 7ea7 943e
00000130: bc49 5abe 7f7b 063e 527a 3e3e 4151 023e
00000140: fb6f 593e 9232 19be 3538 15bd 6812 e63c
00000150: 3d82 46bd be51 8abe 65c2 823e dc12 a9bd
00000160: 963e 0abe d8f0 843e b6e0 b03d 2393 23be
00000170: 8e92 a63e 6884 a53d b4b5 46be 1266 263e
00000180: 5333 d73d 7d4a 27be 7e78 59bd e513 89bc
00000190: 17ad 133d f1b2 aabd 5c4f 183d 9b94 8d3d
000001a0: 2a72 023d 8375 46bd 539b ea3d dc64 0d3e
000001b0: ec6a 19be 4ba5 663e c098 81be 8938 363e
000001c0: 2989 a1bd a9bc eabb 373b 65bd dfee 5e3e
000001d0: 5903 27bd 419e 16be 6a57 903e 6b26 a63d
000001e0: 919b 163e 8842 223e aa9f 253e 6a6f 6b3d
000001f0: 6ac6 dcb7 d3cb e9bd 01ff 6e3d e30d d33d
00000200: b679 2e3e d0d5 a03d 6653 3e3d 94c1 5b3e
00000210: d30e 923d 8afe 133e b22e 19be b2b8 22bd
00000220: 3e2d 83be 55e3 7cbc 034c 06bb d334 90be
00000230: 98ff 6d3d 8013 76bd 1ac9 2dbe 397b 8ebe
00000240: 0f69 83be 7294 f7bc 8ac1 c93d 5ff6 5a3e
00000250: d8da de3c 8654 b63d 27bd 8ebe 4073 273d
00000260: 850a 673d 2ff5 bf3d a68e 303c 9ff8 50bd
00000270: b16b b1bd 3f8b 2c3e 348a 8f3c af1e c8bd
00000280: ed93 c1bd b652 8c3e 9206 233e f713 c2bd
00000290: 77ad 12be f97e 09be 54d4 4e3d 10dc dabd
000002a0: 3411 193e 1658 87bd eb7e 39bd 0cc0 9d3e
000002b0: 7b49 353e fdab 69be 5e40 473d 116b 6abd
000002c0: 8635 223e e00f 213e 5eb5 96bd f6e5 d43c
000002d0: ffc7 3a3d 74b0 b6bd 70ba cc3d 0642 83bc
000002e0: 15a5 7cbe 05cd 573c b5e7 8a3c 8a48 94bc
000002f0: cd23 853c a5f9 d6bd d48c 39bd f7c7 7cbb
00000300: 1647 183e 27f2 48be 9b97 ce3d 5753 82bd
00000310: f84e 973d 12c0 19be f0dd 49be 8c3f cb3c
00000320: 435a 97be b4d1 903c d8c8 a8be 6a49 403e
00000330: 5c17 113e 3906 aebc 745c 77be 9f9a 873d
00000340: 626b eb3d 5f6a 1dbd 0716 b23c c94c 60bd
00000350: fc86 963a 3a9f 30bd 67e1 6d3c 0a47 e13d
00000360: f325 69bd 3325 9bbd d8a2 003e 235f 45bb
00000370: b025 073e fc01 1cbd 8cd3 023c 4abb 5bbe
00000380: 7f51 393e af74 d13c ad76 fa3d a387 8ebe
00000390: b4d5 10bd e00f 353e 3d42 ccbd df97 71bd
000003a0: 2f1b b33d c7a7 7fbe 67e9 5d3e 5392 c33d
000003b0: e26c 583d 0d4c d8bd b069 dd3d 1348 ca39
000003c0: d746 e4bd e4c9 d7bd 9a7d 1ebd e3a5 fc3b
000003d0: ac60 623d 47e4 1a3e 8116 e83c 38c2 a83e
000003e0: 2f27 1ebb 8850 abbc 9d94 a0bd 11dd 2d3d
000003f0: 4a0c 253e 2bee 293e 3c55 413d f2fc 9bbd

actor.2.bias f4 [256]
-0.042583495 -0.2732996 -0.20423193 0.002061097 -0.09865662 -0.05443563 0.035637964 -0.31739038
-0.1856705 -0.113867044 -0.12907214 -0.16532588 -0.31775036 -0.16136117 -0.2934565 -0.17137657
-0.34568572 -0.23525795 -0.22641365 -0.16679698 -0.16607031 -0.1495323 -0.30133024 -0.19307272
0.020336883 -0.24606831 -0.06913858 -0.5715024 -0.24787012 0.029505808 -0.12713954 -0.19067176
-0.32337457 -0.23921192 -0.19448587 -0.07457013 -0.22434254 -0.13707055 -0.3591951 -0.28451174
-0.4057934 -0.032573156 -0.37040484 -0.2205769 -0.23845778 -0.17087801 -0.14016713 -0.2696353
0.028800864 -0.11097472 -0.29727903 -0.096693866 -0.16238445 -0.34607634 -0.16671109 -0.25279456
-0.3756897 -0.20676813 -0.23660256 -0.17094487 -0.19600391 -0.13982302 -0.1750746 -0.26908666
-0.32933068 -0.035964645 -0.30854517 -0.06022921 -0.14675522 -0.24204291 -0.28266338 -0.20495328
-0.34226212 -0.19793935 -0.3398855 -0.21270682 -0.3096021 0.062864006 -0.041152548 -0.20640256
-0.23166114 -0.27317324 -0.45473924 -0.2722354 -0.13965838 0.058053523 -0.24029273 -0.13516799
-0.19066581 -0.25652733 -0.12296072 -0.2483629 -0.140346 -0.09476291 -0.29132605 -0.30400163
-0.3108465 -0.30121854 -0.043154 -0.028798278 -0.20710663 -0.15903287 -0.44967994 -0.09697082
-0.12180878 -0.3378432 -0.17113209 -0.17879361 -0.19848438 -0.093773656 -0.22778182 -0.1855672
-0.16202869 -0.22111823 -0.16458629 -0.1527177 -0.04795494 -0.0046680127 0.07574945 0.007214788
-0.15926789 -0.21094438 -0.0963487 -0.122310944 -0.39219943 -0.09746627 -0.156836 -0.254957
-0.31492963 -0.12672007 -0.22157437 -0.12972441 -0.13929707 -0.07741054 -0.10744492 -0.5588366
-0.18109056 -0.32390296 -0.46806175 -0.13574828 0.057468355 -0.24061827 -0.05289414 -0.052978642
-0.22176093 -0.17873766 -0.13911347 -0.11409872 -0.10015977 -0.32273573 -0.25091213 -0.15916188
-0.092098385 -0.28140038 -0.1598937 -0.2922074 -0.27822563 0.013822149 -0.14902036 -0.25015825
-0.20151033 -0.15698779 -0.07564906 -0.25484136 -0.1715469 -0.24878518 -0.17514332 -0.11150209
-0.40699422 -0.25146052 -0.034035463 -0.2410665 -0.31120434 -0.29807428 -0.39039862 -0.11773283
-0.15042725 -0.2001712 -0.3235892 0.08166036 -0.2648811 -0.47694713 -0.2599103 -0.39409027
-0.15560266 -0.6969075 -0.16631106 -0.2315672 -0.20207065 -0.45874733 -0.39862144 -0.038596835
-0.2033071 -0.27306375 -0.062025398 -0.27759388 0.017069224 -0.17955935 -0.29531267 -0.16890742
-0.052674133 -0.32735914 -0.40411967 -0.1311159 -0.29763368 -0.32124585 -0.277413 -0.0537175
-0.23653753 -0.10341425 -0.39624578 -0.12214527 0.021373156 -0.23391953 -0.19216327 -0.3187771
-0.2603594 -0.1364619 -0.33245346 -0.07210348 -0.31869504 -0.28383756 -0.20134154 -0.22233894
-0.26609963 -0.050747965 -0.49271405 -0.11332543 -0.2643835 -0.37550807 -0.2535099 -0.11636615
-0.1183873 -0.084372625 -0.13846363 -0.16622445 -0.17597443 -0.2082381 -0.28636223 -0.07722693
-0.074520655 -0.2134809 -0.12806906 -0.17397109 -0.14711401 -0.16929305 -0.35829517 -0.30040985
-0.2944119 -0.28971806 0.019965954 -0.29541335 -0.0701703 -0.06496197 -0.0589122 -0.53954583
00000000: 086c 2ebd eded 8bbe 2d22 51be 7813 073b
00000010: 7b0c cabd e5f7 5ebd 1df9 113d fe80 a2be
00000020: 6820 3ebe 2033 e9bd 7d2b 04be 304b 29be
00000030: 2db0 a2be dd3b 25be ee3f 96be 577d 2fbe
00000040: b8fd b0be 76e7 70be fbd8 67be d4cc 2abe
00000050: 560e 2abe ff1e 19be f547 9abe dbb4 45be
00000060: 8999 a63c 55f9 7bbe 8798 8dbd fb4d 12bf
00000070: aad1 7dbe 2ab6 f13c de30 02be 753f 43be
00000080: 5a91 a5be f8f3 74be 4e27 47be 39b8 98bd
00000090: 0dba 65be 395c 0cbe 6ce8 b7be 86ab 91be
000000a0: 27c4 cfbe 6e6b 05bd b4a5 bdbe e9de 61be
000000b0: 472e 74be a5fa 2ebe f987 0fbe a30d 8abe
000000c0: caef eb3c b746 e3bd f534 98be 6f07 c6bd
000000d0: 1c48 26be eb30 b1be 50b6 2abe 4a6e 81be
000000e0: 665a c0be 06bb 53be f147 72be 2c0c 2fbe
000000f0: 40b5 48be c42d 0fbe c246 33be bac5 89be
00000100: 089e a8be aa4f 13bd a2f9 9dbe e7b2 76bd
00000110: 0047 16be 19da 77be 41b9 90be 46df 51be
00000120: fb3c afbe 9db0 4abe 7905 aebe d1cf 59be
00000130: 2b84 9ebe d8be 803d 938f 28bd 315b 53be
00000140: 9438 6dbe 5ddd 8bbe 95d3 e8be 7062 8bbe
00000150: 9b02 0fbe 88c9 6d3d 4c0f 76be 7a69 0abe
00000160: e63d 43be 8d57 83be d4d2 fbbd d852 7ebe
00000170: ddb6 0fbe 0e13 c2bd b028 95be 1aa6 9bbe
00000180: 4627 9fbe 5139 9abe 40c2 30bd 5eea ebbc
00000190: c313 54be 83d9 22be 733c e6be a398 c6bd
000001a0: e276 f9bd c9f9 acbe 403d 2fbe ac15 37be
000001b0: 7d3f 4bbe 670c c0bd a33f 69be 5405 3ebe
000001c0: d9ea 25be d16c 62be 4f89 28be 0762 1cbe
000001d0: 666c 44bd 21f6 98bb 8722 9b3d 076a ec3b
000001e0: 1f17 23be ce01 58be 7852 c5bd 297e fabd
000001f0: 5dce c8be 659c c7bd 9e99 20be b989 82be
00000200: 753e a1be e8c2 01be 64e4 62be 7ad6 04be
00000210: e4a3 0ebe 6b89 9ebd 150c dcbd ea0f 0fbf
00000220: ce6f 39be 9cd6 a5be caa5 efbe 9901 0bbe
00000230: f063 6b3d a364 76be 87a7 58bd 2200 59bd
00000240: 4c15 63be 0107 37be c373 0ebe 97ac e9bd
00000250: 9120 cdbd 9e3d a5be 8e77 80be 55fb 22be
00000260: 149e bcbd b613 90be 2dbb 23be 359c 95be
00000270: 9773 8ebe 4b76 623c cb98 18be be14 80be
00000280: b958 4ebe 68c1 20be e5ed 9abd 917a 82be
00000290: fea9 2fbe 8bc1 7ebe c558 33be 355b e4bd
000002a0: 8c61 d0be 6fbf 80be c568 0bbd 23da 76be
000002b0: 2d56 9fbe 319d 98be 54e2 c7be e91d f1bd
000002c0: 9a09 1abe aef9 4cbe 7cad a5be 8c3d a73d
000002d0: 7f9e 87be 6a32 f4be f612 85be 33c6 c9be
000002e0: 4e56 1fbe 8868 32bf 724d 2abe f41f 6dbe
000002f0: 9ceb 4ebe eee0 eabe 1c18 ccbe b717 1ebd
00000300: bd2f 50be 03cf 8bbe 580e 7ebd c920 8ebe
00000310: c2d4 8b3c 68de 37be 3933 97be 11f6 2cbe
00000320: d5c0 57bd 9e9b a7be c6e8 cebe 3f43 06be
00000330: 7163 98be 567a a4be 1409 8ebe e206 5cbd
00000340: e536 72be daca d3bd bae0 cabe 4d27 fabd
00000350: c216 af3c 9a88 6fbe 73c6 44be c136 a3be
00000360: d44d 85be abbc 0bbe 5737 aabe fdaa 93bd
00000370: ff2b a3be 2853 91be 7a2c 4ebe d2ac 63be
00000380: 363e 88be 19dd 4fbd 0445 fcbe 2a17 e8bd
00000390: 465d 87be 9842 c0be 0dcc 81be 6051 eebd
000003a0: 0a75 f2bd 8ecb acbd 69c9 0dbe be36 2abe
000003b0: a432 34be 5e3c 55be 129e 92be 2729 9ebd
000003c0: 499e 98bd bd9a 5abe 8924 03be 7a25 32be
000003d0: 0ea5 16be 285b 2dbe 7772 b7be 52cf 99be
000003e0: 28bd 96be ed55 94be a48f a33c 6b40 97be
000003f0: 72b5 8fbd c80a 85bd eb4d 71bd ad1f 0abf

actor.4.weight f4 [128, 256]
0.009200076 0.16935258 0.11207326 0.068809815 0.09583446 -0.020034457 -0.17738946 -0.029156737
0.043097496 0.05818419 -0.05686307 0.1313109 -0.124843515 0.044579387 -0.15220173 -0.023072692
-0.090438314 0.0103557985 0.09643754 -0.023210343 0.19964528 -0.2745449 -0.11694237 -0.10031594
0.040293444 -0.086523265 -0.11133359 0.22999804 0.032865975 -0.21740772 0.010444494 -0.060439885
0.2615392 0.0046997056 0.13050206 -0.40362418 -0.123949066 0.044257466 0.18778968 -0.077293135
0.041526552 -0.03448403 0.009029716 0.05853598 -0.15902805 -0.023770195 0.056709565 0.008798092
-0.23566827 -0.012343568 0.11942122 -0.42225555 0.24935484 0.14612663 0.025373902 0.14120488
0.041802 -0.093349054 -0.70927525 0.05792916 -0.0696233 -0.25031462 0.11671338 0.12380615
-0.15222616 0.04130545 -0.012198569 0.105535455 0.03358794 0.100262165 -0.09055832 0.017106682
-0.026683355 0.006920687 0.14974675 -0.32241163 -0.023878908 -0.010139737 -0.04497022 0.02838766
0.11552204 0.20073666 0.09036485 0.0041837497 0.088296294 -0.08641033 -0.11096898 -0.112963386
-0.12614487 -0.010935917 -0.036882263 -0.1353354 -0.05460238 -0.020438759 0.038828976 -0.0067119077
0.07535279 0.24914856 0.05157454 -0.13674663 -0.08478756 -0.029637598 0.17808774 -0.040776823
-0.034815878 -0.027118128 -0.05277876 0.041023076 -0.015729439 -0.06048119 0.16552423 0.057542138
0.18622066 0.14086723 0.011716317 0.023342747 -0.2796734 -0.14603595 0.0037206023 -0.13342342
-0.057061404 -0.11624102 0.11238734 -0.3187291 0.034537606 -0.27584633 0.0067523997 0.2249311
-0.09386135 -0.09949835 -0.12830137 0.062078126 -0.08009463 -0.08658894 -0.01324755 0.18626486
-0.107665874 0.0024690828 0.059401516 0.029254612 0.027034461 -0.011531355 -0.05216105 -0.059850875
0.19254154 -0.104940444 0.04781595 0.027839083 0.08420808 -0.11399244 -0.1640287 -0.16010812
-0.0990717 0.08697237 0.01585883 -0.12447905 -0.07919355 -0.062776886 -0.31351346 -0.027214456
-0.19104213 0.100382626 -0.033986166 -0.04914457 -0.06130412 0.026267936 -0.34936997 0.063206784
0.024469728 0.17403637 0.1326322 0.23445953 0.049479086 0.028684577 0.06258386 0.17166263
0.055430703 0.036468424 -0.23599951 -0.010474815 -0.06049765 0.028707221 0.12898527 0.13504343
-0.17048441 0.14441676 -0.050096545 -0.16686806 -0.13017899 0.029100316 0.1071233 0.14777406
-0.15333419 -0.031065278 -0.25088444 -0.009585835 -0.06275743 -0.05668563 0.08526006 0.057145223
-0.03944937 -0.09164404 -0.1341437 -0.5482847 -0.04293135 0.12998219 -0.08045609 -0.045588426
0.06337479 -0.05737952 0.027944556 0.08934896 -0.06914072 0.29020038 -0.016802438 0.14682218
0.047064763 0.16885425 0.09184359 0.030364018 -0.013692308 0.025880652 0.0032904225 -0.032946337
-0.264817 -0.2871859 0.033916976 0.036216762 -0.022697737 0.04063277 0.02682962 -0.049194247
-0.007913909 0.03727724 0.0030897777 -0.01093805 0.019275755 0.25718775 -0.32093385 -0.19225854
-0.09580654 -0.19556014 0.0658149 0.20787945 -0.100238286 0.060701083 -0.012052371 -0.055696737
-0.086454354 0.023997864 0.04358043 0.08720366 -0.04917832 -0.30873278 0.08186157 -0.49318153
00000000: eabb 163c c36a 2d3e aa86 e53d 29ec 8c3d
00000010: db44 c43d 4d1f a4bc 95a5 35be 1cda eebc
00000020: 0087 303d 8c52 6e3d 40e9 68bd 5d76 063e
00000030: f5ad ffbd e098 363d c5da 1bbe f102 bdbc
00000040: b937 b9bd 5eab 293c 0c81 c53d 9e23 bebc
00000050: d06f 4c3e 2691 8cbe 7b7f efbd 7272 cdbd
00000060: bd0a 253d 1c33 b1bd dd02 e4bd 9b84 6b3e
00000070: 799e 063d 21a0 5ebe 621f 2b3c d08f 77bd
00000080: 77e8 853e fdff 993b 55a2 053e d4a7 cebe
00000090: 02d9 fdbd 5147 353d f04b 403e dd4b 9ebd
000000a0: bf17 2a3d 203f 0dbd 60f1 133c 6cc3 6f3d
000000b0: 40d8 22be b6b9 c2bc 4a48 683d df25 103c
000000c0: 0653 71be ad3c 4abc 1d93 f43d e131 d8be
000000d0: e056 7f3e 38a2 153e eedc cf3c 0398 103e
000000e0: 9338 2b3d ca2d bfbd 1093 35bf 2047 6d3d
000000f0: a996 8ebd 3d29 80be 6d07 ef3d 148e fd3d
00000100: 2de1 1bbe e72f 293d 82dc 47bc f922 d83d
00000110: 8293 093d 4056 cd3d a476 b9bd 5023 8c3c
00000120: 0d97 dabc eec6 e23b 3657 193e 2313 a5be
00000130: b39d c3bc 2421 26bc b232 38bd 3d8d e83c
00000140: d296 ec3d e98d 4d3e 3511 b93d d617 893b
00000150: b0d4 b43d e6f7 b0bd b443 e3bd 5959 e7bd
00000160: 1f2c 01be 8f2c 33bc db11 17bd 5d95 0abe
00000170: bfa6 5fbd 2f6f a7bc 220b 1f3d 90ef dbbb
00000180: 9052 9a3d cd20 7f3e d33f 533d 4f07 0cbe
00000190: 1aa5 adbd 8cca f2bc a25c 363e 9905 27bd
000001a0: 189b 0ebd d626 debc 8b2e 58bd d007 283d
000001b0: 06db 80bc 20bb 77bd 2f7f 293e 4eb1 6b3d
000001c0: a1b0 3e3e 803f 103e ccf5 3f3c 4a39 bf3c
000001d0: 5a31 8fbe 738a 15be 59d5 733b 26a0 08be
000001e0: 38b9 69bd c60f eebd 552b e63d 7630 a3be
000001f0: 4e77 0d3d bb3b 8dbe 3c43 dd3b 5754 663e
00000200: 613a c0bd cac5 cbbd 6f61 03be a245 7e3d
00000210: a708 a4bd 8b55 b1bd 410c 59bc 37bc 3e3e
00000220: ed7f dcbd 56d0 213b 014f 733d 5ea7 ef3c
00000230: 6077 dd3c 02ee 3cbc d3a6 55bd 3126 75bd
00000240: 9c29 453e 04eb d6bd a8da 433d ca0e e43c
00000250: 4975 ac3d de74 e9bd 24f7 27be 62f3 23be
00000260: 1ae6 cabd 921e b23d 61ea 813c dfee febd
00000270: 3a30 a2bd 2b91 80bd d684 a0be daf0 debc
00000280: 8ca0 43be 6895 cd3d 1435 0bbd d14b 49bd
00000290: 071a 7bbd db2f d73c 9fe0 b2be 8f72 813d
000002a0: bd74 c83c 9736 323e bcd0 073e 2916 703e
000002b0: 95aa 4a3d ebfb ea3c f72b 803d 54c8 2f3e
000002c0: 4e0b 633d ea5f 153d dba9 71be 8f9e 2bbc
000002d0: 62cc 77bd 682b eb3c b714 043e d348 0a3e
000002e0: 7793 2ebe fde1 133e 0932 4dbd 76df 2abe
000002f0: a44d 05be c963 ee3c 7663 db3d 1552 173e
00000300: a303 1dbe 9c7c febc ed73 80be e80d 1dbc
00000310: f886 80bd 312f 68bd d49c ae3d 1c11 6a3d
00000320: aa95 21bd dfaf bbbd f75c 09be 635c 0cbf
00000330: c9d8 2fbd 0d1a 053e 2ac6 a4bd eeba 3abd
00000340: a4ca 813d ca06 6bbd fbeb e43c 96fc b63d
00000350: a699 8dbd 2595 943e 44a5 89bc 8e58 163e
00000360: fbc6 403d 21e8 2c3e 7e18 bc3d f6bd f83c
00000370: b455 60bc a903 d43c 21a4 573b bdf2 06bd
00000380: 1896 87be 080a 93be 87ec 0a3d 0758 143d
00000390: 9bf0 b9bc 8c6e 263d cbc9 db3c e87f 49bd
000003a0: 57a9 01bc 05b0 183d de7d 4a3b 8235 33bc
000003b0: 30e8 9d3c 1dae 833e 7151 a4be 6cdf 44be
000003c0: 3836 c4bd eb40 48be f6c9 863d 5ade 543e
000003d0: bb49 cdbd b3a1 783d 4f77 45bc 4322 64bd
000003e0: fb0e b1bd 2b97 c43c 6581 323d d597 b23d
000003f0: 356f 49bd 3912 9ebe 0aa7 a73d 4a82 fcbe

actor.4.bias f4 [128]
-0.22772627 -0.1446359 -0.18111125 -0.1932664 -0.20422333 -0.06669351 -0.20999555 -0.31064117
-0.11505113 -0.15524293 -0.19706848 -0.08813923 -0.15602708 -0.14742462 -0.26875696 -0.21622811
-0.16417226 -0.017055783 -0.13155328 -0.23348315 -0.11200231 -0.17808968 -0.25870854 -0.21438363
-0.20250876 -0.25431025 -0.18709452 -0.031812027 -0.08222035 -0.124950916 -0.29794636 -0.17363384
-0.07846702 -0.12263903 -0.20573065 -0.06184662 -0.14656994 -0.214042 -0.15343574 -0.17656922
-0.052228935 -0.17003523 -0.19409123 -0.24102247 -0.16534926 -0.33991456 -0.086252354 -0.32735085
-0.084881194 -0.36092052 -0.23255946 -0.23630574 -0.102573656 -0.13747528 -0.21851024 -0.14497517
-0.19778785 -0.29733023 -0.21834657 -0.14923911 -0.09432366 0.074607246 -0.25508285 -0.06863099
-0.13010506 -0.20985334 -0.08420944 -0.26243117 -0.22083378 -0.14399804 -0.23964517 -0.4475876
-0.06365501 -0.09639427 -0.15451331 -0.15359183 -0.17634517 -0.23018579 -0.11525319 -0.136528
-0.2925589 -0.12845595 -0.21473779 -0.1960038 -0.13895224 -0.041955158 -0.20124409 -0.18939456
-0.17101108 -0.4283961 -0.25048912 -0.29345024 -0.19500059 -0.080690876 -0.24791203 -0.0846389
-0.34755984 -0.21971925 -0.2305931 -0.09721067 -0.38672337 -0.23903644 -0.23629111 -0.13513517
-0.06528037 0.0032279412 -0.1636921 -0.19245948 -0.13672717 -0.09300457 -0.29589447 -0.28232518
-0.22854382 -0.1345634 0.008828847 -0.121738836 -0.127251 -0.0837397 -0.1954606 -0.13445532
-0.25922498 -0.19254506 -0.28061143 -0.24523607 -0.13795607 -0.06287146 -0.12036667 -0.33320794
00000000: 1331 69be 6f1b 14be 3a75 39be a1e7 45be
00000010: ec1f 51be 9b96 88bd 1309 57be 5c0c 9fbe
00000020: ed9f ebbd 01f8 1ebe 52cc 49be 5782 b4bd
00000030: 90c5 1fbe 7bf6 16be 839a 89be e76a 5dbe
00000040: c61c 28be 92b8 8bbc e7b5 06be 3516 6fbe
00000050: 7861 e5bd 245d 36be 7275 84be 6287 5bbe
00000060: 755e 4fbe f434 82be b595 3fbe 544d 02bd
00000070: 2563 a8bd 44e6 ffbd 6d8c 98be 12cd 31be
00000080: 51b3 a0bd 2c2a fbbd 0eab 52be e252 7dbd
00000090: 6e16 16be d32d 5bbe 421e 1dbe 90ce 34be
000000a0: 02ee 55bd b71d 2ebe dabf 46be 98ce 76be
000000b0: 5151 29be 4809 aebe 13a5 b0bd 889a a7be
000000c0: 31d6 adbd 93ca b8be 1124 6ebe 22fa 71be
000000d0: 2312 d2bd 52c6 0cbe 26c1 5fbe 5f74 14be
000000e0: e688 4abe ab3b 98be 3e96 5fbe 23d2 18be
000000f0: c32c c1bd afcb 983d 389a 82be 688e 8cbd
00000100: 433a 05be cbe3 56be 0076 acbd 615d 86be
00000110: 4022 62be 3974 13be 8b65 75be 342a e5be
00000120: 8f5d 82bd 5c6a c5bd bd38 1ebe 2d47 1dbe
00000130: d493 34be d3b5 6bbe dd09 ecbd ffcd 0bbe
00000140: 48ca 95be f589 03be 39e4 5bbe 38b5 48be
00000150: 7f49 0ebe 2cd9 2bbd ee12 4ebe a6f0 41be
00000160: 871d 2fbe bc56 dbbe 1c40 80be 1c3f 96be
00000170: 3cae 47be 4241 a5bd a7dc 7dbe 2957 adbd
00000180: 5df3 b1be 15fe 60be 9920 6cbe 6316 c7bd
00000190: 9b00 c6be f8c5 74be 4cf6 71be e060 0abe
000001a0: b7b1 85bd de8b 533b e79e 27be 1914 45be
000001b0: 3502 0cbe 2e79 bebd 7b7f 97be ed8c 90be
000001c0: 6407 6abe fdca 09be dea6 103c 3652 f9bd
000001d0: 164e 02be b87f abbd d326 48be a8ae 09be
000001e0: 23b9 84be 882a 45be 4dac 8fbe 2a1f 7bbe
000001f0: 5b44 0dbe c1c2 80bd cd82 f6bd 3b9a aabe

actor.6.weight f4 [10, 128]
-0.0081918035 -0.0031848203 -0.005146011 0.0020251588 0.023019366 0.0067992625 0.008617607 0.0022011271
0.0046217223 0.004663791 0.0076094777 0.007983259 0.012212426 0.0041082143 -0.0023495564 0.016323963
-0.006109725 0.010093412 -0.028307939 0.0007283267 0.0009325 0.042739403 -0.008130517 -0.0009763279
-0.004588627 0.0077899285 0.0024209123 -0.002056148 -0.0035176883 -0.02886818 0.0033221971 0.0030533688
-0.0045107175 -0.003402156 0.0016003664 0.0011653405 -8.9712616e-05 0.000617016 -0.011937948 -0.0005345607
-0.0021535833 0.006352197 -0.018107759 0.018712793 -0.0028709187 -0.020775419 0.0051105204 0.0052083796
0.0044661677 0.0009876501 0.006257506 0.01195789 -0.012202747 0.0026594102 -0.0009679422 0.011343111
0.013399388 0.009739905 0.005813258 0.0032829305 0.0024173358 -0.0042913137 -0.009560803 -0.028758874
0.01228492 -0.0135325985 0.03950971 0.013866538 0.029262237 -0.00021154253 -0.0135971 -0.0050548716
-0.0034308678 -0.0067426497 0.014365447 -0.029265517 0.0030104772 0.024013817 0.0034715985 -0.0068931216
0.0015497489 -0.018314086 -0.004779186 0.0059634564 0.010145335 0.022415007 0.008656696 -0.03030615
7.8809695e-05 -0.0050591603 -0.03025884 -0.015056373 -0.018169302 0.003454441 0.018893898 -0.02303763
0.083432674 -0.050484844 -0.00495776 0.009902155 0.0057913493 0.002034732 0.015479059 -0.012971303
0.0017289842 0.0004876516 -0.00056272984 -0.0067435913 -0.0071744425 -0.0008498679 0.023445027 -0.016348489
-0.0013300418 -0.025636764 -0.008185455 -0.0067453748 -0.0044799796 0.021718178 0.004288891 0.00274799
-0.005262982 -0.027652392 0.02164674 -0.0058511333 0.011744161 -0.0061176103 0.0039409804 -0.008921662
-0.016445402 -0.0047164136 0.013062124 -0.011005588 -0.044155646 -0.0022377274 0.0126799755 -0.008785181
-0.0015242989 0.026125228 0.023798369 0.0020819418 -0.006138385 0.0019938285 -0.013522021 -0.0029063944
-0.045677505 -0.0053125457 -0.010014724 0.0013644905 -0.009612504 -0.0014048675 -1.9373321e-05 -0.0034625924
0.0005836376 0.03776776 -0.0047294195 -0.0062976647 0.005095449 0.030213058 -0.00825547 -0.013336051
-0.0068363394 0.0006866405 0.0034777452 -0.026004167 0.004160188 -0.020507116 -0.007970865 0.0038792323
0.0058601517 -0.010712367 0.00035558187 0.0027725315 0.00042454095 -0.003594107 0.0018269133 -0.010281654
0.0037058166 0.01335102 0.013783599 0.0035161523 -0.00048743 0.008129855 0.039253607 0.06880639
0.023783445 -0.016286584 -0.0063792453 0.07562621 0.0016194349 -0.00730608 -0.0076654516 0.008326928
0.0020479609 0.00803817 -0.0055386396 0.0036474618 0.013831051 -0.042504173 -0.029178375 0.093885586
0.0008378701 0.0030202367 -0.0076145735 -0.0022052366 -0.00721051 -0.0031345128 0.009915056 0.009964116
0.0009040021 -0.00086462667 -0.03582849 -0.008074822 -0.059788592 0.005030639 -0.015154663 0.00035349047
0.01104337 -0.00032499962 -0.031798717 -0.016177155 0.022404723 5.733213e-05 -0.00021543252 0.010915521
-0.010927706 0.0014130697 -0.007159683 0.002114628 -0.009907856 0.0031244373 0.005091423 0.0158681
0.002747265 0.010073736 0.024437768 -0.0024002562 -0.020098682 0.03564774 0.0054407096 -0.0039658654
0.042808395 -0.011187332 0.0055488036 -0.024941321 0.03133754 -0.0073246034 -0.0029600752 -0.02743227
0.0038011905 -0.0023819914 0.010704686 0.043665323 -0.009901974 0.0018742754 -0.00841976 0.0015770408
00000000: ea36 06bc 6bb8 50bb de9f a8bb 87b8 043b
00000010: 1c93 bc3c 59cc de3b dd30 0d3c c940 103b
00000020: d171 973b b7d2 983b ed58 f93b 37cc 023c
00000030: a116 483c 339e 863b 04fb 19bb d5b9 853c
00000040: 1734 c8bb d75e 253c 0de6 e7bc 2ded 3e3a
00000050: 0473 743a 830f 2f3d dc35 05bc 42f0 7fba
00000060: 315c 96bb a842 ff3b 2ba8 1e3b 70c0 06bb
00000070: 0489 66bb f67c ecbc 38b9 593b 071b 483b
00000080: a4ce 93bb b5f6 5ebb 63c3 d13a 57be 983a
00000090: 1824 bcb8 3ebf 213a 6297 43bc c321 0cba
000000a0: 2223 0dbb 1726 d03b b956 94bc 924b 993c
000000b0: 0626 3cbb 3631 aabc 2776 a73b 0eab aa3b
000000c0: ee58 923b 0a74 813a c40b cd3b 07eb 433c
000000d0: 08ee 47bc 8049 2e3b 80bd 7dba 75d8 393c
000000e0: 1b89 5b3c 1f94 1f3c 247d be3b 6f26 573b
000000f0: 2a6c 1e3b 269e 8cbb eaa4 1cbc bb97 ebbc
00000100: b046 493c d5b7 5dbc efd4 213d 7a30 633c
00000110: 5cb7 ef3c 84d1 5db9 5fc6 5ebc 56a3 a5bb
00000120: 69d8 60bb 72f1 dcbb 0d5d 6b3c 3dbe efbc
00000130: 6d4b 453b a0b8 c43c c283 633b b2df e1bb
00000140: f220 cb3a 6c07 96bc b89a 9cbb 1969 c33b
00000150: 9f38 263c ad9f b73c d1d4 0d3c 9a44 f8bc
00000160: a246 a538 50c7 a5bb 63e1 f7bc 01af 76bc
00000170: cad7 94bc e763 623b 60c7 9a3c 69b9 bcbc
00000180: c0de aa3d 32c9 4ebd b574 a2bb a63c 223c
00000190: 5cc5 bd3b 2359 053b e19b 7d3c 9785 54bc
000001a0: 159f e23a 7dab ff39 2984 13ba 58f9 dcbb
000001b0: 9617 ebbb abc9 5eba c90f c03c 44ed 85bc
000001c0: cc54 aeba 3104 d2bc 491c 06bc 4e08 ddbb
000001d0: cbcc 92bb 52ea b13c d389 8c3b 9f17 343b
000001e0: 1875 acbb 4587 e2bc 8154 b13c ddba bfbb
000001f0: 956a 403c 3c76 c8bb 5723 813b 2a2c 12bc
00000200: 82b8 86bc 258c 9abb 8502 563c c850 34bc
00000210: 8ddc 34bd d6a6 12bb acbf 4f3c b8ef 0fbc
00000220: fcca c7ba 9304 d63c ccf4 c23c 3071 083b
00000230: 8124 c9bb e4aa 023b 778b 5dbc 3579 3ebb
00000240: 5618 3bbd dd14 aebb cc14 24bc b4d8 b23a
00000250: c47d 1dbc 8823 b8ba e483 a2b7 a9ec 62bb
00000260: 42ff 183a 5eb2 1a3d 3ff9 9abb a45c cebb
00000270: b9f7 a63b 6081 f73c f341 07bc 747f 5abc
00000280: 5f03 e0bb aaff 333a e2ea 633b b106 d5bc
00000290: 3052 883b 8afe a7bc 3b98 02bc b83a 7e3b
000002a0: 8406 c03b ec82 2fbc 646d ba39 5cb3 353b
000002b0: ec94 de39 1c8b 6bbb 0a75 ef3a 6274 28bc
000002c0: 49dd 723b 3dbe 5a3c 9bd4 613c 3f6f 663b
000002d0: bf8d ffb9 1533 053c 64c8 203d 5dea 8c3d
000002e0: 80d5 c23c 716b 85bc fd08 d1bb eae1 9a3d
000002f0: 3843 d43a d767 efbb 782e fbbb ab6d 083c
00000300: 1537 063b 87b2 033c 7a7d b5bb 410a 6f3b
00000310: a29b 623c db18 2ebd 7d07 efbc 1647 c03d
00000320: 83a4 5b3a 2aef 453b ac83 f9bb bb85 10bb
00000330: 2446 ecbb 666c 4dbb c272 223c 8840 233c
00000340: 8efa 6c3a 1da8 62ba e5c0 12bd 424c 04bc
00000350: e2e4 74bd 0fd8 a43b 434b 78bc b054 b939
00000360: 40ef 343c b664 aab9 5f3f 02bd f485 84bc
00000370: 1c8a b73c e877 7038 bae5 61b9 03d7 323c
00000380: 1f0a 33bc c036 b93a c69b eabb 9295 0a3b
00000390: 8f54 22bc 5cc3 4c3b f4d5 a63b d1fd 813c
000003a0: 750b 343b 500c 253c b731 c83c 9e4d 1dbb
000003b0: fea5 a4bc 5d03 123d fb47 b23b 17f4 81bb
000003c0: db57 2f3d 124b 37bc bdd2 b53b be51 ccbc
000003d0: cb5b 003d 3a03 f0bb d2fd 41bb a4b9 e0bc
000003e0: 651d 793b 2f1b 1cbb b562 2f3c 69da 323d
000003f0: e43b 22bc 3faa f53a 08f3 09bc b5b4 ce3a

actor.6.bias f4 [10]
0.05342472 0.053705398 -0.19212008 -0.19135916 0.06607878 -0.17122427 0.026956854 0.0074316864
-0.14249161 0.11813574
00000000: e1d3 5a3d 31fa 5b3d 20bb 44be a8f3 43be
00000010: 5054 873d 6a55 2fbe 9fd4 dc3c 8185 f33b
00000020: 52e9 11be 27f1 f13d
