example_model/exported/policy_model_11000.onnx (onnx, 718605 bytes, 8 tensors)

actor.0.weight f4 [512, 26]
00000000: e53e e2bd 1ef5 42bd 8cf4 d7bd 959c 7a3e
00000010: 05e5 10bf b6c8 ac3d 35fc ff3e c84e 133f
00000020: ef2f e33d f4be a6bf c0d3 423e c608 823e
00000030: b600 76bc e9aa 23be d349 1f3e 27f4 003f
00000040: 85a3 d93b 1baf 963c 2b25 233a c88f 0fbd
00000050: 47e8 16bd ea63 5abc 1364 6f3c 31f5 303c
00000060: d53f 2a3d 7bee 933c baaa 443e 56db fcbd
00000070: e695 133e 12b6 13c0 215c 05bf a157 123e
00000080: c2c8 d63e 3114 20bd 6fd3 5ebd c9f6 bf3f
00000090: aea5 793e 0285 a4bb 3985 acbd 9999 b23e
000000a0: 2671 ae3e cb06 1ebf dc79 5abc 9d16 dcb8
000000b0: e420 01bc e35d 44bc 9754 34bd 6082 e5bc
000000c0: 64ba 93bd 4a56 203c b702 2c3d 36a3 ac3d
000000d0: 93c2 4dbf 3c53 10bf 84da b23e 4f93 23be
000000e0: 011b 163f 8e18 2cbb e2d4 1bbf 53c4 f93e
000000f0: 4e0d 4b3f f191 2ebf b0d6 2bbf f445 a8bd
00000100: b1b0 d5bc 8498 1ebd 0f43 86bf ee19 ea3e
00000110: d31c a3bc b0fb 8dbd e307 abbb 825f 17bb
00000120: d47f 9f39 b47f 4fbc aa45 a0bd 03f4 6dbb
00000130: 486e 79bd 4991 f3bc cd98 21bc 55d4 9e3e
00000140: 7d61 1dbe eefa 22bf 6797 89bf a46e babd
00000150: df64 80be 9366 84bd 52fb 93bf 4bd0 a83d
00000160: 9ff3 f3be b12e 99bf e249 13bf 09b1 333e
00000170: d9bd 163e 5ac2 6abe ad7d 27be 6758 b93d
00000180: a721 763d 2061 b7bc 2e81 273d abc1 303d
00000190: c58e 0e3d be1d a43d ff5d 4b3b 5622 aa3c
000001a0: c83c 743e 66e7 b8bb 30f6 1e3d b7a2 21bf
000001b0: 5192 47bd a056 a13e ee2c 5bbe 6ce6 2e3d
000001c0: 7816 e3be 8fe9 41be 5f3a eabc 503f 66be
000001d0: 618f 99be 47f4 e1be f0d7 323e b659 c43c
000001e0: 3c2c e1bc aef8 17be 57a3 173b 187e 2d3d
000001f0: ff2f f0bc aa5d 173d 570d 7ebd b9ad 77bc
00000200: 12b4 103d 9e9b 0f3c 9087 7ebe c360 15bf
00000210: f18e 093f 9ee5 b5bf 4fc8 d83f b953 9e3e
00000220: 42a6 d13f dcad ae3d ec9f a1bf 0373 453a
00000230: 8213 5d3d 1842 403f 9ece 2dbe 3155 8f3d
00000240: 6691 93be 0afa e03d 2346 a13c b0a1 4ebd
00000250: 4a63 96bc ec98 f43b 801b eabd a90b 673d
00000260: 4de8 c63c 43e9 b63d bbfb 12be 9d1d 853c
00000270: f5ad 983e 6683 b7bd 1594 bebc 5b77 ca3f
00000280: d998 82bd 8e54 663e 99fb 413e cc4a 6abe
00000290: 34f9 7dbe 3c19 37bf 20b6 a8bd 3c01 ddbe
000002a0: e573 58be e7ac eebe 6c5b 4fbe 54a0 8dbe
000002b0: a160 a7bd 3616 93bc 11c0 4cbb ba9c a0bc
000002c0: 56ca b23b b3e3 bf3b cbdc b9bc e7e8 0fbd
000002d0: 0a72 583d f31f 803c 7a13 4bbe f335 0cbe
000002e0: da19 253d 3fba c03f d0b3 e7bd cb04 1f3e
000002f0: cd2a 063d dd37 87be ff17 c53e 300e c2bd
00000300: 6d56 9fbc 4517 debe cce9 5a3e 72cf 14bf
00000310: abe6 083e 7551 313f 313d f93c f110 253d
00000320: 3ef5 8c3c 560b 85bb 966c a2bc d92e dcbb
00000330: a6fa 89bb 901f 83bd 807a 743d ef78 293d
00000340: 7ca8 cabe 9217 18bf 2039 9dbf 24ff 97bf
00000350: 2f1d 353f 9089 a93d fd5d b3bf a6b0 f33e
00000360: 18e3 98bd b2ab 6bbe f82b 653d 6093 963e
00000370: 3e11 a83d d440 1c3f 6cf5 1dbf 859b 083f
00000380: 0765 673e 6977 babe e0c7 02bd 291a a53d
00000390: 8129 83bc f209 55bd 2b48 c73c 8af3 51bb
000003a0: f578 cf3c f962 f23d 14c4 d3be d9dc 17be
000003b0: 7be7 e8bd fe2f 3dbf 8bcf 11bf 250e 543d
000003c0: e872 17bf 71a8 903e 38e6 bebe a53c 443f
000003d0: 130f 323f 8e60 053e 713b 083e 3a3d b43e
000003e0: 0424 c7bf fa9f 5a3e 5d0b 923a 4050 2abe
000003f0: 24a2 293e 3018 87bd 5089 0abe 2a4e e5bd
-0.110471524 -0.047597043 -0.105446905 0.24473794 -0.56599456 0.0843672 0.49997106 0.57542086
0.11093127 -1.3027024 0.19026089 0.2539732 -0.015014818 -0.15983166 0.15555505 0.50372547
0.0066418075 0.018394044 0.0006223495 -0.03504923 -0.03684261 -0.013329485 0.014611262 0.010800646
0.04156478 0.018058052 0.19205752 -0.123465225 0.1441265 -2.3079877 -0.520937 0.1429124
0.4195004 -0.039081756 -0.054400858 1.4997188 0.24379608 -0.0050207386 -0.08423848 0.3488281
0.340707 -0.61729115 -0.013334718 -0.000104946295 -0.007881377 -0.011985275 -0.044025984 -0.02801627
-0.072132856 0.009786198 0.041994777 0.084295675 -0.8037502 -0.56377006 0.3493234 -0.15974163
0.58634955 -0.0026259753 -0.6087171 0.48782596 0.79317176 -0.6819144 -0.6712446 -0.082164675
-0.02608523 -0.03871967 -1.0489215 0.45722908 -0.019911205 -0.06932771 -0.005219446 -0.0023097699
0.00030422083 -0.012664724 -0.07825787 -0.0036308772 -0.060896188 -0.029732363 -0.009863091 0.3102137
-0.1536922 -0.6366414 -1.0749329 -0.09103134 -0.2507696 -0.06464877 -1.1561072 0.08242854
-0.47646806 -1.1967374 -0.5753461 0.17548002 0.14720859 -0.22925702 -0.16356535 0.090500645
0.060090687 -0.02238518 0.04089468 0.043153446 0.034804124 0.08013485 0.0031031368 0.020768326
0.23851311 -0.005642819 0.038809 -0.6313891 -0.048723523 0.31511402 -0.21403858 0.042700216
-0.4435308 -0.18936752 -0.028592287 -0.2248509 -0.29992202 -0.4413168 0.17465186 0.023968559
-0.027486913 -0.14840958 0.002313813 0.04235658 -0.029319761 0.03695456 -0.06202444 -0.015117102
0.03532798 0.008765129 -0.248564 -0.5835077 0.53733736 -1.4210699 1.6936129 0.3092325
1.6378863 0.08529255 -1.2626929 0.00075320917 0.053973682 0.7510085 -0.1697335 0.06998671
-0.28821868 0.10985191 0.019686764 -0.050447166 -0.018357892 0.007464519 -0.114310265 0.056407604
0.024280692 0.0893121 -0.1435384 0.016249472 0.2982022 -0.08960609 -0.02326397 1.5817674
-0.063768096 0.22493193 0.18943633 -0.22880095 -0.24802095 -0.7152288 -0.082378626 -0.43165004
-0.2113796 -0.4661629 -0.20249718 -0.27661383 -0.081727274 -0.017954927 -0.003124241 -0.019605983
0.005456249 0.0058560013 -0.02268829 -0.035134222 0.05284313 0.015640235 -0.19831648 -0.13692455
0.040307857 1.5056838 -0.113135934 0.15529172 0.03275566 -0.26409808 0.3849487 -0.09475362
-0.01945039 -0.43377128 0.21378249 -0.58129036 0.13369243 0.6926492 0.030424686 0.04029936
0.017206784 -0.0040601892 -0.019827168 -0.006719452 -0.004210788 -0.064025044 0.059687138 0.041375097
-0.39581668 -0.59410965 -1.2283058 -1.1874738 0.70747656 0.08278191 -1.4013058 0.4759571
-0.0746519 -0.23014715 0.055950135 0.29409313 0.08206414 0.6103642 -0.6170261 0.53362304
0.22597133 -0.36419228 -0.031928897 0.0806163 -0.016011002 -0.052011438 0.024326405 -0.003203603
0.025326231 0.11835284 -0.41360533 -0.1483034 -0.113722764 -0.73901355 -0.5695731 0.0517713
-0.5915971 0.2825351 -0.37285018 0.76655036 0.6955425 0.13025114 0.13303925 0.35202962
-1.5557866 0.21350089 0.0011142303 -0.16632175 0.16565758 -0.0659641 -0.13528943 -0.11196549

actor.0.bias f4 [512]
00000000: 399e a8bd 6f92 3a3e d4ea 27bd 8a7e 5dbe
00000010: f701 f23d 008a 8dbd 5fe5 7e3d aafe 223e
00000020: f78a b2be f8a2 b73e d22d 70be 4477 f8bd
00000030: 6f30 403e a7b1 5a3e a012 87be 2835 05bd
00000040: 2a6f 0cbe 2e63 13be cd8f 9d3e 840e 2a3e
00000050: 4bd3 b9bc 1b49 b63d 4af7 98bd 4eb3 47be
00000060: f5a4 95bd 4a4c 943e be68 713e 3c98 823d
00000070: 2cb7 b83d 3115 a03b 239a 3abe f571 abbd
00000080: b87b 42bd a98c 09be 24a6 00bd cb26 5b3e
00000090: 5051 93bd e02f fd3d 85d2 05be 0aaf 13be
000000a0: e0eb e83d 9a2c eabe 6389 44be adc5 493b
000000b0: 2760 98bc bbdc 0fbe 509a e43d 6180 e4bd
000000c0: 792a b33e 357e 09be e0f2 3abe 3140 213e
000000d0: ad80 9dbd 2186 b4bd 41de a5bd f328 a83d
000000e0: 5bcd 233e 95f0 293e 9ff1 8a3e 622e d93d
000000f0: f8ba d53c 6ccb 5b3e 9289 05be 1ca1 8d3e
00000100: 675e 17be 9fe2 6bbf 0758 033d 0aa3 183e
00000110: 02c0 f73d e9c5 aabe a130 75bd 24dd 683e
00000120: 97b0 bf3e 4ed9 c13d d6a5 80bd 9d00 73be
00000130: 2ee8 c03e 3a1a 19bb b824 b5bc fb84 c6bd
00000140: c634 e53d b802 96be a72c fbbd 5571 163d
00000150: 0294 d2bd cfdc 6d3e 8796 afbe 5974 113e
00000160: e9df 1fbe 1db2 e1bd 6537 5bbe 47a5 e8bc
00000170: a9df 483e 5c57 1b3e acac 1d3e f4f8 b43e
00000180: 8e68 75be 7397 843e c26a 6fbd cf45 65bd
00000190: d792 a8be f1b8 2c3e e9f0 203e 5856 40bc
000001a0: aae6 0dbd 7f79 373e 7d84 ae3d 0104 203e
000001b0: 1345 50be 2df0 2bbe a615 b3bc ab70 d03d
000001c0: 5d86 64be e524 af3c 1270 813d e65b 593e
000001d0: ccc8 27bd 942f 87be 7228 8e3d f5ba a53e
000001e0: 2d88 de3d 2d6f 353e 1fd4 833a 66cb 8cbd
000001f0: efba 543e b1f6 b8bd eff9 5abe b4a0 e23c
00000200: a22e c43e 331d 4dbe 19a6 483e b1a8 4b3e
00000210: fba1 aabe e5c1 38bd 7142 353c 54c9 b43e
00000220: 7459 8a3e d27e 51be c20b 1bbd f7bd ba3e
00000230: 64e3 3a3e 262a 0e3e 2d35 f33d c7cf c13d
00000240: f382 f13d 3282 e53d 7bc8 a73e 1c7b 6abd
00000250: 28dc d13e 407b 13bf 1227 193e 0517 633e
00000260: d252 463e 4261 063e 6c0f e9bd 87f6 083e
00000270: 3b80 70bd 5ec8 43be e8f1 0dbe 91d5 7b3e
00000280: 0c8c 80be 5d59 ab3e d1be a4bd 0a9a 95be
00000290: 3a80 4e3e a13f 013d bdcc b03d 2c90 d93c
000002a0: c10b 97be 4437 27bc c299 e03d 8ccd 64bd
000002b0: 9526 2c3e 561e 1d3d d929 b93c 3657 c83e
000002c0: dbe9 febc 4851 86be becd 15be 247c 953b
000002d0: 3d6f 743e f78e a0bd 9f20 c6be eaf3 9e3e
000002e0: 2c4f b9be 81bd 0a3e 7f7d 53be 8c47 313e
000002f0: 3705 37bd bdfb 8bbe 704b 5bbd c97b 7a3e
00000300: 615f 253e 55c6 dd3e 3791 133e 673a 933d
00000310: b804 953e 9521 933e e2b8 87bd 0b76 52bd
00000320: fa93 52bd 1d9a 353e 049b 3ebd c202 2abe
00000330: d99b 603d ff58 3c3e f634 533e d3ca 69be
00000340: 3ac5 e43e 8ba3 70bd 8045 a3be 7d96 73be
00000350: 14af 1b3d ad8b 983d 7516 a0bd 09b5 093e
00000360: 63aa 48bd 6e92 6ebd 2b69 203e e0cc f93d
00000370: 8cb0 723e c6e1 d73c 9af2 343b 208f 72be
00000380: b5e0 813e 3aff 773d fb79 83be 1d07 8d3e
00000390: e487 583e 0bd2 2a3e 29bb 11bd 5767 393e
000003a0: 4369 b2ba bbb6 8d3e e03a 2b3e 3b1a 873e
000003b0: d27c 1c3d 9b12 a33b 1602 2bbb b900 43be
000003c0: 0ac1 b6be 7041 abbe 1f8b 25be 68bf 573e
000003d0: 879a ebbc 46f4 923b c10c 7d3e af10 b83e
000003e0: 6fc8 643e f9ed acbd b0c2 e8bc e608 4dbe
000003f0: 762c 7f3e b29f 9bbd 18b5 0c3e f90a 0abe
-0.082333036 0.18219922 -0.040995434 -0.21630302 0.11816781 -0.06911087 0.062230464 0.15917459
-0.34871647 0.35866523 -0.23454979 -0.12132123 0.18768476 0.21356831 -0.26381397 -0.032521397
-0.1371428 -0.14393303 0.30773774 0.166071 -0.02268376 0.089006625 -0.07469042 -0.19501993
-0.07306854 0.28964454 0.23575112 0.06376693 0.09019312 0.0048853387 -0.18222861 -0.08371345
-0.04748127 -0.13432564 -0.031408444 0.21401517 -0.071932435 0.12362647 -0.13068588 -0.14422241
0.113731146 -0.45737153 -0.19193034 0.003078799 -0.018600537 -0.14049046 0.11162245 -0.11157299
0.34993342 -0.1342705 -0.18256712 0.15747143 -0.076905586 -0.088146456 -0.08099032 0.082109354
0.15996306 0.16595681 0.27137467 0.1060455 0.02609013 0.21464318 -0.1304076 0.2766198
-0.14782105 -0.9214267 0.03206637 0.14905944 0.120971695 -0.33354118 -0.05986083 0.22740608
0.37439415 0.09465276 -0.06281631 -0.23730703 0.3767714 -0.002336158 -0.022112235 -0.09693333
0.11191706 -0.2929895 -0.12264376 0.036729176 -0.102821365 0.23228763 -0.3429453 0.1420454
-0.15612759 -0.110203005 -0.2140785 -0.028399123 0.1961657 0.15170044 0.153979 0.35346186
-0.23965666 0.25896797 -0.05845142 -0.055974778 -0.3292453 0.16867425 0.157169 -0.011739336
-0.034643807 0.17917441 0.08521364 0.15626527 -0.2033885 -0.16790839 -0.021860909 0.1017774
-0.2231688 0.021379897 0.06320204 0.21226463 -0.04096298 -0.26403487 0.06941308 0.323692
0.10865817 0.17718191 0.0010057724 -0.06874733 0.20774435 -0.09031428 -0.21384405 0.02766452
0.38316828 -0.2003067 0.19594611 0.1988857 -0.33326706 -0.045106787 0.011063204 0.3530985
0.27021372 -0.20458534 -0.03785301 0.36473057 0.18250805 0.13883266 0.11875377 0.094634585
0.11792555 0.112064734 0.32770142 -0.057246312 0.40988278 -0.5760994 0.1495631 0.2217675
0.19367531 0.13123038 -0.113798946 0.13375293 -0.05871604 -0.19119403 -0.13861811 0.24593188
-0.25106847 0.33466616 -0.08044208 -0.29219085 0.20166102 0.031554822 0.08632801 0.026558004
-0.29501155 -0.010206047 0.10966827 -0.055860087 0.16811593 0.03835901 0.022602962 0.39129037
-0.03111737 -0.26233888 -0.14629266 0.004561918 0.23870559 -0.078397684 -0.38696763 0.31045467
-0.36193216 0.13548853 -0.20653342 0.17312449 -0.044682708 -0.273405 -0.05353874 0.24461283
0.16149665 0.43315378 0.14410864 0.07188874 0.29105163 0.2873656 -0.066270605 -0.051382106
-0.051410653 0.17734571 -0.046534553 -0.16602615 0.054836128 0.18393324 0.20625672 -0.22831278
0.44681722 -0.058749717 -0.31888962 -0.23787875 0.038008764 0.07448516 -0.07816783 0.13447966
-0.04899062 -0.058245115 0.15665118 0.1219728 0.2370016 0.026352774 0.0027610422 -0.2368741
0.2536675 0.060546137 -0.25679 0.2754449 0.21145588 0.16681688 -0.03557888 0.18105827
-0.0013611693 0.27678475 0.16721678 0.263872 0.038204975 0.004976583 -0.0026093773 -0.19043244
-0.35694152 -0.33448362 -0.16166352 0.2106911 -0.028760208 0.004484686 0.24711896 0.3595023
0.22342084 -0.08443827 -0.028413147 -0.20022926 0.24919304 -0.07598819 0.13740957 -0.13480748

actor.2.weight f4 [256, 512]
00000000: 5481 a63d 28b1 833e e885 553e 0bde 293f
00000010: 5f4f 193e 2f3c 263e 600a aebe 1daf 25bf
00000020: d328 46be 82a9 413e 1b1d b3be 70e9 793d
00000030: 9362 e83d 0847 1b3b 147a 20be b4d8 67bf
00000040: 66f2 0b3e 75a2 81be 3d81 b63e be04 193f
00000050: d5a9 203f bbc6 cfbd 50a5 aabc c471 e5be
00000060: 82d4 18be 6627 053e 6614 503d 225a 2cbe
00000070: 07ee 313e a648 953b 4c7a e53e a1a7 023f
00000080: 0a81 d9be c1ca d53b f847 133e 19ea 06be
00000090: 2258 59be 2e0a 14be b845 2c3f 49b8 3a3e
000000a0: dccf d73e ffcb 053e c3a9 b73c 8de6 e2be
000000b0: a63f 2b3f f4b6 383e ea1c 433d 3743 f03e
000000c0: 764c 98bc 44c3 f03e f23e b1be b2af bf3c
000000d0: 2676 5ebe d343 bfbe 1566 8b3e 2758 f53d
000000e0: 061b 6abe 6a4f 153e a8eb 03be f3fb 83bd
000000f0: cc8a d53d df59 61be f83a 41bd 1b95 ec3d
00000100: 4716 8fbd ac86 0e3e 77dd b43e fe5f eb3e
00000110: 623a a93e 30f1 243c 628c e2bc c8d7 0c3e
00000120: cd2b a5be 2921 153f 33a4 e3be 09b4 b5be
00000130: 72db e23d 1032 8a3e 1b89 87be 6adc b73c
00000140: 30b5 97bf 2105 e33e 33b5 493e 9066 d23d
00000150: 2008 66be 2080 28be e784 9ebd dd37 673d
00000160: 6fbe a3bd da51 773f 49e0 183e d2a5 da3d
00000170: 9b50 263f f49d c5be a36c 723e 31f1 433e
00000180: 17c9 0d3f 6c94 35be cd5d 98be dad2 25bd
00000190: 8e98 34be d5c4 07bd f7ff c03e 0dd1 40be
000001a0: 01e2 8c3d 7025 323d f050 b53e 2fd7 22be
000001b0: b8d5 813d 8afe 4abe b324 a53d 041d cdbd
000001c0: f0b0 a43d 9964 21bd ae6c 6f3e 836c 44be
000001d0: 353b 283e 9775 8b3c a9ac e53e d0d5 403d
000001e0: 3fd0 34be b02a fa3e 5f93 193d 52f7 7c3e
000001f0: 1b15 6f3e 2736 c1bd 2e4a c13e 62fc 363f
00000200: 7891 6f3e ebd7 f1be 0079 f8bd 4331 0cbf
00000210: b3d4 3bbd 1cd6 13be de12 91bd 198e 42bf
00000220: c3a0 14be f9f3 823e 77a3 cbbe 2188 63be
00000230: c332 3bbf ffc7 40bd 505c 873d bd00 7bbe
00000240: 866b 05be a25b de3d 0e2d 95be 62fa 843f
00000250: 2ae2 27be ef01 8c3d 344b 1b3f 38fb 273f
00000260: 14db a43e 6c7b 86be ff86 dd3d 40ec c4be
00000270: 000c dd3e 97c1 143e b952 8d3e 18c2 913c
00000280: 675b 6dbe 81c9 edbe a489 163f aaa1 bdbe
00000290: 61c7 043e d65a c9be 3c83 9c3e f510 f73e
000002a0: 482c 75be bffa efbc 5fe0 4bbf f1b2 2dbe
000002b0: 3e8e fbbe 6dbe 123e 31c9 18bf 5c55 22be
000002c0: 85f4 d7bd 80dc eabe f44c 0ebe 3034 aabe
000002d0: cae5 0cbf 2ae2 d73e c568 ae3c 9150 b0be
000002e0: dfab b8bd e721 613f be1f d03e ab60 d23e
000002f0: 9559 13be 5b45 983e d77c 163c e0b5 9cbe
00000300: 8596 8bbe 1ff9 82be 65b8 9cbe 4a53 933e
00000310: 628f f93e 87fb 86bf 0890 5c3d a5ee 70bc
00000320: 62ba c6be 626d 4e3e ae6c e53e fd02 363e
00000330: f057 2dbf cd91 f0bb 1d1a ba3e 52e0 723d
00000340: ddfc 813d 49ce bfbe 9ab5 05be 9d2f f6bd
00000350: fce7 e1be 8099 0c3f e7ac 01bf 2e00 0f3e
00000360: fca0 9e3e 6dfc bc3d c9a4 a6be 9e29 843d
00000370: c6ad fe3c 8ae7 a03e 619f 22bd 81bf 483d
00000380: 68ef 523d 84e9 fb3e 9ab4 8ebe 31df ef3e
00000390: 08b9 22bf d1de 04bd b9bf 96bc 70b5 bd3d
000003a0: c706 39bd a464 913d 08d5 1a3f 99ed 0e3f
000003b0: 057e ea3e c7d5 6b3e af9e 20bf 7e98 e7bb
000003c0: 8195 503f 3b10 963e 09df a4be e89e 41be
000003d0: f21f 22bf 9bb5 8c3c e89d f4be 9353 1f3f
000003e0: d2f6 4d3e 3193 793c 59a5 64be 53b1 953d
000003f0: cfa4 33be f175 21bd 525c c7be d613 a1be
0.08130136 0.25721097 0.20851862 0.66354436 0.14971684 0.16233896 -0.3399229 -0.64720327
-0.1935151 0.18912318 -0.34983143 0.06101364 0.113469265 0.002369346 -0.15671569 -0.9056504
0.13666686 -0.25319257 0.35645476 0.5977286 0.62759143 -0.10145327 -0.02083078 -0.4481336
-0.14924815 0.1300331 0.050800703 -0.16831258 0.17375956 0.0045557795 0.44819868 0.5103703
-0.42481261 0.0065244143 0.14382923 -0.13175239 -0.21225026 -0.14457008 0.6729388 0.18234362
0.42150772 0.130661 0.022419816 -0.4431652 0.66893995 0.18038541 0.047634996 0.4692628
-0.018591147 0.47023976 -0.34618336 0.023399208 -0.21724758 -0.37356433 0.2722632 0.11979704
-0.22861871 0.14581075 -0.12882864 -0.0644454 0.10426864 -0.2200694 -0.047175378 0.11551877
-0.06986671 0.1391856 0.35325214 0.45971674 0.33052355 0.010067269 -0.02765483 0.13754189
-0.3225998 0.58253723 -0.44461212 -0.35488918 0.11077012 0.2699132 -0.2647179 0.022443969
-1.1852169 0.4433985 0.19698028 0.102734685 -0.22464037 -0.16455126 -0.07740193 0.05644976
-0.07995307 0.9660927 0.14929308 0.10676159 0.64966744 -0.3859707 0.23674254 0.19134976
0.55384964 -0.177324 -0.29759064 -0.040484287 -0.1763632 -0.033146698 0.37695286 -0.18829747
0.06879044 0.043492734 0.35413313 -0.15902399 0.06339592 -0.19823661 0.080636404 -0.100153
0.08041561 -0.039402578 0.23381302 -0.19182019 0.16428836 0.017023845 0.44858292 0.047078907
-0.17657565 0.48860693 0.03749406 0.2470372 0.23347895 -0.09434157 0.37751907 0.71478856
0.23395336 -0.47235045 -0.12132454 -0.5476267 -0.045857143 -0.14437145 -0.07083677 -0.75998074
-0.1451445 0.2557676 -0.3977315 -0.22219898 -0.7312433 -0.04706573 0.06609404 -0.24512
-0.13029298 0.10857321 -0.29135936 1.0388911 -0.16394868 0.06836306 0.60661626 0.65617704
0.32198393 -0.26266038 0.10816764 -0.38461494 0.43173218 0.14526974 0.27602175 0.017792746
-0.23179398 -0.46442798 0.5880377 -0.37037402 0.12966682 -0.39327115 0.30568874 0.48255125
-0.23942673 -0.02929437 -0.7963924 -0.16962792 -0.4913196 0.14330454 -0.59681994 -0.15852875
-0.10544685 -0.45871353 -0.13896543 -0.3324294 -0.5503813 0.42164737 0.021290192 -0.34436467
-0.09017157 0.87942356 0.40649217 0.41089377 -0.14389642 0.29740414 0.009185038 -0.3060751
-0.27263275 -0.2558069 -0.30609432 0.28774482 0.48742205 -1.054551 0.053848296 -0.014705335
-0.38814074 0.20158914 0.4480948 0.17774577 -0.67712307 -0.0073415996 0.36348048 0.05929596
0.06347058 -0.3746207 -0.13057557 -0.120208 -0.44122303 0.5492172 -0.50654453 0.13964912
0.30982196 0.09227834 -0.32547596 0.0645325 0.031088721 0.3142665 -0.039702777 0.049010757
0.051497847 0.49201596 -0.27872163 0.4684997 -0.63563585 -0.032439057 -0.018401967 0.09263122
-0.04517248 0.07099274 0.6048131 0.55831295 0.4579927 0.23030768 -0.6274213 -0.007067739
0.81478125 0.29309258 -0.32201412 -0.18908274 -0.63329995 0.01717644 -0.47776723 0.622369
0.20113686 0.015232847 -0.223287 0.073092125 -0.17543338 -0.03941912 -0.38937622 -0.31460446

actor.2.bias f4 [256]
00000000: 1774 32be 8877 4bbe 4466 88be 1701 78be
00000010: 0915 3abd 939e 9fbd e2fd 85be e2b3 59be
00000020: 8839 e2bd 60b8 fcbb 0b2d cebe d511 7fbd
00000030: 8882 bebe f391 49bd 821e 29be 5100 1c39
00000040: 9713 52be 6d75 0abf d42b febd e07a 243e
00000050: 45cb 42be ceb8 cebe 89b9 dfbe 5d4c 69be
00000060: 74e5 5abf 49b9 8ebe 9ff3 c4bd 209d 18be
00000070: 7ceb 60be 2492 aabe 0eb4 a0be 4f6d adbd
00000080: 1bb2 8fbe af1c 9bbd 6487 99be 26df 15bd
00000090: 58d9 04bf 6ddf 513c 6bb8 17be 69b6 5dbe
000000a0: 8fab 8bbe 7f08 c2be ae76 8dbe c22d eebd
000000b0: 04d5 3bbe 2355 dabd 3813 9fbe 0941 90be
000000c0: 1e57 a3be 8cc0 b4be 4aad 9ebe a00a 88be
000000d0: 0e56 99be 717f 47be d572 363d cafb 6bbe
000000e0: 58a4 9fbe 1097 f4be c484 59be 5c1a 093c
000000f0: 841f a9be 985e 89be 2f5b 10bd 8db2 3abe
00000100: 7763 06be 3583 95be 3449 50be deea debe
00000110: 9c38 28be d4ea 37be 0c9e 3fbe f180 2abe
00000120: 1d8a 55be 5449 84bd dd07 c0be 9bfd 31be
00000130: fef4 96be 55fd 41be 1947 89be af26 b33e
00000140: 5351 bcbe c421 45be e762 2bbe 073b a3be
00000150: 9c5d 17be f36c 99bd 6c7e b3be 4419 fbbe
00000160: ac7b 2fbe de97 39bd e6e8 c2bc 8c0a bfbb
00000170: ec3c d1be e788 4bbe 3920 6ebe 17ed 10bf
00000180: c35a 9bbd 8024 0dbe 51e0 b6bd 46b4 f0be
00000190: 1e3e 42be 5d6f a4be e6d5 b8be 7dfd f73c
000001a0: 5e5b 9ebe c1f8 acbe 4157 e7be a2a4 c8bc
000001b0: 980f d1be d85a 36be 94e9 d1bd fdac edbe
000001c0: 5eae 94be 8d5f cabe 2592 8bbe 5778 69be
000001d0: a2f9 b6be a79c 10ba 933f 413e edff 58be
000001e0: dd60 b8be 8751 51bd 67b4 acbe 1c9d febe
000001f0: c349 f8be ecee a9be 7184 39be 37fe a3ba
00000200: 852e 85be 2d18 89be 0893 8cbe 0ef8 f9be
00000210: f6ea b83e 35c6 2ebd e276 00be adff a4bd
00000220: 6da1 e2be 5348 ecbe 5d61 73be ef68 65be
00000230: f1a7 2bbe 2ecc b3be 340c 0ebf 1316 e2be
00000240: 75d5 e73c 5eaa c3bd 0706 55be c959 86be
00000250: ac64 e2be 5f0c 22be 6c4e 07be 1d35 01bf
00000260: aeab 75be 1ced a6be 3aca a6be 002b b7bd
00000270: a4de afbe 25a2 9dbe db7e 10be 3c8c 3abd
00000280: 1958 42be 6337 dbbd 1b19 0dbf a6dd 36bf
00000290: b1f0 7dbe 754c 4bbe 2f10 dabe f9d5 4cbe
000002a0: 0aa1 14be 88fd bbbe dd54 593d c831 d33a
000002b0: 6c7b e3be 2a4f 10bf 168a 98be 9d42 b3be
000002c0: 7b57 62be b597 76be 4058 32be 3cbb adbe
000002d0: f020 02be d2dc c3be 37c4 dabe f116 07be
000002e0: 7ed5 27bf 9cf5 96be 17a5 45be 5365 89be
000002f0: 6e0c 89be a027 b5be 87f3 92be b4fa 7dbe
00000300: ba56 99be 0744 b33a ed47 dbbe 1c68 69be
00000310: 70a7 79be 28dd bcbe 975b 7ebe b3f1 ddbd
00000320: a65f d4bc dca5 8fbe 75b9 073e 7b07 37be
00000330: 9f6f 2bbe d03b b7be 24cb 893e b32d 12be
00000340: e60c f2be 9731 b7bd 1f49 c7be 5bef edbd
00000350: 7f8f 4bbe 18a6 62be a566 973e 128b cebe
00000360: 5c76 a2bd 133b 80be 0d68 7fbe 8e9e f4be
00000370: 46b1 98bd 2565 d8be 2e54 36be e2bb 203f
00000380: dea1 0fbe ff5c 51be f82c 6cbe 8c9c d1bd
00000390: 11a8 41bf b659 17bf c179 c4bd 105e d73d
000003a0: 5e9c 0abe be60 81bd 9742 acbe 7a29 4dbe
000003b0: 1fc1 85be 92c0 28be 01b6 a6be 2a32 cdbe
000003c0: 482a f9bd 6d49 8fbe 8d8f a3be d962 17be
000003d0: 7a8b 13bd f791 55be 276f 8ebe 88d5 85be
000003e0: 4e02 c5be 4908 3fbd 0749 96be 36e8 09be
000003f0: 1546 96be 8113 83be 86c4 d0be 2513 c4bc
-0.17427097 -0.19869816 -0.26640522 -0.24219166 -0.045430217 -0.077939175 -0.2617026 -0.21260026
-0.110461295 -0.007712409 -0.4026874 -0.062272865 -0.37208962 -0.049211454 -0.16515544 0.00014877437
-0.20515285 -0.5408543 -0.12410703 0.16062498 -0.19022854 -0.4037537 -0.4369624 -0.22783037
-0.8550637 -0.27875736 -0.096167795 -0.14903688 -0.2196483 -0.3331462 -0.3138737 -0.084681146
-0.2806557 -0.0757383 -0.29986107 -0.036589764 -0.5189414 0.0128096165 -0.14816444 -0.21651615
-0.27279326 -0.37897107 -0.27629608 -0.11629821 -0.18342978 -0.1066077 -0.3106935 -0.28174618
-0.31902403 -0.35303152 -0.30991584 -0.26570606 -0.29948467 -0.19482209 0.044543106 -0.23045269
-0.31180072 -0.47771502 -0.21242052 0.008368101 -0.33031857 -0.26829982 -0.03524321 -0.18232174
-0.1312388 -0.29201666 -0.20340425 -0.43538564 -0.16427845 -0.17960674 -0.18712634 -0.1665075
-0.20853467 -0.06459299 -0.37506 -0.17381899 -0.2948379 -0.18944295 -0.26812056 0.3499045
-0.36780795 -0.19251162 -0.16736947 -0.31880972 -0.14781803 -0.074914835 -0.3505739 -0.49042714
-0.17137021 -0.045310847 -0.023792695 -0.0058301147 -0.40866792 -0.19876443 -0.2325448 -0.5661177
-0.07585671 -0.13783455 -0.08929504 -0.47012538 -0.18969008 -0.32116213 -0.36100692 0.03027224
-0.30929083 -0.33783534 -0.45183757 -0.024492566 -0.4083221 -0.17808092 -0.102496296 -0.46421042
-0.29039282 -0.39526024 -0.27259937 -0.22799812 -0.3573733 -0.0005516507 0.18871908 -0.21191378
-0.360114 -0.05110314 -0.33731386 -0.4972924 -0.48493776 -0.33190095 -0.18116929 -0.0012511675
-0.26012054 -0.26776257 -0.27455926 -0.48822063 0.3611676 -0.042669494 -0.1254535 -0.08056579
-0.44263783 -0.4614893 -0.2376761 -0.2240331 -0.16763283 -0.35116714 -0.5548737 -0.44157466
0.028300026 -0.09553979 -0.2080308 -0.26240376 -0.44217432 -0.15825032 -0.1321351 -0.5047167
-0.23991272 -0.32602775 -0.32576162 -0.089437485 -0.3434955 -0.3078777 -0.14110892 -0.045543894
-0.18978919 -0.107039236 -0.5511643 -0.7143196 -0.24798848 -0.19853385 -0.42590472 -0.20003499
-0.14514557 -0.36716866 0.053059448 0.0016112858 -0.444301 -0.56370795 -0.2979285 -0.3501176
-0.22103684 -0.24081309 -0.17416477 -0.3393191 -0.12707877 -0.3825441 -0.42727825 -0.13192345
-0.6556014 -0.2948426 -0.19301258 -0.26835117 -0.26767296 -0.35381794 -0.28701422 -0.24802667
-0.2994898 0.001367689 -0.42828313 -0.22793621 -0.24380279 -0.3688748 -0.24839626 -0.10837116
-0.025924515 -0.28056228 0.1325434 -0.17873947 -0.16741799 -0.3578782 0.26912796 -0.14275245
-0.47275466 -0.089450054 -0.38922974 -0.11617919 -0.19878958 -0.22133672 0.295705 -0.40340477
-0.079327315 -0.2504507 -0.24942036 -0.47777218 -0.07455687 -0.42264667 -0.1780555 0.62786686
-0.14026591 -0.20445631 -0.23064029 -0.10234937 -0.75647074 -0.59121263 -0.09593535 0.10515988
-0.13536212 -0.0631728 -0.33644554 -0.20035353 -0.26123902 -0.1647971 -0.32560733 -0.40077335
-0.12166268 -0.27985707 -0.31945458 -0.14783801 -0.036021687 -0.20856462 -0.27819178 -0.26139474
-0.3847832 -0.04663876 -0.2935259 -0.13467488 -0.29350343 -0.25600818 -0.40774935 -0.02393491

actor.4.weight f4 [128, 256]
00000000: 178f 9b3e 2d48 5bbd fd7a be3e a936 72be
00000010: 65ca 80be 3b4a 663e 0050 513e 5381 0bbe
00000020: a89d 81bd 2528 2c3e 327f c63e 5859 73be
00000030: 6fbc 08be 1291 fbbd ce30 adbe 7800 07be
00000040: 6677 8a3c 01a5 c43d 0589 d33d 32cd 83be
00000050: a845 dabe 6b77 b2bd 97aa 083e ae40 adbe
00000060: 0e52 67be d03c 853e 3fd9 1b3e 4ee2 debd
00000070: b950 b0bb 7122 693e 5496 67be f29f a5be
00000080: d20a ab3d 8f4a 43be 581d d2bd c816 6fbe
00000090: df42 80be f198 90be 99c9 9cbe 5ea2 3abe
000000a0: 6b56 563e 521f b83e 5ff7 e9bd 8e8b f33d
000000b0: 4d50 dcbd 4f8a 91bd ea34 dabd 5c19 37be
000000c0: 18f6 dcbd db08 bb3e 6fd0 353d 85ec 7bbe
000000d0: d173 0d3e 7780 cb3d 45cb 80be 726d 3e3e
000000e0: 1a4f 7fbf 1bb7 013f a44a c1bd c0d1 a0be
000000f0: d621 d5bd 5fd3 4d3e 1c25 443e 7de1 183e
00000100: b765 15bf 06b9 10bf 8176 66bf 91c4 933e
00000110: 2f22 9abd ad04 33bf bdd0 283e e5dd 80be
00000120: 4360 afbe e829 c3be a610 163e 8f3c 303e
00000130: 9919 11be 64f4 cabe 48dd 7cbe 9c3b 08bf
00000140: a9b1 673e 7c1e 0d3c b82f 58be b1d7 c9be
00000150: 02e6 aebd c271 34bf ce06 133e 99eb aebc
00000160: 24ad b43e 7e1e ed3c 3da2 e8bd e80e b7bc
00000170: 0b3c 003e c193 35be 40f9 b9bd 9bf2 ac3e
00000180: 4e0b b53c b166 743e 1457 943e 5097 9e3e
00000190: 1c1e bcbd 4656 df3e ceae 913e 7088 9dbe
000001a0: dbf8 053e 8d4a aabe b24d cdbc 2296 313e
000001b0: d49c a83e 0798 88be f930 7abe 7754 813c
000001c0: eb48 18bc d789 243d 3764 e3be 1311 efbd
000001d0: 977d ad3e 45bf 963d e3f7 afbc 88ba 2ab9
000001e0: efac b93d 48a6 bc3d c481 a6be a35b 613e
000001f0: adb7 053e 215b 9e3e c384 c23e 9b24 02be
00000200: 997a f93c aa65 093d 0933 76be d8ac b3bd
00000210: 07a0 153e 0a16 a9be 9eef 8fbd 40a0 41be
00000220: e7cb 3ebe 3a23 133d 77f4 45be df30 f43d
00000230: 1ba7 cebd 02ed d5be d99b d7bd ad05 e13d
00000240: d745 87be 7ca1 37be c94b a6bd 1737 b7be
00000250: cdd2 e43c d62f 25be 97f4 96be 34a1 1b3e
00000260: 2185 73be 9a80 a1be ada6 113e 615c a2be
00000270: ad77 94be a9c8 c13e b95d 8a3e 38c1 a53e
00000280: 1224 39be 3ccc 86be ae22 edbd 88b0 07bf
00000290: ac06 89bc adde a93e 2a2d 703c 39cb fabd
000002a0: be7f 62bd 8ddf 7b3e e897 e4bd 6740 203e
000002b0: e7f8 95bd 3171 953e 7802 073e 4438 723d
000002c0: 7101 3abe b55e 4fbd 7bc1 71be 81ad 003e
000002d0: 5aaa 19bd 20d6 b8bc 4168 f83c 4593 67be
000002e0: 20ec d83d 5349 fb3e 16db 783d c864 8f3e
000002f0: 6a30 41be c0a9 213e a6f3 183e 3186 13bf
00000300: ee3d 3ebe fd5d 04be bb68 bcbe ceb3 1a3e
00000310: 2f79 fdbd ab69 ddbc 027f 10bd 67c4 d43e
00000320: 5750 db3d d874 8abd be96 16bf 9e27 e6bd
00000330: 999a 333c def7 463e ee09 90be 0a82 3f3d
00000340: d6b1 ffbc c038 e63d 3fd0 80be 4213 9cbc
00000350: 507f 0a3e f509 71be 337f 78be 8404 a33e
00000360: 7671 75be 52b1 9b3d 8bf2 ce3e 81a7 7c3e
00000370: a807 bebd 5cd4 743e d60a bf3d f5f3 d8be
00000380: 80a2 cabe db49 3d3d 5cde d2be 484e 4b3e
00000390: 4df5 23be 5291 903e e01b 53be fc4b 4d3e
000003a0: b4f7 003e 13df 033e 41d9 f5be 065e c4be
000003b0: d94e 5f3e 81aa 153d e2cd 2c3e a0a3 a03e
000003c0: 3b5a 3e3d f012 d43d d720 4dbe 7a04 923e
000003d0: 0a42 a93d 013d 1abf 9cd3 72be 9bf9 49be
000003e0: 0447 54be 627a a1be 5f31 17bf e9ea 043e
000003f0: c314 6ebe a6ee 43be 8839 58bd 3850 9f3d
0.30382606 -0.05353563 0.37203208 -0.23653664 -0.25154415 0.22489254 0.20440674 -0.13623552
-0.06328899 0.16812189 0.38768917 -0.2376455 -0.13353132 -0.12283529 -0.33826298 -0.13183773
0.016902637 0.096017845 0.10328869 -0.2574249 -0.42631269 -0.087141834 0.13346325 -0.3383841
-0.22589895 0.2602296 0.15219592 -0.10883008 -0.0053807166 0.22767045 -0.2261594 -0.3234859
0.08351673 -0.1907141 -0.10259503 -0.23348534 -0.2505102 -0.28241685 -0.30622557 -0.18226
0.20931403 0.35961396 -0.114241354 0.11891852 -0.10757504 -0.071064584 -0.10654624 -0.17880768
-0.10789126 0.36530194 0.04438823 -0.24601944 0.13813712 0.09936612 -0.25155082 0.18596438
-0.99730074 0.5067002 -0.09438065 -0.31410027 -0.10406844 0.20100163 0.19154781 0.14929767
-0.5835833 -0.56532323 -0.9002457 0.28860906 -0.07526051 -0.6992901 0.16485877 -0.25169292
-0.3425313 -0.3811791 0.14654788 0.17210601 -0.14169921 -0.3963958 -0.24693787 -0.53215957
0.22626366 0.008613225 -0.21111953 -0.39422372 -0.08539964 -0.7048608 0.14358065 -0.021352576
0.35288346 0.028945204 -0.113590695 -0.022345975 0.12522905 -0.17732145 -0.09080744 0.33778843
0.022100117 0.23867299 0.28972685 0.30974817 -0.091854304 0.4362051 0.28453678 -0.30768156
0.13083212 -0.33260003 -0.025061462 0.17342427 0.3293215 -0.26678488 -0.24432744 0.015787346
-0.009294729 0.040170517 -0.44412395 -0.116731785 0.3388488 0.073607005 -0.021480506 -0.00016281952
0.090661876 0.09211403 -0.32520878 0.22007613 0.13058348 0.309289 0.37991914 -0.12709276
0.030453967 0.03354422 -0.24042906 -0.08773202 0.14611827 -0.33024627 -0.07028125 -0.18908787
-0.1863247 0.035922267 -0.19331537 0.11923384 -0.100904666 -0.41782385 -0.105277725 0.10987411
-0.2642047 -0.17932695 -0.081199236 -0.35784218 0.027932549 -0.16131529 -0.29483482 0.15198213
-0.23781253 -0.31543428 0.14223738 -0.31711105 -0.28997555 0.37848404 0.2702463 0.32373977
-0.18080166 -0.26327693 -0.1157888 -0.5300374 -0.016726814 0.331777 0.014659205 -0.12245793
-0.055297606 0.24596997 -0.11161786 0.15649568 -0.07322865 0.2918792 0.13184536 0.05913569
-0.18164612 -0.05062743 -0.23608963 0.12566186 -0.037515976 -0.02256304 0.03032315 -0.22614773
0.10591912 0.4907938 0.06075581 0.28006577 -0.18866125 0.1578741 0.14936695 -0.57626635
-0.18578312 -0.12926479 -0.36798653 0.15107653 -0.123766296 -0.027027925 -0.035277374 0.41556093
0.10708683 -0.067605674 -0.58823764 -0.11238025 0.010962152 0.19430491 -0.28132576 0.046754874
-0.031212728 0.11241293 -0.2515888 -0.019052152 0.13525128 -0.23538955 -0.24267273 0.31839383
-0.23969063 0.076021805 0.4041942 0.24673273 -0.09278804 0.23909134 0.09328239 -0.42373624
-0.39577103 0.046213012 -0.41185272 0.1985408 -0.16011544 0.2823587 -0.20616102 0.20048517
0.12594491 0.12878065 -0.48017314 -0.38352984 0.21807422 0.03653956 0.16875413 0.31374836
0.04647277 0.103551745 -0.20032059 0.2851904 0.08264549 -0.60249335 -0.23713535 -0.19724123
-0.20730215 -0.31538683 -0.5905971 0.12980236 -0.23250107 -0.19134006 -0.05278924 0.077789724

actor.4.bias f4 [128]
00000000: 06e8 9ebe 9507 97be 8fc6 82be e9de 6abd
00000010: b326 94be 1bda a6bd 3972 57be 66f0 5fbe
00000020: 763b 91be 7c12 1ebe 624a 93be 3b1f 8abe
00000030: 73dc cdbe c94d 1cbf d792 3ebe c8ef d7be
00000040: 4152 50be 5c60 80be da39 91be 7ef6 90be
00000050: f0cf 80be 5e64 c4be 1fb4 06be ac63 28be
00000060: 2b34 49be 4d5f 9abe 2736 20bf 7ae3 81be
00000070: 1a44 5fbe 1042 f2be 82dd cfbe 7694 adbc
00000080: c3d8 0dbe ab80 99be 8007 50be 4c7a 50be
00000090: 1c9c 45be 90e5 20be de14 3dbe 4144 13bf
000000a0: e002 bbbe 5235 b8bd af0b 81be 27be 29bf
000000b0: 1238 06bf b776 edbe 0007 91be bb46 f1bd
000000c0: 9f36 d1be 381f 82be 25e8 8ebe d5b3 b1be
000000d0: 7f30 f63c 604e a4be 07c0 a3be 6e91 80be
000000e0: 48d0 10be bc38 9cbe e80b 2bbe 5a1f 37be
000000f0: f050 a3be 1ce8 9bbe 6fbf 5bbe c4d5 24be
00000100: 0a75 31be 2288 aabe 6e23 92be 0892 9bbe
00000110: dde7 f2bd f95e 8bbe 63bb b5be fa59 50be
00000120: c454 84be 32e0 bebe c248 2bbe 6008 96be
00000130: deed 9cbe 3443 19be f98b 39be d3d4 60be
00000140: 080c 46be 0422 d6be d7d5 bbbe b6a5 78be
00000150: 530a 2bbe 6c4c 0fbf 5299 acbe 2396 99be
00000160: bfe2 fbbe 13da 67be 71b5 09be bd4e c4be
00000170: 2d90 f6be f3b6 16be 1f37 dbbe 5fb8 08be
00000180: 7bc3 1cbe bc8b 2dbe ccf2 1ebe 7785 86bc
00000190: 0a72 8bbe 2df6 35be a459 33be 2678 a3be
000001a0: ba1d efbe 05cd 2fbe 4800 89be d135 4fbe
000001b0: 9c4d febd 923d f5be 36f1 8ebe d47e 86be
000001c0: 0d66 42bf 62e3 11bf cec1 43be b9a3 84be
000001d0: ad93 b3be 190a 3abf b2c0 63be b9a8 bfbe
000001e0: 8fee c8be 1b1f f7bd 8867 aabe 628b 44bd
000001f0: 1e00 a0be f468 97be e77c a6be 66fc babe
-0.31036395 -0.29497972 -0.25542113 -0.05734149 -0.28935775 -0.08147069 -0.21039666 -0.21869048
-0.28365678 -0.15436739 -0.28767687 -0.26976952 -0.40207252 -0.6105619 -0.18610702 -0.42175126
-0.20343877 -0.25073516 -0.2836445 -0.2831306 -0.25158644 -0.38357824 -0.13154648 -0.16444272
-0.19648807 -0.30150834 -0.6258263 -0.25368863 -0.21803322 -0.47316027 -0.40598685 -0.021188956
-0.1385222 -0.29980978 -0.20315361 -0.20359153 -0.19297832 -0.15712571 -0.18464991 -0.5752602
-0.3652563 -0.08994545 -0.25204226 -0.66305774 -0.52429307 -0.46379635 -0.28325653 -0.11781069
-0.40861985 -0.25414443 -0.27911487 -0.34707513 0.030052422 -0.32091045 -0.31982443 -0.25110954
-0.14141953 -0.30512035 -0.1670376 -0.17883053 -0.31897688 -0.30450523 -0.21459745 -0.1609717
-0.17329803 -0.33306986 -0.28542656 -0.3038485 -0.11860631 -0.27220896 -0.35494527 -0.20346823
-0.2584592 -0.37280422 -0.16726974 -0.29303265 -0.30650228 -0.14967042 -0.18119802 -0.21956186
-0.19340527 -0.41822827 -0.36686584 -0.24281964 -0.16703157 -0.55975986 -0.33710724 -0.29997358
-0.4919643 -0.22641782 -0.1344812 -0.38341323 -0.48156872 -0.14718227 -0.42815492 -0.13351582
-0.15308945 -0.16947836 -0.15522307 -0.016421063 -0.27235442 -0.1776969 -0.17514664 -0.31927603
-0.46702367 -0.17168052 -0.26758027 -0.20235373 -0.124171466 -0.47898537 -0.27918404 -0.26268637
-0.7593697 -0.56987584 -0.191169 -0.2590616 -0.35073605 -0.7267166 -0.22241476 -0.37433413
-0.39244506 -0.1206648 -0.33282113 -0.04798449 -0.3125009 -0.2957226 -0.32517168 -0.3652069

actor.6.weight f4 [10, 128]
00000000: a7b1 00bc 58f5 72bb e966 aabd cfd1 e13c
00000010: dca6 a4bc b6b7 003c c5d2 3bbb caf7 6ebc
00000020: 6b54 603a ce21 043c 72ba 2d3d fc34 24bc
00000030: fdfb 57bd 27ce af3d 3664 ae3c 922c b8bb
00000040: 21a2 253d 3d89 72bc dc5f debc fd53 843c
00000050: 765a 1c3d d1e8 d5bd f501 1ebc ace1 c5bb
00000060: 39f0 3a3c fb91 803a ca84 c53d 605c a83b
00000070: c4bc 21bc f3d2 e53d e1c3 793c fdd7 4c3c
00000080: 94ab 56bc a312 05bc 6b3e ec3c 30d4 723c
00000090: b3d7 273b 4f9a 95bb 995e 8e3c 1559 1dbb
000000a0: 846f 2a3c ea36 9c3c 4d92 0b3c 51de 883c
000000b0: 23d3 403c 1c7a 2e3c 4188 b8bc ec18 dfb9
000000c0: bbae 2c3d dee4 0b37 8cc7 6b3d a20c 42bb
000000d0: 819c 113c 0470 893d 346a 913c c537 b63b
000000e0: c33d 65bc 43f9 243d b3b3 1fbd e4b6 89bb
000000f0: 5670 383a b33c 31bc 39bf b2bc 01a1 333c
00000100: fac6 3f3c ac89 a83c 4d70 0abd de4a c4bc
00000110: d744 a0bc 2b3a 7abc 8307 58bd 0f35 ab3c
00000120: 34e1 67bc 9ac8 c9bb fc1e 20bc 0828 cd3b
00000130: 89c8 483d 439c 07bd e251 b63d 0c11 113c
00000140: 07c3 b3bc bd97 633d b8c0 0b3d ee90 0a3c
00000150: 89b0 efbb 83ec 87bb 4f98 5d3b 24f1 dc3c
00000160: 7c93 da3c eed5 083d 58b2 2d3b 0a59 433d
00000170: 439c b03c 8145 193c 7a0c 49bd 1c0d d9bc
00000180: 06f0 03bd 23b6 3f3d be90 9cbd 1487 25bc
00000190: 25b9 c7bc 57d9 18bc 130b f4bb 6a4b d8bc
000001a0: 698c 283d 4701 7fbc 43ba 02bd 7f1a 2ebd
000001b0: f6a8 43bb 3c8a f0bc 8ca9 a33c af0e a9ba
000001c0: 387b b33b 73db bdbb 2edf 8aba c33b 07bd
000001d0: abe6 0cbd b539 523d 824c 323b efaf 63b9
000001e0: 904c 233c 0521 6dbb 9e70 c83c 528a ee3d
000001f0: 1b63 903b 237d 903c 5d36 1d3d e418 22bd
00000200: 0824 b83c 9fb7 47ba e6a2 d73c d309 c33a
00000210: 900a 96bc 50ca 7a3c 3a7a 11bc 2356 b6bc
00000220: 18da dcba bcf0 14bc c8f8 51bd 787b 0d3a
00000230: 3b46 b9bc 3a97 84bc 3f0b 843c df30 fcbb
00000240: cf26 9bbc 2a1e bebc c1bb 8f3b 2c9d dabb
00000250: 6d01 5e3b 2bb7 363d 2059 a9bb 19f2 893c
00000260: fa55 9f3b 0536 23bc cb76 7dbc 0198 28bc
00000270: ded5 5cbc 94e1 c9bc 9d0c 1e3d 9765 763c
00000280: dbf9 7d3a 64f6 8f3c c921 453b e4e4 f3bc
00000290: e721 9fbc ae7b 40bb 68c4 d43a 05f5 2f3c
000002a0: c852 103c 2a21 bcbc 39a1 68bb 8768 81bb
000002b0: 8705 bf3c 8ce7 123e 3050 5fbd 887b 893c
000002c0: d901 173c 8a6d 21bd e3b1 0dba e5f1 373b
000002d0: 3a1c d23d d75c 47bd a0b5 a0bd 3b45 e9bc
000002e0: a7df 4dbd 7145 57bd 0a9f a8bc b3d5 d43b
000002f0: 6bcb ed3b 6d7e cf3c 8b8e 5abb 865c 93bb
00000300: 853d e9bb 798e 91bc 4bf0 9c3b e3d4 133e
00000310: d1f5 473c a7cc a53b abd5 d43b 8a36 81bc
00000320: 31ab 25bc 918c 86bc 96a1 f73c 3828 173b
00000330: 8d44 a1bc c732 d33c a761 41bc a1bd c63a
00000340: d572 41bb ea63 153c 9070 8f3d 3ca3 623c
00000350: 6671 e6bc 4857 ee39 e45a 5ebc 008e 2cbd
00000360: 2496 a13c f548 1cbc 7003 c4bc a1f0 93bc
00000370: 47f7 753d bac9 d0bb 8709 8539 3b38 9f3d
00000380: 7d59 453d 46eb febc 01ae 143d c49d b93c
00000390: bdb0 98bb b276 07bc acdd 653d 193c 4abb
000003a0: f18c 8cbc 8a2e a13c c124 bb3c 7a7f a53c
000003b0: 4ae5 733a 1f9d bd3d 23ec f63c be5e ceba
000003c0: 7cfe 41bb 7f43 f23c 9db0 383c 6b8e a7bd
000003d0: f846 673d 8e67 093d 2e1b 0a3c 48fa 86bc
000003e0: 4d8b 36bd 11ff 733c 4fe6 ed3c 661a e839
000003f0: bf6f 643c 1365 f7bc 81c3 9f3c aa7e d43c
-0.007854856 -0.0037072506 -0.0832041 0.027565865 -0.020099096 0.0078563 -0.0028659564 -0.014585445
0.0008557501 0.0080647 0.042414136 -0.010022398 -0.05273055 0.08584242 0.021288019 -0.0056205476
0.04043782 -0.014803228 -0.027145319 0.01615333 0.038172208 -0.10444797 -0.009644021 -0.006038865
0.011409813 0.000980913 0.09644468 0.005137965 -0.009871665 0.11221876 0.015244455 0.0125026675
-0.013102431 -0.008122119 0.028838357 0.014821097 0.0025610744 -0.004565514 0.017379092 -0.0024009396
0.010402564 0.019069154 0.008518768 0.016707571 0.011769089 0.01064923 -0.022525908 -0.00042552443
0.042158823 8.338333e-06 0.05756335 -0.002960958 0.008887411 0.067108184 0.017750837 0.0055608475
-0.013991776 0.040276777 -0.038989734 -0.0042027105 0.00070357823 -0.0108176945 -0.021819698 0.010963679
0.011705155 0.02057346 -0.033798505 -0.02396148 -0.019564075 -0.015272657 -0.05274154 0.020899324
-0.014152814 -0.006157947 -0.009773012 0.0062608756 0.04901937 -0.033108007 0.08902337 0.008854162
-0.021943582 0.05556463 0.034119338 0.0084574055 -0.007314746 -0.0041480674 0.0033812707 0.026970454
0.026681654 0.033407144 0.0026504006 0.047692336 0.021558886 0.00935495 -0.049084164 -0.026495509
-0.032211326 0.04680456 -0.07644795 -0.010103006 -0.024380276 -0.009329162 -0.007447609 -0.026403148
0.04114953 -0.015564269 -0.031915914 -0.042505737 -0.0029855347 -0.02936279 0.019978307 -0.0012898053
0.0054773353 -0.0057939827 -0.0010595077 -0.033015978 -0.03439967 0.051324565 0.0027206247 -0.00021713947
0.009966984 -0.0036183011 0.024467763 0.11647476 0.0044063455 0.017637795 0.038381923 -0.03957452
0.022478119 -0.0007618609 0.026322793 0.0014880247 -0.018315583 0.015307024 -0.008879239 -0.02225787
-0.0016849665 -0.009090599 -0.051262647 0.00053971214 -0.022616496 -0.016185392 0.016118644 -0.0076962556
-0.018939404 -0.023207743 0.0043863957 -0.0066715684 0.0033875362 0.044608276 -0.005168095 0.016839074
0.004862544 -0.00996161 -0.015470217 -0.010290147 -0.013478724 -0.024643697 0.038586248 0.015038869
0.00096884154 0.017573543 0.0030079952 -0.02977223 -0.019425346 -0.0029370594 0.001623285 0.01073957
0.008808799 -0.022965033 -0.0035496487 -0.003949228 0.023318065 0.1434614 -0.054519832 0.016782537
0.009216749 -0.039411105 -0.00054052303 0.0028067764 0.1025929 -0.048672523 -0.07847142 -0.028475394
-0.05026212 -0.05255646 -0.020583648 0.0064952015 0.0072569153 0.02532884 -0.0033349122 -0.0044971136
-0.0071179294 -0.017768132 0.0047893873 0.14436679 0.012204603 0.005059797 0.006495198 -0.015773077
-0.010111616 -0.01642445 0.030228417 0.0023064744 -0.019686008 0.025781048 -0.011803067 0.0015162715
-0.0029517908 0.00911806 0.070038915 0.013832863 -0.028130244 0.00045459927 -0.013571475 -0.04212761
0.019724913 -0.009538879 -0.02392742 -0.018059077 0.060050275 -0.006371704 0.00025374835 0.07774397
0.048181046 -0.031118046 0.036298756 0.022658236 -0.0046597407 -0.008268045 0.056119606 -0.0030858575
-0.01715705 0.019675512 0.022844674 0.020202387 0.0009303881 0.09258484 0.030141896 -0.0015744788
-0.0029601147 0.0295732 0.011272577 -0.08181461 0.056464165 0.033546023 0.008429332 -0.016476765
-0.04456644 0.014892356 0.029040484 0.00044270157 0.013942658 -0.030199563 0.019502403 0.025939304

actor.6.bias f4 [10]
00000000: 297c 39be 0c18 fabd cebe 98be 9940 acbe
00000010: b081 f4bd cbe0 d6bb c08b 813e ee5d 8bbe
00000020: 3d90 bbbc 04e8 acbd
-0.1811377 -0.12211618 -0.29833072 -0.33643034 -0.119387984 -0.006557559 0.25301933 -0.272201
-0.022895927 -0.08442691
