example_model/exported/policy.onnx (onnx, 817973 bytes, 8 tensors)

actor.0.weight f4 [512, 72]
00000000: cf2c d83d 0d33 9bbd 072a 86bd 8c3d c93c
00000010: 7ff7 46be 72cb ef3d 20a5 cfb9 aa28 9bbb
00000020: d4e3 bb3b 7a8a febc 15be 693e 582c 37be
00000030: 3280 8bbe b737 9ebd bf03 603e 7106 82bd
00000040: ce69 f73d a4d9 41bc 1da8 323c cd2b 97bd
00000050: a1d5 1d3d 2ec1 c53d 1872 ac3d 680d b43d
00000060: a7eb 1d3e 1665 1bbe 31cb 28be e504 773d
00000070: d4d9 b3bd 6b28 9cbe 8a96 0b3d 9e38 a7be
00000080: 6322 853c 0010 ec3c bee7 f23d 7084 8bbd
00000090: c3c6 46bd 3718 91bd 60f0 8d3b 0f05 11bb
000000a0: 9c2b 69bb 50e5 003b e84a 903d 3d22 1d3b
000000b0: a058 c9bc 5da9 0dbd a55c c43a ff0c 4a3d
000000c0: f167 0abe e9e4 45bd 34b8 993c 7832 213d
000000d0: ee06 d6bd c45c e23d e560 3f3e 6604 cbbb
000000e0: 434a e53c 83b7 d83d 199b 103d 2ac9 b3bd
000000f0: 9fa2 b13d adf5 5f3d 097c cdbd 774c 99bc
00000100: 447b 493d 140d 923c 6d1e 9abd 5ddd c1bd
00000110: 862a 14bd fb5d a93c 682a dc3c 43eb 2cbd
00000120: 5554 293d a531 fabc 8fa2 75be 9cfc 193e
00000130: ca92 213e 9a25 4f3e 0605 723c 1f7f 343d
00000140: 5ea8 bd3c 54f1 32bf 71a7 ff3d 93e3 62bd
00000150: 46b6 99be ca0b 47be 247d 58be c551 21be
00000160: 1dc7 9fbe ab18 bd3d 90f9 7d3d 645a a63d
00000170: 8d82 52bd e072 b838 f28a b83c 4f91 a83d
00000180: 3267 af3d 71ac 00be d554 45be 05fa debd
00000190: de8b 2abe 8064 b4bc 712c 743e 57e5 fabd
000001a0: 2f2f 31bd f1b7 a43c 31cb 0dbd 6b1b 643d
000001b0: 5a6a e7bc 4f90 dabd 2000 56bd d38a 5f3c
000001c0: 4bb3 413d 4827 96bd a6c1 94bc 4215 a2bd
000001d0: 2ce0 2a3d 90d7 9e3c 5f3d 61bd 8e2b b43d
000001e0: ba6d b13d 37b4 c7bb c301 90bd f48c d33c
000001f0: f009 9ebd 9d63 90bc d2ae a23b d8ba e8bd
00000200: 0d6b 53bd 7d79 923d 3b50 4c3d bef9 4c3d
00000210: 413f 083b e603 ad3d e65d 69bd a834 c8bd
00000220: 1a7d 273e f014 a6bc 3bae e1bc 929b 903d
00000230: acd8 3dbb 02da f33c fa2d 573d ac67 16bd
00000240: f02e 0ebd 4f65 903d c18f 11be b0fa a3bc
00000250: 3fd1 11be 75ba 39be fee0 b63b 6f68 61bc
00000260: 4adb 60bd 86e0 12bd 6943 85bf b1bc 043e
00000270: 717a 37bd 3cb8 8dbd c202 12be 72d8 903d
00000280: 6e44 cdbe 6eca 29bd 52d5 8abd a4a6 1d3e
00000290: 006f 86bd 8e06 11be 9dee 363d b0ba b33d
000002a0: 6354 c23c 0fa6 8dbc d37f d7bd 0eb8 cb3d
000002b0: 1f87 f93d b958 383c ec4e 76bc 3b8b 953d
000002c0: 00ae 83bd 342f 9b3d c0fc 84bd ec35 c43d
000002d0: beca b33c 3920 1ebc fad4 c63d 8179 143d
000002e0: 2951 efbd 8d0e eebc ed33 7a3d d989 ae3c
000002f0: 71b5 6e3c 8c44 12bd 6cfa 97bd 7bce 85bd
00000300: 5c8f 183d 8d34 75bd 62ec 923a 07e0 55bd
00000310: 0c6e 913d d377 e0bc 7084 523d df45 3cbd
00000320: cc88 073e a3b2 afbb 35f2 cf3d 32d9 743d
00000330: f643 d0bd 54ac e3bd 9637 a8bb 5dbc 283d
00000340: 29b1 c938 e156 f83d 0759 043d 408c babd
00000350: 9c5f 773d a2af 2b3e 9ee6 053e 3f2a e33d
00000360: 7e4f 343e fec5 6b3d 5661 db3c 4299 bdbd
00000370: 247d 8bbc b190 36be 0ce3 95bd b231 8c3d
00000380: 3ecf b9bd 2301 cfbe 92e9 af3e eab0 e03d
00000390: 4322 183e ab3d 4fbe 70dd bfbd dbf2 943d
000003a0: 0159 9f3b ae92 f73d 403f 603e e95c b73d
000003b0: 9f0e babc 18aa d2bd b734 b7bc c17d 0e3e
000003c0: 945d 3b3b 1f74 9b3b 5871 053e 57de 61be
000003d0: 860e c33d 52f3 2c3e 5a42 70be fb9f e33d
000003e0: 3ffd 403d 8660 853d da2f 7abd 5b76 6fbd
000003f0: a0e5 43bd f8b2 313c a995 6dbd 2f4d 74bd
0.105554216 -0.075780965 -0.06550985 0.02456548 -0.1943035 0.11708726 -0.00039605144 -0.004735072
0.0057339463 -0.03107189 0.22826417 -0.1788801 -0.27246243 -0.077254705 0.21876429 -0.06348885
0.120807275 -0.011831675 0.010904339 -0.07381401 0.03853381 0.09655987 0.08420199 0.087916195
0.15421925 -0.1517528 -0.16483761 0.060307402 -0.08781782 -0.30499586 0.034079112 -0.32660383
0.016251748 0.028816223 0.118606076 -0.0681237 -0.048529398 -0.07084697 0.0043316334 -0.002212826
-0.0035578972 0.001966793 0.07045537 0.0023976706 -0.024578393 -0.034585346 0.0014981224 0.0493288
-0.13516213 -0.04831401 0.018764593 0.03935477 -0.104505405 0.1105285 0.18689306 -0.0061955927
0.027989512 0.10581877 0.035304163 -0.087786034 0.08673596 0.054677654 -0.100334235 -0.01871322
0.04918982 0.017828502 -0.075253345 -0.0946605 -0.036173366 0.020674696 0.02687569 -0.04221655
0.04134019 -0.03054125 -0.23987792 0.15037769 0.15778652 0.20229188 0.0147717055 0.044066545
0.023151573 -0.6989949 0.12483109 -0.055392813 -0.30021876 -0.19438091 -0.21141487 -0.15753849
-0.312066 0.09233221 0.06200558 0.081227094 -0.051394034 8.795201e-05 0.022527192 0.082308404
0.08564605 -0.12565781 -0.19270642 -0.10887531 -0.16654918 -0.022020578 0.23845078 -0.12250774
-0.04325789 0.020107241 -0.034617607 0.05569021 -0.028248955 -0.10672056 -0.052246213 0.013643938
0.047290128 -0.07331711 -0.018158745 -0.07914211 0.041717693 0.019389898 -0.05499017 0.0879737
0.08663507 -0.0060944813 -0.07031586 0.025824048 -0.07716739 -0.017625624 0.004964688 -0.113637626
-0.051615763 0.07152078 0.0498812 0.05004286 0.0020789655 0.08448009 -0.056974314 -0.097756684
0.16356316 -0.020273656 -0.0275489 0.07060923 -0.0028968258 0.02976704 0.05253408 -0.036719963
-0.03471273 0.07050573 -0.14214994 -0.020016998 -0.14239977 -0.18137534 0.0055810204 -0.013757809
-0.05489663 -0.035858653 -1.0411197 0.12962605 -0.044794504 -0.069199055 -0.14258865 0.07072534
-0.4009127 -0.041452818 -0.06778969 0.153956 -0.0656414 -0.14162657 0.044661153 0.08775842
0.02372188 -0.017291097 -0.105224274 0.09947215 0.121839754 0.011251622 -0.015033465 0.07301947
-0.06429672 0.07577363 -0.06493521 0.09580597 0.021947261 -0.009651237 0.09708591 0.036248688
-0.11685402 -0.029059673 0.061084677 0.021305965 0.014569626 -0.035709903 -0.07420811 -0.06533524
0.037246093 -0.05986457 0.0011209364 -0.052215602 0.07101068 -0.027400887 0.051395833 -0.04596507
0.13235778 -0.0053618713 0.10153619 0.059777446 -0.101692125 -0.11116853 -0.0051335795 0.041195262
9.6174255e-05 0.12125946 0.032311466 -0.09108782 0.060393915 0.16766217 0.13076255 0.11092042
0.17608449 0.057561867 0.026779812 -0.09257747 -0.017027445 -0.17828633 -0.073186964 0.06845416
-0.090727314 -0.40430555 0.34357888 0.10971244 0.1485682 -0.20238368 -0.09368408 0.072728835
0.004862905 0.12088524 0.21899128 0.08953268 -0.02271205 -0.10286349 -0.022364004 0.13915159
0.0028589712 0.0047440673 0.13031518 -0.22057472 0.095242545 0.16889694 -0.23462811 0.11114498
0.047116514 0.06512551 -0.06108079 -0.058462482 -0.04782641 0.010845892 -0.058004055 -0.05964392

actor.0.bias f4 [512]
00000000: 6294 11bc e609 a0ba 0ed4 b93d 8b3c 8abd
00000010: 161b e43d 3845 b63d d8b5 453d d72d 083e
00000020: 92e7 a33d c1c5 e0bd bae0 123d 0e96 d7bd
00000030: 38a3 81bd 21c4 77bd 108c acbd 295f 96bd
00000040: 7ed1 73bd 956d ce3d b5f7 853b ac64 cfbd
00000050: b736 743d 3bb2 e2bd 9241 e13d 9cf2 d7bd
00000060: aa39 0c3d fe34 c6bd 5cb7 003d b3c3 88bd
00000070: 5fce 4abd acd3 723d 129d 123d d41b 853d
00000080: f6ef ed3d bf85 61bd 3183 45bb 1406 883a
00000090: 1755 873c 5a8b ba3d 2eaa 08be c5f6 b8bc
000000a0: 5edb ae3d b3a2 553d 057e 48bd f939 3ebd
000000b0: 61fd 083b e3f8 e13d 7d0b a6bd 5a47 bd3d
000000c0: c045 5bbc 0209 c43c be1d 193d 93c1 93bd
000000d0: 67a8 bebd 2d09 bbbb 4980 07be 3d56 8f3d
000000e0: 9379 b8bd 5241 e5bd 7ed6 86bc 6eff 3c3d
000000f0: b460 933d 389f e93d b161 2ebd dca8 0bbc
00000100: e362 9bbc 75bb f13d 1676 9e3d 3997 babc
00000110: 57e6 ffbd 635c d7bd 8bfd e4bc aec6 b33d
00000120: 7589 adbd 31a1 d83d 359c 0bbb 8a39 093e
00000130: c585 a9bd 54b4 e8bd 894f d23d ab4b f1bd
00000140: 123d 6cbd d3c1 ad3c 5dac da3c cf60 b0bd
00000150: b2c5 e23d aa36 1fbe cd07 18bd 0e29 13bd
00000160: 5dac a03d 57e9 ba3d f3e7 4b3d 52b4 5e3c
00000170: 8618 e6bc ad0c cc3d 8402 a8bd 198c b63c
00000180: a8d2 103e 4c6e de3a 26f4 16bc c25e 133e
00000190: ead9 8fbd 0287 0a3b 17f8 77bc 79d7 a33d
000001a0: 1c88 d13d 876e a73d 7491 983c e32a 94bd
000001b0: 7bc7 043e dce3 31bc 781b 80bc b307 cebd
000001c0: fc07 d7bd f920 cdbd b53c 73bd ef46 d3bd
000001d0: d99a ae3d 8fdc e43b fb80 32bd e486 bd3b
000001e0: c116 ae3d e079 6a3c 8314 7cbd f3ae a73d
000001f0: e673 0fbb 7e9c 863d 30cc 803d 9c1d 3fbd
00000200: 7d8d e23c a2f7 6e3c 052e e43c 4a4c 543d
00000210: 2006 003e 11f0 863d e029 79bb a2fc 1dbd
00000220: e76d b2bd abd5 c7bb 56ac 44bd ed22 b23c
00000230: 9049 993b 1d61 2bbd 10a0 763d 1b31 5e3c
00000240: dcd2 603c 9719 3d3d 862f 03bc 5ce0 22bd
00000250: 338d 76bd 8531 d1bd 45dd b7bd e931 f7bd
00000260: 2bf0 b53d 1987 4abd 8bd6 fb3d efa8 dabd
00000270: 23c3 d43d dd4c 81bd c2a2 b73d d04b b7bd
00000280: b247 da3d ccfb c9bd 95f4 2ebd e601 e5bc
00000290: 233a 0e3d 27a4 d5bd e6cb a23c 1462 a93d
000002a0: c1d3 a9bd 874f 243d 1571 4dbc a339 f0bd
000002b0: 14dd f23c 9123 5bbd 5541 903d 49da a43d
000002c0: e000 ecbd f0f5 f13d 987f bcbd 3589 763c
000002d0: d40c 42bc bdeb 363d bb68 893d bb09 dcbd
000002e0: b116 853d beb5 e03d e540 f1bc 6775 e53c
000002f0: 2b42 d13b 4e53 a13c 61a8 1f3d d0ea c73d
00000300: 775a e9bd d1b5 493d 7feb 55bc 5fcc 85bd
00000310: 0096 313d 7863 f23c 961f 04be 08fb d03d
00000320: 3bc2 82bd ee56 503d 8b7b 1e3d 5505 0dbe
00000330: 1357 11be 36f7 c1bd daa9 54bd 7017 ae3c
00000340: db7b 4ab8 ee87 863b cd8f d53d b16e db3d
00000350: 458b 4d3c 3b8f f0bd 7013 bf3b abf6 f6bc
00000360: 57dc 53bc e3ae 97bd 37af e93c cf75 1fbd
00000370: fb5c f4bd 6819 993d e3fe 06bd 71a6 bdbc
00000380: 01c9 aabc 1ceb deba 9e26 d1bd 1b66 9ebd
00000390: 0c57 cebd 0800 053e d6fc 103e 1621 fa3d
000003a0: bd5c d9bd 8d6f d53d 37fc e9bd 701c 99bd
000003b0: fade 11bd c0a2 5b3d 0496 bb3d 6808 9d3d
000003c0: b422 8f3d bdb7 cc3d 6cab 143d 91bc bc3d
000003d0: 285b ac3d 385b b0bd 0ebb e0bd 0c06 d6bd
000003e0: 3745 d63c 333e 14bd 3605 c83d f63e 9ebd
000003f0: 8986 c9bd e964 083d 508e 98bd 5ee6 a23d
-0.008885475 -0.0012209981 0.09073649 -0.06749829 0.11137979 0.08899921 0.048269123 0.13298737
0.08003153 -0.109752186 0.035858847 -0.105266675 -0.0632996 -0.060489777 -0.08425152 -0.07342369
-0.05952596 0.10079495 0.004088367 -0.101266235 0.059622493 -0.11069151 0.10998835 -0.10544321
0.03423468 -0.09678076 0.031424865 -0.06677952 -0.049513217 0.059283897 0.035794325 0.064994484
0.116180345 -0.05505919 -0.003013801 0.0010377788 0.016520066 0.091086105 -0.13346168 -0.022578606
0.08537935 0.052157115 -0.048948307 -0.046442006 0.0020902979 0.110337995 -0.0810766 0.09242125
-0.013383329 0.023930077 0.03738188 -0.07214656 -0.09309464 -0.005707881 -0.1323253 0.069988705
-0.090075634 -0.111940995 -0.0164597 0.046142034 0.07196179 0.11407322 -0.042573635 -0.008524146
-0.018968051 0.11803333 0.07737367 -0.022777187 -0.12495106 -0.10515668 -0.02795293 0.087781295
-0.084734835 0.1057762 -0.0021302823 0.13400856 -0.08277468 -0.1136252 0.102690764 -0.11782011
-0.05767543 0.021210587 0.026693517 -0.08612215 0.11072864 -0.15548196 -0.037116814 -0.035927825
0.07845376 0.09126537 0.04978175 0.013592796 -0.028087866 0.09963355 -0.08203605 0.0222836
0.14142859 0.0016970127 -0.009213483 0.14391616 -0.07023986 0.00211376 -0.015134833 0.080000825
0.10231039 0.08175378 0.018624045 -0.072347425 0.12966721 -0.010857549 -0.015638098 -0.10060062
-0.1049957 -0.10016055 -0.059384067 -0.10316264 0.085256286 0.0069843004 -0.043580037 0.0057839025
0.08500434 0.014311284 -0.061543 0.08187666 -0.002188915 0.06572817 0.06288946 -0.046659097
0.027655357 0.014585407 0.027853975 0.051830567 0.12502337 0.06588758 -0.0038019344 -0.038571008
-0.087123685 -0.0060984693 -0.048015915 0.02174517 0.004677959 -0.04184066 0.06021124 0.013561512
0.013722148 0.046166983 -0.008006936 -0.039764747 -0.06019325 -0.10214523 -0.08977751 -0.120700665
0.08883699 -0.049445245 0.1229678 -0.10676753 0.10388782 -0.06313489 0.089665905 -0.08950007
0.10658206 -0.098624796 -0.04271372 -0.027955007 0.034723412 -0.104317 0.019872617 0.0827066
-0.08292342 0.040114906 -0.012539168 -0.11729743 0.029646434 -0.053500716 0.07043711 0.08049447
-0.115236044 0.11814487 -0.09204024 0.015047361 -0.011843879 0.04465841 0.06709429 -0.107440434
0.06498469 0.109721646 -0.02944989 0.028010083 0.0063860617 0.019693043 0.038978938 0.09761584
-0.11394208 0.04924566 -0.013056635 -0.06533121 0.04335594 0.029588446 -0.12902674 0.102041304
-0.06384703 0.050864153 0.03869204 -0.13771565 -0.14193372 -0.0947098 -0.051919796 0.02125141
-4.8275902e-05 0.0041055596 0.104278184 0.10714472 0.0125454115 -0.11746069 0.0058311746 -0.030146917
-0.012930951 -0.07406404 0.028525932 -0.03893071 -0.11931797 0.07475549 -0.032957923 -0.023150655
-0.0208478 -0.0017007324 -0.10212444 -0.07734319 -0.100751966 0.12988293 0.1415895 0.12213342
-0.106133915 0.10421667 -0.11425059 -0.07476127 -0.035613038 0.053622007 0.091594726 0.07667619
0.06989041 0.09995983 0.036296293 0.09215654 0.08415824 -0.086111486 -0.10973178 -0.10450372
0.026156051 -0.03619213 0.09766619 -0.077268526 -0.09840114 0.03329936 -0.07449019 0.07954095

actor.2.weight f4 [256, 512]
00000000: efac 7dbb 6d4f b43c 89e7 a33c 0a39 e53c
00000010: 063f 533d 72c8 1c3d 710b 213d fcef debb
00000020: b4d7 e83c a34c 9c3b ba2f 55bc c4d4 c33c
00000030: bd8a 61bd 4692 99bd c4a1 9a3a eb40 17bd
00000040: 3b37 6bba b195 cdbc fd44 c7bc 2510 173c
00000050: 4d54 01bc b16d 95bc 17f8 543c f69d 3bbc
00000060: cd7a 69bb 5658 073c 8890 4ebd d7aa 333c
00000070: d0db 2abd 97da 32bd d0f1 b33c b82b 46bb
00000080: 9569 073a 648d ee3c fc17 4e3c c8e5 6ebd
00000090: dc1b 43bd 6444 0cbd 249d c5bc 67ec a4bc
000000a0: d0ae 0b3d 6f9f 123d 93ab 6cbc 2dab 593d
000000b0: fe64 a13c 4d3c 8b3d a0ed 1f3d 65ab 883a
000000c0: 941d 32bc a1fe e5bc f70b 993d 240b 343c
000000d0: 4764 a23d ba1a 013d 93f7 8f3c 3f64 973c
000000e0: 7964 d5ba 565a fd3c ce21 15bd e718 523d
000000f0: 49c5 143d 5a70 86bd 1b90 ad3a e026 47bd
00000100: 61dc 15bd efce 87bc c26f 40bd 037a d03c
00000110: 1670 7ebb f7ef 0cbd caf3 fdbc 19ba cebc
00000120: c4eb 223d 87f2 e9bc 081a c33c 7afd 44bd
00000130: 7684 9c3c 3a3a 06bb d239 95bb bcf7 be3b
00000140: 9b52 4abd b941 b8bc 2aa4 7bbd 8c5c 66bc
00000150: 5bef 8bbd e040 40bd 5870 3c3d 15c0 223c
00000160: 8c37 083c 07e6 aabc 7f78 673b 91ea 31bb
00000170: 360a 253c acb5 7ebd a60d 7b3d 40fc 20bc
00000180: d920 193d 3aea b9bb 8e5a ef3c 4a28 583c
00000190: 5a5c 1c3b af2e a43d 0cb8 27bd 0391 653d
000001a0: df1a 21bb da57 cabc 77d5 0d3d 378b 0ebd
000001b0: 2a4a 9a3d da95 98bd c7e1 8dbd 9680 893c
000001c0: f2c4 283c 2f48 293c 8eac 84bc 7b19 0c39
000001d0: 047d 2b3d caf7 6b3b d3a8 6c3d b786 043c
000001e0: c3ec 8ebc 334e 12bc df39 d13c cddb d8bc
000001f0: 632e 173d 6ab5 4f3d 23bd fc3c acf5 7f3c
00000200: e9d6 58bd 4b59 393d aca6 763c 7a32 04bd
00000210: ef02 50bd be76 b0bd 69ed 6abc 56c7 ffbc
00000220: acdb 693c 3c14 e1bc 7e39 d53b 6128 8d3d
00000230: 9e76 04bc 928c 253b 1c74 27bd b43a 52bd
00000240: fc2b cabc 08ea 503c 9abb 793c 5166 ecbc
00000250: 9928 8ebd cfa4 ecbb 0b13 9abc 73ca edbc
00000260: bcd7 2d3d b439 e93c 41d1 133b 2270 a53c
00000270: da1b 9a3d e518 f2bc 7840 dc3b 08b8 8539
00000280: 9544 edbc 9d05 5e3d dc70 1b3b 6f42 013d
00000290: 51b2 99bd 7731 39bd e74e b4bc 4e5a 383c
000002a0: ed02 233b 882d 12bd e13e 083c af82 84bd
000002b0: d3ad 16bd 8d6e 4c3c 70fe 9bba c916 813d
000002c0: d55f 403b 804f 6ebd be99 a53c 48e8 2bbc
000002d0: 536a 033d 208a 17bd 4938 433d b164 2d3d
000002e0: 238b 213d 2154 d63b 1a37 dc3c 7335 043d
000002f0: d2d9 62bd bdd7 d63b 17fd 10bd 767a 73bc
00000300: 7eef a6ba 9b76 4d3d 525e d63c b2ff 563c
00000310: 666e b23b 8718 54bd b3b6 adbc 7a94 83bd
00000320: c1f9 d73b cc6c 55bd 9bf5 0ebc f4ee 0a3d
00000330: 334c 93bd c9a3 55bc 64c7 acbd aab1 aabb
00000340: af37 d53c caca 2b3d 7ef6 be3c 045c a23c
00000350: c43a 3bbd a962 073d 12c2 e73c 14f8 333d
00000360: 367b 0c3d 3a7e 773d 7051 ac3c cb3e 86bc
00000370: 205c 0dbd 96f5 8fbd f282 3ebd 274b b0ba
00000380: 654e 3abd 83a1 293c 1a51 26bd f11e 2fbc
00000390: a32b 61bc 6359 bf3c a589 5bbc 30f3 913c
000003a0: 2c5a a63b ace6 edbc 508d 433c 6d7d f43c
000003b0: b636 52bd 5040 c7bc 04ec 963d c02a 1dbd
000003c0: dc4c 3a3d d82c 4cbd 0b08 26bd 4f38 11bc
000003d0: ffc6 a2bc 2f72 9dbb 2785 a63c 8cb7 aabc
000003e0: c880 b43c 5202 263c d79f 583d 3cfa f13c
000003f0: 8317 803c a9a8 163c 0b51 203d af5f 51bd
-0.0038707813 0.02201053 0.020007866 0.0279813 0.051573776 0.038277097 0.039317552 -0.0068035107
0.028423168 0.004769878 -0.013011867 0.023905165 -0.05506395 -0.074986026 0.0011797477 -0.036927145
-0.00089727686 -0.025095792 -0.024324888 0.009220158 -0.007893634 -0.018240782 0.012998602 -0.011451235
-0.0035626173 0.008260807 -0.050430804 0.010966024 -0.041713536 -0.043665495 0.021965891 -0.003023846
0.0005165574 0.029120155 0.0125789605 -0.058324605 -0.04763399 -0.03424491 -0.024122782 -0.020132257
0.03410226 0.03579658 -0.014445203 0.05314176 0.019701477 0.06798611 0.039044976 0.0010427056
-0.01087131 -0.028075518 0.07472985 0.010988984 0.07929283 0.03151963 0.017574107 0.018480418
-0.0016280554 0.030926865 -0.03640919 0.05129328 0.03632096 -0.06564398 0.0013241799 -0.04862106
-0.036587123 -0.016578166 -0.04698158 0.025448805 -0.0038824133 -0.034408536 -0.031000037 -0.025235223
0.039775625 -0.028558029 0.023816124 -0.048093297 0.019106131 -0.0020481483 -0.004554012 0.005827872
-0.049395185 -0.022492277 -0.061435856 -0.014060151 -0.06832763 -0.04693687 0.046005577 0.009933491
0.008314025 -0.020861639 0.0035319624 -0.002714787 0.010073235 -0.062184975 0.061292313 -0.009825766
0.03738484 -0.005673674 0.029217985 0.013193199 0.0023858757 0.08016717 -0.040947005 0.056046497
-0.0024582667 -0.024700094 0.034627404 -0.034800734 0.07533677 -0.07450457 -0.06927829 0.016784947
0.010300862 0.010332151 -0.016195562 0.00013360933 0.04186727 0.0036005848 0.05777819 0.008088759
-0.017446881 -0.008929777 0.02554029 -0.026471997 0.036909472 0.05071012 0.030851906 0.015622538
-0.05293933 0.045251172 0.015054386 -0.0322747 -0.050784048 -0.08616398 -0.01433883 -0.03122298
0.014273565 -0.027475469 0.0065070977 0.06892467 -0.008084921 0.0025260788 -0.040882215 -0.051325515
-0.024679177 0.01275111 0.015242482 -0.028857382 -0.06941337 -0.007221795 -0.018807909 -0.0290272
0.04244207 0.028469898 0.0022555145 0.02019507 0.075248435 -0.029552886 0.0067215525 0.0002550485
-0.028963367 0.054204572 0.0023718392 0.031557497 -0.07504714 -0.04521319 -0.02201028 0.011251999
0.002487357 -0.035687953 0.008315773 -0.064702384 -0.036786865 0.012477529 -0.001190139 0.06303174
0.0029353995 -0.058181286 0.020214912 -0.010492392 0.03208382 -0.03699696 0.0476611 0.042332355
0.03943933 0.0065407907 0.026881743 0.032277536 -0.05538351 0.0065564797 -0.035397615 -0.01486074
-0.0012736169 0.05016194 0.026168022 0.013122486 0.0054452894 -0.051781204 -0.021205282 -0.06424804
0.0065910523 -0.05210571 -0.008725549 0.03391929 -0.07192268 -0.013039538 -0.08436468 -0.0052091675
0.026027529 0.04194144 0.023310896 0.019819267 -0.04571034 0.033053074 0.028290782 0.043937758
0.03429719 0.060423113 0.021034926 -0.016387364 -0.034511685 -0.07029264 -0.046511598 -0.0013450132
-0.04548492 0.010353449 -0.04060469 -0.010688529 -0.013743314 0.023358053 -0.013399516 0.017816156
0.0050766673 -0.029040657 0.011935547 0.029844964 -0.051321708 -0.024322659 0.07369235 -0.038370848
0.045483455 -0.049847454 -0.040535014 -0.008863523 -0.01987028 -0.0048048715 0.020327164 -0.020839475
0.022034064 0.010132389 0.05288681 0.029538266 0.015636211 0.009195485 0.03913979 -0.05111664

actor.2.bias f4 [256]
00000000: 8e33 3f3d 32d6 00bd 3142 ecbb 1439 67bd
00000010: 5bcf 29bd 02cc 13bc c9bf b33c b840 fb3c
00000020: 9e13 a13c 9a53 09bc e449 4abd 7b2b 9e3c
00000030: f8d0 8abc 3420 1fbd 6147 80bc 1bd9 1abd
00000040: 794d a0bc 5e41 323d 9709 cfbc 530f 8ebd
00000050: 2cc9 0abd 926a 3b3b 3b58 673c 85b0 cdbc
00000060: b822 d43c 6a7e 79bd 609f 04bc 5c19 c7bb
00000070: 8df2 b63c 698c 6f3d b615 f23c 3c31 06bb
00000080: 8098 093d 9847 4cbd aee3 803c 3516 75bd
00000090: 383b 95bb 3c09 deba 2341 6e3d af0d c33b
000000a0: 572f 9c3c 004c a03c 0251 183d 56ac 21bb
000000b0: 77f1 75bc afd2 323d 699f 6cbc eb8b 20bc
000000c0: 831f 75bc 982c a33a 9620 17bd e939 f6bc
000000d0: 5962 9cbd 9205 643d 5414 36bd 8873 173c
000000e0: dfac 42bd 690e 69bc c19e 68bc e17c 6abc
000000f0: 05ed 1e3c 4dcc 123d 831e 413d 9419 41bc
00000100: 3159 07bd 2e70 c6bb b99e 69bd 40a9 0f3d
00000110: fa98 ab3c 2fde 643d 6674 14bd 0e99 de3b
00000120: b901 59bd f756 e7bc b08f 41bd f0f0 203d
00000130: 5b46 a03c dcf8 f7bc f380 dcbb 169c 69bb
00000140: a7f0 403b 491c a2bc 1b45 df3c aa8f 633c
00000150: 9b81 8cbd e90a 7bbc 999f 433d 77e0 88bc
00000160: 6719 61bd 14fb 1c3d 51a5 1b3d 2e3f 3bbc
00000170: 353e d4bb b61a 9c3c 65f1 59bc 30ef 75bc
00000180: a636 0dbd 034e 4e3c ddf5 943c 1e21 373d
00000190: a85b 083d 1143 79bc a4e3 833c 042e bfbc
000001a0: e43f 38bb b6ac 59bc 4349 e1bb 82a1 4ebd
000001b0: 8051 97bc c9c5 093d 6b1e e43c 6a62 86bd
000001c0: 5490 913c 7b7a 44bd 3864 32bd 535a 46bd
000001d0: c1a4 f6bc f493 09bd 9f19 e63b 4f7d c93c
000001e0: e9e9 283d 0725 6a3d c09b 113d 1fb8 f0bc
000001f0: 425e d5bc 0c2b 0abc ae0e afbc 51a3 c53c
00000200: 437d 60bc e6f7 9ebd 80a8 cebb 5bf5 41bd
00000210: 0c8a 063d 41a6 3abd a63f 71bd c6a6 b13c
00000220: 514c b73c 73a0 e13c 3dbf 143c 06e1 cebc
00000230: e9d2 aabc c53a d43c 388a 0e3d d752 413d
00000240: 827d 143d b28e 753c 5d8d 9cbc 6d69 33bc
00000250: c51f 91bd 3dc3 67bb 1eb1 f6bc b981 1b3d
00000260: 2099 a33b a18d 21bd 3e35 0d3a 08c8 acbc
00000270: e1f6 14bd c1dc b9bc 3161 82bd e088 e8bc
00000280: e18c fabc 57a8 65bd 85a2 5c3c 2835 07bc
00000290: 7470 f6bb 2044 a13b 10db 053d e72a 333c
000002a0: ad35 48bb 8228 4cbc dd69 923c d824 343c
000002b0: 1ac7 1c3a dfb7 82bb aa9b 683b 32a5 dd3c
000002c0: 6fe1 693d 8e46 67bd ebad f4ba 3900 0b3d
000002d0: 1397 bf3c bef0 803c d120 dbbb 5d0b 473d
000002e0: 0660 343c 7e19 45bc 12a5 38bd 8b60 493d
000002f0: b814 73bd 7a26 1b3d be76 723d dd4d 81bc
00000300: d00e 3f3d 6663 98bc 4249 f63c 13fb b33c
00000310: 1274 48bd 37ee 223d 12c8 a03c 9956 293d
00000320: 62a5 5f3d 121c ce3c e3f1 a33a eaff 0d3c
00000330: d7ab c93c f52e 033c 2604 b23c b7b9 9dbc
00000340: 1194 b13c 0160 eebb 9fbc 04bc 336e 35bc
00000350: f66f fbbc ea21 f83c 2791 c23c c84d d53c
00000360: 390d c8bb d3d3 f0bc ba97 1dbc 8a33 0a39
00000370: 6381 8dbc a47e 0bbd 9c1a b5bc eaaa 9f3c
00000380: 80bd 973b 9870 b73c 0f24 93bc a3eb b53c
00000390: e14f 75bd 1ade 863d f766 75bc ee0e 04bc
000003a0: bdeb a1bc 1287 1d3d 12f4 82bd 3454 42bc
000003b0: e38b 7d3b b91e 2dbd 31dd 95bc c472 463d
000003c0: ec74 013b e1b0 87bc d1b6 353d c745 323d
000003d0: 1974 063c 6c16 2f3d 37f6 a0bc 038a e7bc
000003e0: eb6f 533c 4779 cb3c fea8 363c f869 64bb
000003f0: 9396 91bd 09e7 cebc ba82 2cbc cd40 13bd
0.046680026 -0.031454273 -0.007210039 -0.05645092 -0.041457515 -0.009020807 0.021942036 0.030670509
0.019662675 -0.008381749 -0.049386874 0.019307842 -0.016945347 -0.03884907 -0.015659036 -0.037804704
-0.019568192 0.04351937 -0.025273127 -0.069365166 -0.03388326 0.0028597456 0.014120157 -0.025108585
0.025895461 -0.060911573 -0.008094639 -0.006076021 0.022332454 0.058483515 0.029551368 -0.0020476123
0.0335927 -0.049872965 0.015733566 -0.05983563 -0.0045541786 -0.0016940008 0.058167588 0.005952559
0.019065542 0.01956749 0.03718663 -0.002466937 -0.015011183 0.043657955 -0.014442303 -0.009798984
-0.014961126 0.0012449203 -0.03689631 -0.03005691 -0.07635946 0.055669375 -0.04445298 0.009243853
-0.047528144 -0.014224627 -0.014198006 -0.014312 0.009700065 0.035839368 0.04714824 -0.011785883
-0.033044044 -0.0060558533 -0.057036135 0.03507352 0.020946968 0.055875953 -0.03624382 0.006793148
-0.05298016 -0.02823971 -0.04725617 0.039292276 0.019564798 -0.030270033 -0.006729239 -0.0035646013
0.0029440315 -0.019788878 0.027254632 0.013889233 -0.06860658 -0.015322425 0.047759626 -0.016708596
-0.054955866 0.038325384 0.037999455 -0.011428637 -0.006477142 0.019055706 -0.013302182 -0.01501064
-0.034475945 0.012591842 0.018183643 0.044709317 0.033290535 -0.015213744 0.016099758 -0.023337372
-0.0028114254 -0.013285806 -0.0068751886 -0.050446995 -0.01847148 0.03363589 0.027846536 -0.0656174
0.017769016 -0.04796837 -0.043552607 -0.048425984 -0.030107858 -0.033588365 0.0070220972 0.024595885
0.0412387 0.05716422 0.035548925 -0.02938467 -0.026045922 -0.008433115 -0.021369305 0.024125727
-0.01370174 -0.077621266 -0.006306708 -0.04735313 0.032846496 -0.04556871 -0.05889859 0.02168597
0.022375258 0.027542328 0.009078798 -0.025253784 -0.020852523 0.02590693 0.034799784 0.047198143
0.036252506 0.0149876345 -0.019110376 -0.010950428 -0.07086138 -0.0035364174 -0.030113753 0.03796551
0.004992619 -0.03944171 0.0005386657 -0.021091476 -0.036368255 -0.022688271 -0.06366194 -0.02838558
-0.030584754 -0.056068745 0.013466482 -0.0082524195 -0.0075207297 0.004921451 0.032679617 0.010935522
-0.0030549571 -0.01246083 0.017872745 0.010995112 0.0005980596 -0.0039892043 0.0035493174 0.02705631
0.057099756 -0.05646377 -0.0018667554 0.03393576 0.023387467 0.015739795 -0.0066872616 0.04859482
0.011009222 -0.012030004 -0.0450793 0.049164336 -0.05934593 0.03787849 0.059195273 -0.015784198
0.046644986 -0.018602084 0.030064229 0.021970307 -0.04893882 0.03977796 0.019626651 0.04134235
0.05460108 0.02515987 0.0012508001 0.008666972 0.024618072 0.008006801 0.021730494 -0.019253595
0.021677049 -0.007274628 -0.008101611 -0.011073637 -0.030693036 0.030289609 0.023750855 0.026038066
-0.006105092 -0.02939788 -0.009618694 0.00013179905 -0.01727361 -0.03405632 -0.022107415 0.019490678
0.0046307445 0.022392556 -0.01796153 0.022207087 -0.05989063 0.06585331 -0.014978162 -0.0080602
-0.01976573 0.03845889 -0.06394209 -0.011860896 0.0038688115 -0.042265628 -0.018293949 0.048449293
0.0019753529 -0.016563835 0.0443638 0.043523576 0.008206391 0.042745993 -0.019648654 -0.028264051
0.012905101 0.024838103 0.011148689 -0.0034853201 -0.07108798 -0.02525665 -0.0105292145 -0.03595047

actor.4.weight f4 [128, 256]
00000000: f9e3 1cbd a896 183d cc8b 6b3b 3691 20bd
00000010: 1f4b 46bd 315f 013d 385a 503c 1524 86bd
00000020: 7f90 dcbb a3ff a63c 2461 173c 317a 883d
00000030: 4004 10bd 2f69 fe3c ac14 87bc 174f a3bc
00000040: 3e38 fabc 1ac4 9bbc 98ae 953d 7711 fa3c
00000050: 83e7 033d 4960 283d 3e02 2fbd 71d2 db3b
00000060: ceed c33b 8100 cfbc d46c 7f3c 1f96 20bd
00000070: babf e1bb abd0 293b e004 e3bd 8a9a 6bbc
00000080: 1eb5 f43c 9890 013d 41e8 96bb 7f8d 88bc
00000090: 48cc 3c3c dcc4 3d3b 44b7 3fbd 468d 65bd
000000a0: 144a b8bd 772a 52bd d2f1 c5bc bd66 16bd
000000b0: 8f6a 27bd 0c78 5a3d 301e 29bd c8f4 13bd
000000c0: 1ad1 45bd 9144 de3b d4ee edbc 94e1 6f3c
000000d0: e3de a1bc 214c 743c 58a1 50bd 41bc b53c
000000e0: bfbc 863c 3109 a23d d712 8abd 5288 40bc
000000f0: 78a4 5bbd ce81 fe3c 9d49 613d ae5d 05bc
00000100: 6a80 f3bb bf84 c93c 602a 68bd 4dee 323d
00000110: 0483 4b3d 793f f43c 1cc7 cb3b 5bc0 acbb
00000120: 2a96 993c 0db4 8a3d a8af 85bc 7614 e0bc
00000130: 7fb5 f2bc a911 d0bc 248e 88bc 16e4 7e3d
00000140: 83bb 54bd 5d2d 84ba b046 40bd 5841 aa3d
00000150: 433c 85bd b1ab 313d 08ac d5bc 7373 a03d
00000160: 88d4 9a3c dd2f cdbb 5cfb b53d 911e 083e
00000170: c757 433d 6abf 283d 1ecc 023d c437 e93c
00000180: df3e 97bc 99bb 7b3d ee1e 17bd 9e9c ddbc
00000190: 7ca8 483d 56d7 2b3d 1397 b6bc 91a4 613d
000001a0: 41d2 a03c b3e0 053d c963 543d 3a40 113d
000001b0: 4515 d73c f172 243d 73e6 9a3c 6367 d23c
000001c0: 2bfc 34bd 66b5 cdbc 7437 57bc 0009 91bd
000001d0: 05f9 a4bd 4ab9 7dbc 2097 003e fbb0 3a3d
000001e0: 8d79 60bc bd41 eabd b765 b43c 105f 523d
000001f0: 3abb 4bbd 9c55 133d 8f33 a8bc f140 0fbd
00000200: ca93 8f3c fd71 f9ba 0c38 283d 9e71 163d
00000210: 5bc6 e0bc af14 163b 980e 9dbd 2c8b 713d
00000220: 1d90 203d 1f96 8c3c d25f 0bbd 32bd fc3b
00000230: 5718 de3b ccd6 b53c 77db 583d 72ec a7bc
00000240: 6ee0 71bc 59a7 9a3c ffcb 313d ad96 e13c
00000250: 6a85 3a3b 3fda c23c 7db3 31bc c124 5c3d
00000260: d61d 90bd 4a2c 8a3a dd91 3b3b dab4 7ebd
00000270: 3183 473c be59 6bbd 1654 9dbc bece 3dbd
00000280: cc08 653d 5320 a6bd c21f 0b3d 38b3 5fbc
00000290: 496f 6ebb 821c 4bbd ef95 663d 717d 8a3d
000002a0: f4e1 92bc f628 b63d 4480 0bbd 1dd0 903c
000002b0: f0ec ecbb ed19 243d 6f98 8fbd 28df 9d3d
000002c0: e8cd 17bd 3c62 1dbd 995f 7a3c ab9a 60bd
000002d0: 5b8d 6d3d e988 353d 78c4 583a 3db8 d63d
000002e0: 3bc6 23bd 6ee0 52bc 9a4f 8d3c 04aa 3a3d
000002f0: dfa6 d63c 430d 83bb 5866 143b dd0a 14bd
00000300: 9799 0dbd b2ab 9a3d e5a9 183d 3a07 3ebd
00000310: ce5b b83c bc54 523d e73a 53bd f4f4 c03c
00000320: 367c 833b 82df 5d3d 3947 46bd 7a2e 83bd
00000330: 3076 5f3d 35f5 e8ba b6b8 b73c 0e5f 633d
00000340: e72f b7ba b49f d5bc 76ac ac3c 78b7 cc3c
00000350: 548c 1ebd dbf7 08bd 307d df3c 3868 aebb
00000360: 5010 243c 20e7 673d 1ba1 a13c cd09 17bd
00000370: b4d7 11bc 1e7b 5f3d 2bce acbc 1915 d8bd
00000380: 69ed 533c 9792 29bd 33a4 12bd 2f2d 46bd
00000390: 8362 34bd f6b7 efbc 9944 dc3d 87c4 373d
000003a0: 08c8 a8bc 5c28 88bd a4c9 f73c 372a a0bd
000003b0: cec2 4dbb 50fe acbd fe34 d6bc 22c7 90bb
000003c0: 5d77 b83d ac59 263d 5416 b13b ef6a 29bd
000003d0: 5e9c 47bd 77e0 2c3d 0aba 65bc 6d0a cd3b
000003e0: 6bef 633c f891 b3bc d2ce 37bb 78a0 f53b
000003f0: b597 c03c dbe4 4dbb 305e 87bc 7d1b 55bc
-0.03830335 0.037253052 0.003594148 -0.039200984 -0.048411485 0.031584922 0.012716822 -0.06549851
-0.0067310925 0.020385569 0.009239469 0.06663931 -0.035160303 0.031056015 -0.01648935 -0.019935174
-0.030544396 -0.019014407 0.07308692 0.030525906 0.03220321 0.04110745 -0.042726748 0.006708436
0.0059792763 -0.025268795 0.0155899115 -0.039205667 -0.0068893107 0.002591173 -0.11084914 -0.014380107
0.02987152 0.031632036 -0.0046053235 -0.016669033 0.011523314 0.0028956449 -0.046805635 -0.056042932
-0.08998504 -0.05131003 -0.02416316 -0.036719073 -0.040873107 0.053337142 -0.041288555 -0.036122113
-0.048295118 0.006783076 -0.029044546 0.014641184 -0.019759601 0.014910729 -0.05093512 0.022184493
0.016447423 0.07911909 -0.06741875 -0.011751251 -0.053623646 0.031067755 0.055001844 -0.008140011
-0.0074310796 0.024599431 -0.056681037 0.043684293 0.049685493 0.029815422 0.006218804 -0.005271954
0.018748362 0.06772623 -0.016319111 -0.027353507 -0.02962756 -0.025399046 -0.01666934 0.06222924
-0.051936638 -0.001008432 -0.046942413 0.083132446 -0.06505635 0.04337663 -0.026083007 0.0783452
0.01890017 -0.0062618093 0.088858336 0.1329291 0.047691133 0.04119817 0.031932943 0.028468974
-0.018462596 0.061458204 -0.03689473 -0.02705222 0.048988804 0.041953407 -0.022288835 0.055088583
0.019631507 0.032684993 0.051852975 0.03546164 0.02625526 0.04014868 0.018908715 0.025684064
-0.0441858 -0.025110912 -0.01313578 -0.07081795 -0.08055309 -0.015486071 0.1255765 0.045578938
-0.013700855 -0.1143832 0.022021158 0.05136019 -0.0497391 0.035970315 -0.020532398 -0.034974042
0.017526526 -0.0019031164 0.041069075 0.036729448 -0.027438333 0.0022900512 -0.07668799 0.058970615
0.039199937 0.017161427 -0.03402693 0.0077129835 0.006777804 0.02219715 0.052943673 -0.020498488
-0.014762981 0.018878626 0.043407436 0.027537668 0.0028460869 0.023785708 -0.010846016 0.05374599
-0.07036941 0.0010541764 0.0028620877 -0.062184192 0.012177275 -0.05745863 -0.019205134 -0.046339743
0.055916592 -0.08111634 0.033965833 -0.013653569 -0.003638225 -0.049587734 0.05629533 0.06762207
-0.017930008 0.088945314 -0.03405787 0.017677361 -0.0072303936 0.040063787 -0.07011496 0.07708579
-0.037061602 -0.03842376 0.015281581 -0.054835003 0.057996135 0.04432002 0.0008269022 0.104843594
-0.03998397 -0.012870891 0.017249871 0.045572296 0.026202617 -0.0039993837 0.002264401 -0.036143173
-0.034570303 0.075522795 0.0372714 -0.04639361 0.022504713 0.05135034 -0.051569846 0.023554303
0.00401261 0.05416823 -0.048407767 -0.06405349 0.05455607 -0.0017773273 0.022426944 0.055510573
-0.0013976068 -0.026077129 0.02107833 0.024989828 -0.038708046 -0.0334395 0.027281374 -0.0053224824
0.010013655 0.056616902 0.019730141 -0.03687458 -0.008901525 0.054560773 -0.021094402 -0.10550899
0.012935021 -0.041399565 -0.035801124 -0.048382934 -0.04403926 -0.029262524 0.107552715 0.044865157
-0.020603195 -0.06648323 0.030247517 -0.07820552 -0.003139663 -0.08446944 -0.026148316 -0.0044182697
0.09007142 0.04061286 0.005404273 -0.041361745 -0.048733108 0.042206254 -0.014021406 0.0062573464
0.013912062 -0.02192019 -0.0028046858 0.007495936 0.02350984 -0.0031416926 -0.016524404 -0.013007042

actor.4.bias f4 [128]
00000000: d104 6c3d 3930 b4bb ae53 dcbb ffdc 813d
00000010: b24e db3c e856 963d 1796 223d 4780 17bd
00000020: 6bfd 09bd 5139 43bd 193e a4bb 8f86 2fbd
00000030: 456e f3bc be49 fa3c 3108 a1bd 5142 bb3b
00000040: 1488 cb3c fb0b 463c d104 80bd c80f cb3d
00000050: 8d6b 443d 7919 46bd d755 6c3c 5140 80bc
00000060: f7a2 5d3d 6bfb 20bd ab6c 6bbc ef13 f4bc
00000070: d135 183a 3a9b b23c 3cff ae3d 6a06 d4bc
00000080: cee5 0f3b 7250 6abd 11ad 1c3d 8fa8 f5ba
00000090: 17a1 a5bc f7f2 c2ba f67a 51bd 25ba 33bd
000000a0: 863f 2cbd f22f 98bd 1544 9dbd ad22 d23c
000000b0: 2892 8bbd dc2b 3f3c f19c 0fbd 85a4 7bbd
000000c0: 770e bebc 263a 933c 8f3c 04be 1a2e fc3a
000000d0: 29df 66bd c4de 113d 52ea 4c3d 72a7 4a3d
000000e0: d2f2 f1bc ad43 043c d35b 49bd 8203 8d3c
000000f0: 6014 71bc 7d0f c6bd e3a4 e7bb 8e0a aa3d
00000100: f9c8 9b3c 8b3b 023d 8555 453d 8984 07bd
00000110: 955e 49bd 4006 2f3d 3086 c93c 46b0 3ebb
00000120: f1ca ec3b 7011 dc3c 63b5 333d 61ea efbc
00000130: 3b20 2bbd 8fe8 68bc 0d4c 49bc 84d9 aabd
00000140: 439e 9e3c 0f4c a33c ac91 e6bc 4b9c d2bc
00000150: abca 303d 83c1 e4bc b0a0 93bd 48a8 7dbb
00000160: 5283 99bd 760e 243d 1e64 04bd 4fb2 71bd
00000170: 4fde 98bd c94c 6e3d ce3c 5e3c 6b5d e03c
00000180: 832f 02bb e856 083d 6375 84bb 0df1 623c
00000190: c820 673d 9b81 853d 1b40 9dbd fa95 433b
000001a0: 2b95 f63c bbe4 5dba 7180 9e3d 3920 003c
000001b0: 3ea8 93bc 1ec0 7dbb 2205 0a3d 6878 83bd
000001c0: 8593 f23b e0fd 04bd f444 28bc e1cf 14bd
000001d0: 86bf 44bd 42b6 a93d 1c05 1ebd e5ad 153a
000001e0: 36b3 563d 6d43 cc3b 65b0 fcbb 7b12 023d
000001f0: 22bb 3cbd e762 debc 11b2 2f3c bd9b 383d
0.05762178 -0.0054989127 -0.0067238426 0.0634098 0.026770923 0.07340795 0.039693918 -0.03698757
-0.033688944 -0.047662083 -0.0050122854 -0.042852934 -0.029715667 0.030552741 -0.078628905 0.0057146926
0.02484516 0.012087817 -0.06250919 0.099151194 0.04795413 -0.048364136 0.014424763 -0.015655668
0.054110494 -0.03930227 -0.01436917 -0.029794661 0.0005806359 0.021802533 0.08544776 -0.025881965
0.0021957043 -0.057205625 0.038250986 -0.0018742251 -0.020218415 -0.0014873435 -0.051142655 -0.043878693
-0.04205277 -0.0743102 -0.07679001 0.0256513 -0.068149865 0.011668172 -0.03506178 -0.061436195
-0.023200257 0.017972063 -0.12913726 0.0019239814 -0.056365166 0.035612836 0.050028153 0.049476095
-0.029534731 0.008072776 -0.049159836 0.017213587 -0.01471433 -0.09670923 -0.0070692166 0.083027944
0.01901673 0.031795066 0.04817726 -0.03308538 -0.049162466 0.04273057 0.024600118 -0.0029096766
0.007226341 0.026863784 0.043874156 -0.029286565 -0.041778784 -0.014215603 -0.012286198 -0.08342269
0.019362574 0.019933729 -0.028145634 -0.025709292 0.04316203 -0.027924305 -0.07208383 -0.003870504
-0.074957505 0.040052854 -0.03232204 -0.05900794 -0.07464277 0.058178697 0.013564302 0.027388295
-0.0019864745 0.033286005 -0.004042314 0.013851416 0.056427747 0.06518861 -0.07678243 0.0029844032
0.030100426 -0.00084645645 0.07739342 0.0078201825 -0.01802456 -0.0038719247 0.0336963 -0.0641945
0.0074028396 -0.032468677 -0.010270346 -0.03633106 -0.048034213 0.08286716 -0.03857909 0.0005709811
0.052417003 0.0062336237 -0.0077114576 0.031755906 -0.0460769 -0.02714677 0.010723607 0.0450704

actor.6.weight f4 [20, 128]
00000000: 8cc9 8d3d cbda 553c c83c 22bd ea01 10bd
00000010: b6a0 99bc 1ca7 e43b 9750 eabc b138 5b3d
00000020: c1f7 adbc d871 cbbb 9b26 ca3d 5bf0 47bd
00000030: f0d0 493d 58a3 af3d b33e af3d b1c3 0bbd
00000040: 3a4b 873c f46a 46bd 0631 59bd 3d2c 2fbc
00000050: fb51 3b3d 9d14 b7bd 3072 cdbc 676e 143d
00000060: f61b 9dbc 8e7b ed3b 7c5b 84bc 5d1e 023a
00000070: 7260 aabd 4202 14bd dc01 48bd a29a d33c
00000080: 2305 12bd 4e00 1abd 3fc0 1dbd 0465 09bc
00000090: 935e 51bd 4e2a 5e3d fd6b 743d d0bb 79bd
000000a0: 0f60 a6bc 548b 2bbc b54e d6bc a5d9 87bd
000000b0: d73b 623c 72c7 9cbd daf4 d4bc 44f4 9c3d
000000c0: 9965 44bd 5482 823c dc23 53bc ae60 753d
000000d0: 1789 a4bc eb73 43bd 4990 eb3b b804 efbc
000000e0: 93cc 6c3d 91a3 82bd 27b1 20bd 7fc4 713d
000000f0: a369 b8bc 9d8c 493d 0f0c 3f3b 2acd 8cbd
00000100: 4e82 f83c 469b 063b 9796 8fbd 5636 1a3d
00000110: 0b41 53bd 3b0a 74bd b055 0dbd 726e d0bd
00000120: d83d 58bd ed4f 273a 04a6 89bc a6ff 61bd
00000130: e45e e3bc 9b6d 993d 274a 013d 02db 85bc
00000140: ce20 10bd b2d2 68bc 2f6f b43b f4dd 413d
00000150: 3ccb 9c3d f068 24bd 1e4e 6bbc cb5c d43b
00000160: 2d1b 4f3d b9dd 1cbc 1778 a7bd 1ddb 1ebd
00000170: 597d a63c f19f 9b3d a37f 69bd ca24 32bd
00000180: 63ca 17bd 1ace 583d 5985 debc dc53 0fbd
00000190: 4b8a 93bc b199 5d3d dd94 a8bd 9785 b33c
000001a0: f389 59bd cf84 80bd 7bf6 fc3b d5d6 5a3d
000001b0: 861f f03c 793c a4bd 2372 52bd adba 8d3d
000001c0: 8ed2 89bc 963e b5bd db5e 52bd 99d1 d13d
000001d0: 6932 79bc f6dd 2fbd 6fea 43bd c863 6e3d
000001e0: 4aa5 9a3c d5de debb a447 f93a 392c c0bc
000001f0: 6f58 c4bc a6d5 96bd 14fc 9cbc a1c6 8ebc
00000200: ae43 41bd 6614 efbd 0d9f 103e 5d5e 14bd
00000210: fcb3 973d 2247 ecbd 3950 33be 3f19 5a3e
00000220: b69c d139 1218 293b 6c62 463d 86c8 93bd
00000230: f938 d33d 0647 073e 12fb dd3d f08a 503c
00000240: f625 e2bd 2f76 1ebb 9fef 89bc bed0 0bbe
00000250: 939a 863a abdf e43c e9df d93d 6e68 16bc
00000260: 4f8e 3bbd 1292 49bb aade 17be a033 42bd
00000270: 4d90 2b3e b6b2 f63d 4ec2 53be 7770 263e
00000280: 1f57 2e3e ae3c 633d e96e c23d d829 fc3d
00000290: 9d04 c23d 5b4e 103e 8492 f23d f8df db3c
000002a0: c212 d3bd a02e ce3d 139b 1ebd e67b 063d
000002b0: 75d9 3abc 3926 09be 276c 14be 2d4e aabd
000002c0: f845 673d 0ef6 653d d706 163e df04 bdbc
000002d0: 87c7 c23c be3d 0a3e 30fc d93d f059 6d3c
000002e0: 9067 bbbb 8c7c d2bd db06 1cbe e577 00be
000002f0: 0028 d4bd e491 963d 9827 4f3e 4bb6 503b
00000300: 097e cfbd 0d13 c5bd a90d d63d 01c1 e0bc
00000310: ccf1 8dbd 0834 a63d e29e e73d 1031 ce3c
00000320: 16d5 0dbe eda0 d9bd 8718 2f3d eef3 88bd
00000330: 0f3c f43d 3a73 23bd 1307 22bd f6b9 5b3c
00000340: 3ec3 b2bd 7369 d6bc f005 1c3d df0d 2ebc
00000350: a157 0c3d f7dd a83c e58d 85bd 798a 06be
00000360: 89b2 9f3d d677 da3c a882 043e c5e2 71bd
00000370: 98ed 2d3e a8b8 d0bd e3a3 983c 1591 6ebd
00000380: a4b0 38be c96c 3bbe 27b6 b7bb 7e1f 403c
00000390: 3518 b8bd 48bf e7bd 9554 c13d 17c1 65be
000003a0: ec31 abbd 523e e93d e2dd acbb d265 76bd
000003b0: 07db e2bd 904d 41bd e9c6 82bd 7d6d 1d3e
000003c0: 919d 69bc d7a7 823d 1196 35be 0b23 debb
000003d0: 15eb 90bd f2c8 f7bd 07d7 4abe 381a df3d
000003e0: 3f4a 28be 99f3 8c3c 891f a43d d5ff 89bd
000003f0: 6ccd 2fbc 82b0 203e 9fb1 55bd 0bba e03d
0.06923208 0.013052653 -0.039608747 -0.035158075 -0.01875339 0.006977929 -0.028602881 0.053520862
-0.021236302 -0.0062086396 0.09870645 -0.048813205 0.049271524 0.08576077 0.08556881 -0.034122173
0.016515363 -0.048441842 -0.053025268 -0.0106917 0.04573248 -0.089394785 -0.025078863 0.0362381
-0.019178372 0.007247395 -0.016156904 0.0004963631 -0.08319177 -0.036134966 -0.0488299 0.02583057
-0.03564943 -0.037597947 -0.03851342 -0.0083859 -0.051115584 0.054239564 0.0596733 -0.060970128
-0.020309476 -0.01047023 -0.026160577 -0.06633309 0.013808212 -0.07655229 -0.02599566 0.076637775
-0.047948454 0.015931286 -0.0128869675 0.059906654 -0.0200849 -0.04771797 0.007188831 -0.029177055
0.057812285 -0.06378854 -0.039231446 0.059025284 -0.022511309 0.049206365 0.0029151475 -0.068750694
0.030335572 0.0020539328 -0.070111446 0.037649475 -0.0515757 -0.05958007 -0.034505546 -0.10177316
-0.052793354 0.00063824543 -0.016802795 -0.055175446 -0.027755208 0.07491609 0.031564858 -0.016339783
-0.035187535 -0.01421039 0.005506418 0.04733081 0.076559514 -0.04013914 -0.014361886 0.0064807883
0.050563026 -0.009574347 -0.08177202 -0.03878318 0.020323442 0.07598866 -0.05700649 -0.043492116
-0.037058245 0.05293093 -0.027163194 -0.034992084 -0.01801028 0.05410165 -0.082315184 0.021914287
-0.053110074 -0.06275331 0.0077198124 0.053427536 0.029311907 -0.08019347 -0.05137838 0.06920371
-0.016824033 -0.08849828 -0.051359992 0.10245056 -0.015209773 -0.042936288 -0.047830995 0.058200628
0.018877644 -0.006801466 0.0019018543 -0.023458587 -0.02396795 -0.07364969 -0.019163169 -0.017428698
-0.047183685 -0.116738126 0.14123173 -0.036222804 0.07407376 -0.11537005 -0.17511071 0.21298693
0.00039980345 0.00258017 0.048433706 -0.07215981 0.10313601 0.13210687 0.108389035 0.012728438
-0.11042397 -0.002417933 -0.016837893 -0.13653848 0.0010269455 0.027938684 0.106384106 -0.009180171
-0.045790013 -0.003075723 -0.14831033 -0.047412515 0.16754265 0.12045805 -0.2067959 0.1625384
0.17025422 0.05547779 0.09493811 0.123126686 0.09473536 0.1409239 0.11844352 0.026840195
-0.10306312 0.10067487 -0.03872211 0.032833003 -0.011404385 -0.13393487 -0.14494382 -0.08315692
0.05646321 0.05614286 0.14651047 -0.023073612 0.023776783 0.13500115 0.10643804 0.014486775
-0.0057191327 -0.10277662 -0.1523699 -0.12545736 -0.10359192 0.07352045 0.20229948 0.0031846936
-0.10131461 -0.09622774 0.10451824 -0.027435781 -0.06930885 0.08115393 0.11309601 0.02516988
-0.13850817 -0.10626397 0.042748 -0.06687151 0.11925518 -0.03990481 -0.039557528 0.013411036
-0.08728646 -0.026173329 0.0380916 -0.010623424 0.034263257 0.020613654 -0.06521205 -0.1313876
0.07797725 0.02666847 0.12940466 -0.059054155 0.16985166 -0.101914704 0.018632835 -0.05824383
-0.18036133 -0.18303217 -0.005606431 0.011726258 -0.08988992 -0.11315781 0.09439961 -0.22436939
-0.08359131 0.1138884 -0.005275474 -0.060155697 -0.110769324 -0.04719311 -0.06385595 0.15373798
-0.014258758 0.06379669 -0.17733027 -0.00677908 -0.07076088 -0.12098874 -0.19808589 0.10893673
-0.16434573 0.017206 0.08013827 -0.06738249 -0.010730129 0.15692332 -0.052171346 0.10972985

actor.6.bias f4 [20]
00000000: a049 773d ed79 e8bd f25f 57bc b300 f13d
00000010: f96e 53bd 802f 493d 0d6d aebd c2b1 f0bc
00000020: d4f7 873b 7dd8 b4bd 8c0a 843d 6816 1cbd
00000030: f4d3 353d 52e8 73bc 3486 be3d e9b0 52bd
00000040: 364d 133e a72e 05be 2bf2 0a3d b240 1fbd
0.06037295 -0.113513805 -0.013145434 0.117677115 -0.051619504 0.049117565 -0.085168935 -0.029381637
0.0041494165 -0.08830354 0.06447324 -0.038107306 0.044391587 -0.014886932 0.09302941 -0.051438246
0.14384922 -0.13006078 0.033922356 -0.038880058
