example_model/exported/policy_model_2800.onnx (onnx, 718605 bytes, 8 tensors)

actor.0.weight f4 [512, 26]
-0.08879689 -0.024283588 -0.08425359 0.3429246 -0.47285053 0.08131335 0.51660645 0.37644595
-0.02561532 -1.1763052 0.24710678 0.44003052 0.015856698 -0.18036436 0.29078588 0.44706777
-0.05161681 0.011372834 -0.0025492588 -0.026857642 -0.004846757 0.040339906 -0.010398824 0.035173904
0.005634674 0.01029882 0.21578537 -0.15093093 0.10141099 -1.6040999 -0.3799138 0.11912697
0.5478528 0.042394858 -0.22813915 1.2018118 0.09943529 -0.11260646 -0.023252686 0.3007682
0.42090523 -0.5142855 -0.15073535 0.03616783 0.058078337 -0.09669345 -0.031731173 0.011850148
-0.070504904 0.01052677 0.078214616 -0.009011811 -0.3473863 -0.4117053 0.2825155 -0.06206487
0.50485235 -0.013571277 -0.31200707 0.63801396 0.59850323 -0.73464036 -0.510442 0.047770258
0.071674936 -0.089776926 -0.82632333 0.4521398 -0.03481068 -0.08108406 0.02535052 -0.005743083
0.015916068 0.024722464 -0.054442097 -0.031285193 -0.036965895 0.011183055 0.091857664 0.09070562
-0.070990756 -0.57417375 -0.7474833 -0.1057045 0.06621248 -0.21232623 -0.9405023 0.05998659
-0.44365233 -0.9818702 -0.41077274 0.11611502 0.13631934 -0.2690952 -0.0065286914 0.09450759
0.030854143 -0.027533995 -0.027900973 0.0148637695 -0.011403866 0.003701242 -0.0011732919 -0.01141548
0.19559394 -0.019423634 0.025953999 -0.6507857 -0.2878221 0.28034058 -0.31229466 0.16736446
-0.69683516 -0.17272854 -0.19267794 -0.29820582 -0.18400446 -0.40275654 0.12079674 0.08729101
0.043500002 0.040885758 -0.035534732 -0.013165912 0.01541409 -0.02337205 -0.031685095 0.0054096207
0.040399414 -0.0023761175 -0.2985422 -0.27209145 0.17997469 -1.0229945 1.1559652 0.23202541
0.567703 0.27767983 -0.83475447 -0.07905061 0.019976607 0.68684 -0.036338057 0.03444024
-0.38042873 0.034492183 -0.030566206 -0.01595148 0.080994524 0.0077753766 -0.011987594 0.0074548335
0.036988553 0.06368707 -0.024789818 -0.012199772 0.2548782 -0.07318663 -0.028289475 1.4275706
-0.014398732 0.22347963 0.21727888 -0.10940949 -0.14137955 -0.4936831 -0.14085135 -0.2909905
-0.15208742 -0.39935815 -0.20126337 -0.27150884 -0.15006897 -0.03989338 0.011415996 0.010538734
-0.0021706608 -0.0037488504 0.01990411 0.012690982 0.04449949 -0.012610244 -0.19298515 -0.1457096
-0.021734128 1.2879342 -0.09131271 0.17404723 0.014869272 -0.15879768 0.39875108 -0.019995205
-0.0963901 -0.2509623 0.22363578 -0.5751059 0.2031531 0.54558134 0.0120765595 0.075246684
0.028536575 0.009472699 -0.021087363 0.00027431487 -0.020069152 -0.06009265 -0.041114334 0.04809197
-0.28123382 -0.23733078 -0.5546709 -0.6422167 0.6038772 -0.03620507 -0.7251633 0.09261473
-0.28938085 -0.38824412 0.0027186067 0.1746348 0.21187736 0.38464308 -0.48878515 0.3198255
0.045996644 -0.12701854 0.110243484 -0.08804284 -0.08955607 -0.054347962 0.04406839 -0.031145856
-0.01949651 0.06091599 -0.1455613 -0.21307202 0.05718725 -0.55316186 -0.59755903 0.113513835
-0.41810703 0.21923809 -0.43841094 0.5878135 0.432315 0.09164309 0.21764393 0.26192558
-1.2078044 0.32619512 0.021572867 -0.22788982 0.035516813 -0.10292156 -0.06257974 -0.020357076
00000000: 25db b5bd 60ee c6bc 258d acbd d093 af3e
00000010: 7719 f2be 9d87 a63d 5240 043f 86bd c03e
00000020: 38d7 d1bc 2b91 96bf 8f09 7d3e ae4b e13e
00000030: e8e5 813c 6fb1 38be e3e1 943e 11e6 e43e
00000040: 266c 53bd 2055 3a3c 7711 27bb 8f04 dcbc
00000050: 8bd1 9ebb 753b 253d d45f 2abc 8312 103d
00000060: 12a3 b83b 62bc 283c d7f6 5c3e a38d 1abe
00000070: 91b0 cf3d 2553 cdbf 1084 c2be d7f8 f33d
00000080: 1540 0c3f 3ba6 2d3d 4f9d 69be f8d4 993f
00000090: bba4 cb3d 379e e6bd 6b7c bebc 4afe 993e
000000a0: e480 d73e 37a8 03bf 5e5a 1abe b824 143d
000000b0: 8de3 6d3d 3707 c6bd 8cf8 01bd 2027 423c
000000c0: e064 90bd 7978 2c3c fc2e a03d 46a6 13bc
000000d0: 9edc b1be 09cb d2be dfa5 903e bc37 7ebd
000000e0: 013e 013f 105a 5ebc 64bf 9fbe e254 233f
000000f0: 8237 193f 6411 3cbf 54ac 02bf bfaa 433d
00000100: 4fca 923d f7dc b7bd ed89 53bf de7e e73e
00000110: a595 0ebd 660f a6bd e5ab cf3c 7930 bcbb
00000120: 6a62 823c c486 ca3c adfe 5ebd e724 00bd
00000130: 8d69 17bd 2239 373c df1f bc3d dec3 b93d
00000140: 9a63 91bd 0dfd 12bf 115b 3fbf 9a7b d8bd
00000150: 699a 873d 0c6c 59be c2c4 70bf 80b4 753d
00000160: 6626 e3be d85b 7bbf ce50 d2be b6cd ed3d
00000170: 4c97 0b3e d9c6 89be a2ee d5bb 328d c13d
00000180: d4c1 fc3c f98e e1bc 9590 e4bc 2b87 733c
00000190: 48d7 3abc 8990 723b 25c9 99ba fe07 3bbc
000001a0: c749 483e 501e 9fbc 7b9d d43c e499 26bf
000001b0: 6b5d 93be cd88 8f3e 16e5 9fbe 9761 2b3e
000001c0: ca63 32bf c0df 30be 5e4d 45be 6fae 98be
000001d0: aa6b 3cbe 1b36 cebe 4864 f73d a1c5 b23d
000001e0: 0f2d 323d d377 273d de8c 11bd d6b5 57bc
000001f0: 618b 7c3c be76 bfbc 3bc8 01bd 3043 b13b
00000200: db79 253d a3b8 1bbb 86da 98be 924f 8bbe
00000210: 494b 383e 7cf1 82bf abf6 933f 1298 6d3e
00000220: fc54 113f 0d2c 8e3e 78b2 55bf 49e5 a1bd
00000230: fba5 a33c bfd4 2f3f 37d7 14bd 3611 0d3d
00000240: 8ec7 c2be ad47 0d3d fb65 fabc aeac 82bc
00000250: 75e0 a53d 96c8 fe3b 9d67 44bc ad47 f43b
00000260: 4f81 173d 5e6e 823d 0414 cbbc 8de1 47bc
00000270: 657f 823e dfe2 95bd 54bf e7bc a2ba b63f
00000280: a9e8 6bbc d8d7 643e 5b7e 5e3e 1512 e0bd
00000290: cdc5 10be 08c4 fcbe 563b 10be b5fc 94be
000002a0: cebc 1bbe ac78 ccbe fc17 4ebe 3503 8bbe
000002b0: aeab 19be 3e67 23bd 280a 3b3c a7aa 2c3c
000002c0: a541 0ebb 46af 75bb f20d a33c d6ed 4f3c
000002d0: 1945 363d 329b 4ebc e69d 45be e634 15be
000002e0: c50b b2bc 07db a43f 2802 bbbd 7039 323e
000002f0: 3f9e 733c dc9b 22be 1a29 cc3e fccc a3bc
00000300: 2c68 c5bd 217e 80be c700 653e 243a 13bf
00000310: 5e07 503e 38ab 0b3f c3dc 453c ef1a 9a3d
00000320: 89c5 e93c 6133 1b3c 68bf acbc ebd1 8f39
00000330: 1068 a4bc b623 76bd 8167 28bd 16fc 443d
00000340: e1fd 8fbe d706 73be e9fe 0dbf 5068 24bf
00000350: b297 1a3f c44b 14bd 4da4 39bf cbac bd3d
00000360: ba29 94be efc7 c6be a72a 323b 77d3 323e
00000370: 61f6 583e f0ef c43e 0c42 fabe 2bc0 a33e
00000380: fa66 3c3d 2611 02be 56c7 e13d ce4f b4bd
00000390: 2c69 b7bd f89b 5ebd 0e81 343d 9825 ffbc
000003a0: 25b7 9fbc 0c83 793d 050e 15be 8d2f 5abe
000003b0: 2e3d 6a3d 049c 0dbf a1f9 18bf f179 e83d
000003c0: 2012 d6be f37f 603e 6677 e0be f27a 163f
000003d0: 6458 dd3e 5faf bb3d 0dde 5e3e 1c1b 863e
000003e0: 5699 9abf 0c03 a73e 95b9 b03c f35b 69be
000003f0: 147a 113d 8ac8 d2bd cf29 80bd e2c3 a6bc

actor.0.bias f4 [512]
-0.062974155 0.18920794 -0.016974911 -0.19529669 0.13854264 -0.005479312 0.09825155 0.146573
-0.2684666 0.27130473 -0.17519367 -0.09060908 0.17447321 0.15670785 -0.26135275 0.017309388
-0.1367853 -0.11952106 0.26933703 0.1348795 -0.0057800813 0.042414136 -0.035329998 -0.15527575
-0.083306774 0.34299794 0.22038928 0.046748843 0.06362281 0.0052273804 -0.118106805 -0.091642946
-0.059127867 -0.1004645 -0.02812255 0.23025945 -0.03129684 0.06500586 -0.09585315 -0.16588141
0.07860537 -0.32372397 -0.18268433 0.00077138824 0.0155791575 -0.120719165 0.12624352 -0.1081358
0.3021975 -0.13646108 -0.20259504 0.14348426 -0.07499533 -0.040932246 -0.12201259 0.0672982
0.13740127 0.14981519 0.24096908 0.08436312 0.009157914 0.19286653 -0.093709424 0.23777637
-0.08192538 -0.46392408 -0.047204673 0.120243035 0.12984708 -0.32379144 -0.079602785 0.22740777
0.26488847 0.092787445 -0.05816068 -0.22718476 0.3576518 -0.027093504 -0.007849014 -0.1022011
0.13024601 -0.28681698 -0.12069147 0.030901516 -0.086969465 0.23869513 -0.30712363 0.14937176
-0.11237351 -0.17586179 -0.15835053 0.02163252 0.16326417 0.13738967 0.10623905 0.31252006
-0.19593902 0.19869642 -0.03350952 -0.042316265 -0.28709245 0.1649406 0.18310231 -0.043836363
-0.0022708385 0.15090634 0.0715235 0.11459404 -0.20507677 -0.1810911 0.006304863 0.10377705
-0.23995794 -0.03157629 0.07394632 0.14802878 -0.04486337 -0.26438665 0.02982632 0.28138095
0.091771685 0.18890291 0.020313114 -0.05684515 0.2041793 -0.049738344 -0.20542912 0.034022693
0.27603954 -0.11608401 0.24572363 0.19196452 -0.21613386 -0.052653316 0.02987539 0.27157483
0.1409655 -0.23116653 0.008754669 0.23654534 0.16226049 0.11424944 0.11046005 0.08789171
0.12573232 0.06011573 0.30559897 -0.038269013 0.35366285 -0.23977512 0.1170007 0.17811035
0.22662629 0.10902175 -0.16290645 0.15178417 -0.05405563 -0.19032907 -0.12931441 0.19922982
-0.24268311 0.21254545 -0.09787414 -0.1667403 0.1842821 0.029121006 0.046477385 -0.005210117
-0.24556555 -0.039167155 0.11101375 -0.043156307 0.15650682 0.012513766 -0.0087396875 0.28672308
-0.027992563 -0.24389188 -0.112318836 -0.033231463 0.24438497 -0.07421774 -0.32268474 0.25128347
-0.30894965 0.11221462 -0.18777238 0.1457675 -0.039588954 -0.2174141 -0.08759347 0.22723255
0.15983652 0.3143608 0.14982636 0.059047908 0.22456536 0.27499855 -0.051228497 -0.04630241
0.03685235 0.12914649 -0.032620084 -0.22103888 0.08101894 0.1737988 0.19351174 -0.23601003
0.37950408 0.037781246 -0.26398554 -0.18683548 0.04145359 0.08301624 -0.014446212 0.107824996
-0.05652707 0.005145023 0.08549155 0.12764739 0.1375781 0.031106705 0.024872096 -0.23690584
0.18107736 0.053622276 -0.2602723 0.19933559 0.15971172 0.11500475 0.01606085 0.16353205
0.010268349 0.15249224 0.16593784 0.22645171 -0.02475398 0.023147656 0.046828113 -0.15409036
-0.29397854 -0.25787377 -0.12388501 0.20588033 0.051630337 0.070264205 0.21740328 0.28555018
0.14267837 -0.115792535 0.026628051 -0.19930643 0.252288 -0.031011518 0.18374278 -0.07694257
00000000: 98f8 80bd babf 413e f80e 8bbc dbfb 47be
00000010: 1fde 0d3e cd8b b3bb 1c38 c93d 3c17 163e
00000020: 7474 89be 74e8 8a3e f865 33be 4191 b9bd
00000030: 1ba9 323e 0678 203e 07d0 85be 6bcc 8d3c
00000040: 7211 0cbe 75c7 f4bd 8be6 893e da1d 0a3e
00000050: d666 bdbb 72ba 2d3d 30b6 10bd 9b00 1fbe
00000060: be9c aabd 6d9d af3e baad 613e b77b 3f3d
00000070: ad4c 823d 724a ab3b fbe1 f1bd 4caf bbbd
00000080: 1030 72bd 55c0 cdbd 4361 e6bc 22c9 6b3e
00000090: 1e31 00bd cb21 853d a84e c4bd d1dc 29be
000000a0: dafb a03d 26bf a5be 9a11 3bbe fd36 4a3a
000000b0: b93f 7f3c 9c3b f7bd fb45 013e 4d76 ddbd
000000c0: a1b9 9a3e 74bc 0bbe 1375 4fbe 8aed 123e
000000d0: 2797 99bd 92a8 27bd bde1 f9bd a4d3 893d
000000e0: ebb2 0c3e 2769 193e 99c0 763e 92c6 ac3d
000000f0: 130b 163c ce7e 453e baea bfbd a67b 733e
00000100: 7ec8 a7bd 7587 edbe b059 41bd fb41 f63d
00000110: a2f6 043e fec7 a5be c906 a3bd 95dd 683e
00000120: 769f 873e 5807 be3d e539 6ebd 1fa3 68be
00000130: 231e b73e 32f3 ddbc 2799 00bc cf4e d1bd
00000140: 365f 053e add9 92be 172d f7bd 2d25 fd3c
00000150: 0c1d b2bd 7f6c 743e 4f3f 9dbe e9f4 183e
00000160: 1524 e6bd 1d15 34be a426 22be af36 b13c
00000170: b92e 273e e1af 0c3e dc93 d93d a102 a03e
00000180: 3da4 48be 1377 4b3e 4741 09bd d253 2dbd
00000190: c8fd 92be 30e6 283e 2c7f 3b3e c28d 33bd
000001a0: 59d2 14bb 3187 1a3e ea7a 923d 48b0 ea3d
000001b0: a5ff 51be f26f 39be 0699 ce3b 1089 d43d
000001c0: 89b7 75be 2456 01bd 2b71 973d db94 173e
000001d0: a7c2 37bd b05d 87be 5456 f43c 2a11 903e
000001e0: cbf2 bb3d c46f 413e b067 a63c 76d6 68bd
000001f0: 6114 513e 6fba 4bbd 035c 52be 615b 0b3d
00000200: 0e55 8d3e 74bd edbd fa9e 7b3e 5992 443e
00000210: 3252 5dbe 01ab 57bd 3cbd f43c db0b 8b3e
00000220: 4359 103e ebb6 6cbe be6f 0f3c f138 723e
00000230: 9d27 263e 9cfb e93d e138 e23d 9200 b43d
00000240: f9bf 003e e93b 763d 7877 9c3e f8bf 1cbd
00000250: 4c13 b53e 9c87 75be 109e ef3d 8f62 363e
00000260: b910 683e cc46 df3d f3d0 26be 4f6d 1b3e
00000270: 7069 5dbd a0e5 42be ff6a 04be e702 4c3e
00000280: ec81 78be 84a5 593e 3d72 c8bd f8bd 2abe
00000290: 72b4 3c3e 2d8f ee3c 125f 3e3d a1b9 aabb
000002a0: 8975 7bbe bd6d 20bd 2d5b e33d abc4 30bd
000002b0: 5343 203e 8a06 4d3c e830 0fbc 5ecd 923e
000002c0: a950 e5bc cbbe 79be 6b07 e6bd b71d 08bd
000002d0: 0e40 7a3e 78ff 97bd ef36 a5be 3aa8 803e
000002e0: a62e 9ebe c7d0 e53d 6747 40be 1344 153e
000002f0: 0728 22bd cda1 5ebe 3564 b3bd a6af 683e
00000300: 2fac 233e e6f3 a03e 156c 193e 38dc 713d
00000310: 76f4 653e 9ccc 8c3e f9d4 51bd 99a7 3dbd
00000320: 7df2 163d fa3e 043e a39c 05bd 0458 62be
00000330: 42ed a53d 50f8 313e f127 463e 9dac 71be
00000340: 5c4e c23e 82c0 1a3d 1d29 87be cd51 3fbe
00000350: 3dcb 293d 6b04 aa3d ceaf 6cbc 5ad3 dc3d
00000360: ee88 67bd 9597 a83b 3216 af3d ffb5 023e
00000370: 46e1 0c3e 7dd3 fe3c 91c0 cb3c 7297 72be
00000380: 586c 393e 08a3 5b3d 6942 85be a11e 4c3e
00000390: 788b 233e 9c87 eb3d 0b92 833c f274 273e
000003a0: 943c 283c ed26 1c3e 9ceb 293e f5e2 673e
000003b0: dcc8 cabc 27a0 bd3c d6ce 3f3d ddc9 1dbe
000003c0: 5b84 96be 0808 84be 6db7 fdbd 4bd2 523e
000003d0: 557a 533d aee6 8f3d f79e 5e3e a233 923e
000003e0: 471a 123e a324 edbd 1223 da3c fc16 4cbe
000003f0: e52b 813e de0b febc 1127 3c3e 1194 9dbd

actor.2.weight f4 [256, 512]
0.23528232 0.07310336 -0.20862232 0.1309047 0.022846695 0.0806701 0.14024778 0.04365902
0.06206415 -0.040532015 0.37097394 -0.094511144 -0.19310087 -0.29652965 0.23879236 -0.4389179
-0.28742296 0.14936037 0.18433248 0.28848222 0.06923405 -0.42869547 0.2288578 -0.114849746
0.05783488 0.24231009 0.05233119 0.055407356 -0.2750621 0.05807448 0.11502334 0.26471493
-0.1494231 0.23237203 -0.106466025 0.13348886 0.009427598 0.017988252 0.31567264 0.046579666
-0.12250745 0.1724258 -0.20058446 -0.18597567 0.038510956 0.058603004 -0.056841444 -0.26848844
-0.16883005 0.076532856 0.07425852 0.18214743 -0.06115204 -0.12387086 -0.21639922 -0.20289923
-0.35466206 -0.331123 0.30635965 -0.25333542 0.05126929 0.11785102 0.06940203 -0.25006786
-0.027819382 0.105985805 0.027247982 0.17944284 0.020879228 -0.047041304 -0.07068512 -0.313047
-0.11293709 -0.06891316 -0.1772313 0.14502911 -0.047123592 -0.20573626 0.017523114 0.23827207
-0.07309257 -0.14454536 -0.27702782 0.085943915 0.11040774 -0.18668479 -0.22215095 0.02096309
0.35374057 0.35116416 0.032980233 0.24501838 -0.17239514 -0.20774823 -0.040581375 0.09634964
0.13205263 -0.14793335 0.072786294 0.047868054 0.20134546 -0.29726058 -0.03920802 0.111164115
-0.106565684 -0.049722064 -0.34421667 0.0100187035 -0.096742265 0.059544306 0.26318982 -0.13206002
0.11391379 0.09161941 0.3114651 0.038158186 -0.08968648 0.19732831 0.2534642 -0.098770484
0.019727858 -0.07793509 -0.2759752 -0.28531453 0.119769245 -0.1479194 0.12883158 -0.12577754
-0.0052032173 0.17899968 -0.08800767 -0.06978967 -0.019868428 -9.282451e-05 -0.19961275 0.15163657
-0.07149998 0.14813781 -0.25936392 0.026097318 0.027313909 -0.2852502 0.10226932 -0.17267735
0.121451855 0.0374004 0.01317149 0.38208374 0.054545842 0.12944752 -0.02635566 0.46822664
-0.03413421 0.022103556 0.07611076 -0.10243304 0.023824947 -0.012517419 0.13269728 -0.1461475
-0.029375361 0.0063791983 -0.04291171 -0.11506947 -0.26329938 0.115288734 -0.21222831 0.19668497
0.2039288 0.2878604 -0.2772801 -0.118115366 0.09747692 0.18412536 -0.47718263 -0.49095458
0.14666837 -0.11093024 -0.05574543 0.16885267 0.007997065 0.041255224 0.053438257 -0.24836808
-0.37803417 0.29650837 -0.0037541015 0.047879275 -0.3314711 -0.063805744 0.08762345 -0.035486028
-0.26659364 0.02271692 -0.057922155 -0.008838442 0.11086537 -0.054835387 0.077734634 -0.3852807
-0.22363767 -0.16245915 0.041207343 -0.1558068 0.20046061 -0.14894119 -0.16970654 0.14054029
-0.090678595 -0.057796303 0.12274624 -0.23333561 -0.030249145 -0.059018277 -0.033860356 -0.042282484
0.006294178 -0.26944396 -0.13043831 0.09693533 -0.22363317 0.10283358 0.07049536 0.31806
0.08012071 -0.09370162 -0.18344957 -0.030299794 0.104597665 0.083632 -0.26360452 0.055461384
-0.0025874083 0.14520063 0.023863368 -0.12966782 0.26675 -0.042040475 0.025541859 -0.023927229
0.012991696 0.24145167 -0.07325835 -0.3161509 -0.13691108 0.036718074 0.0064205877 0.52872163
-0.22933003 0.1839026 -0.3602399 0.03805179 -0.1202137 -0.13753144 -0.34972006 -0.41356942
00000000: d9ed 703e 37b7 953d 17a1 55be e20b 063e
00000010: fe28 bb3c 5e36 a53d 1d9d 0f3e cdd3 323d
00000020: fa36 7e3d e604 26bd 4cf0 bd3e 0f8f c1bd
00000030: 3cbc 45be bcd2 97be fc85 743e d9b9 e0be
00000040: 1a29 93be edf1 183e a7c1 3c3e f1b3 933e
00000050: 95ca 8d3d f97d dbbe b359 6a3e 5836 ebbd
00000060: 44e4 6c3d 2320 783e 3b59 563d d3f2 623d
00000070: f1d4 8cbe 82df 6d3d 5b91 eb3d b788 873e
00000080: 5e02 19be eff2 6d3e dc0a dabd 4eb1 083e
00000090: 3676 1a3c 195c 933c d89f a13e 52ca 3e3d
000000a0: 30e5 fabd 6490 303e 0366 4dbe 6870 3ebe
000000b0: aabd 1d3d b409 703d 93d2 68bd 5177 89be
000000c0: c9e1 2cbe 42bd 9c3d da14 983d db84 3a3e
000000d0: 907a 7abd 01b0 fdbd c297 5dbe d1c4 4fbe
000000e0: 4496 b5be f488 a9be 2cdb 9c3e 2eb5 81be
000000f0: bfff 513d e05b f13d a722 8e3d e508 80be
00000100: 79e5 e3bc 160f d93d 2937 df3c ddbf 373e
00000110: ea0a ab3c 62ae 40bd 5cc3 90bd b247 a0be
00000120: 904b e7bd 5822 8dbd 1f7c 35be 8382 143e
00000130: ab04 41bd 87ac 52be a28c 8f3c 98fd 733e
00000140: 8fb1 95bd b303 14be 97d6 8dbe 5d03 b03d
00000150: 741d e23d 4c2a 3fbe 8a7b 63be c9ba ab3c
00000160: 7c1d b53e cacb b33e 4816 073d 19e6 7a3e
00000170: 5a88 30be f4bb 54be a838 26bd f652 c53d
00000180: ce38 073e d77b 17be fb10 953d 4b11 443d
00000190: 812d 4e3e 8a32 98be 9798 20bd 03aa e33d
000001a0: 1c3f dabd 5da9 4bbd 2b3d b0be 7d25 243c
000001b0: cf20 c6bd bbe4 733d d1c0 863e be3a 07be
000001c0: a24b e93d f5a2 bb3d 5b78 9f3e c24b 1c3d
000001d0: 8cad b7bd 6f10 4a3e 0fc6 813e 2e48 cabd
000001e0: 519c a13c 6f9c 9fbd 9f4c 8dbe bf14 92be
000001f0: 9449 f53d 2f78 17be 6dec 033e d4cb 00be
00000200: c07f aabb b14b 373e 5e3d b4bd e3ed 8ebd
00000210: 1dc3 a2bc c8aa c2b8 4967 4cbe 9e46 1b3e
00000220: 956e 92bd 70b1 173e 59cb 84be 0bca d53c
00000230: 6bc1 df3c 500c 92be 9472 d13d 55d2 30be
00000240: c0bb f83d 2931 193d 3ccd 573c 7ba0 c33e
00000250: 766b 5f3d e48d 043e d3e7 d7bc 67bb ef3e
00000260: 50d0 0bbd 8412 b53c f5df 9b3d 6ac8 d1bd
00000270: 892c c33c dc15 4dbc cce1 073e b1a7 15be
00000280: 99a4 f0bc 9808 d13b 30c4 2fbd 8ba9 ebbd
00000290: 2dcf 86be 801c ec3d 6152 59be c967 493e
000002a0: b6d2 503e 7062 933e a8f7 8dbe 78e6 f1bd
000002b0: fba1 c73d 5c8b 3c3e 4851 f4be 665e fbbe
000002c0: 3c30 163e 652f e3bd 5255 64bd b7e7 2c3e
000002d0: 1f06 033c 3dfb 283d 13e2 5a3d 3454 7ebe
000002e0: b28d c1be f2cf 973e 5f07 76bb 0f1d 443d
000002f0: 94b6 a9be 96ac 82bd ec73 b33d cc59 11bd
00000300: f67e 88be d618 ba3c c83f 6dbd 1dcf 10bc
00000310: 620d e33d 129b 60bd 5633 9f3d 8343 c5be
00000320: 4601 65be b15b 26be 08c9 283d d18b 1fbe
00000330: 8c45 4d3e 0a84 18be 8dc7 2dbe cbe9 0f3e
00000340: b3b5 b9bd d1bb 6cbd 6162 fb3d 88ef 6ebe
00000350: 0ecd f7bc 26bd 71bd 28b1 0abd 6630 2dbd
00000360: 643f ce3b 8ff4 89be 9f91 05be 0886 c63d
00000370: 1800 65be 699a d23d df5f 903d c3d8 a23e
00000380: 5416 a43d a3e6 bfbd 34da 3bbe 4637 f8bc
00000390: 4d37 d63d 4147 ab3d 2cf7 86be 7a2b 633d
000003a0: 8291 29bb 79af 143e 1c7d c33c a4c7 04be
000003b0: 7593 883e a232 2cbd 293d d13c 0903 c4bc
000003c0: 1fdb 543c 1b3f 773e 7908 96bd 88de a1be
000003d0: 6b32 0cbe b165 163d cb63 d23b 4d5a 073f
000003e0: 7ed5 6abe f750 3c3e 5d71 b8be 32dc 1b3d
000003f0: 9a32 f6bd 0bd5 0cbe 820e b3be 5fbf d3be

actor.2.bias f4 [256]
-0.12798905 -0.02370881 -0.08597622 0.008742955 -0.0025399278 -0.18245226 -0.13124439 -0.14687572
-0.09598136 -0.03330945 -0.25067908 -0.089372896 -0.11271951 -0.22714351 -0.10246013 -0.037888624
-0.1388158 -0.23948558 -0.24062942 0.10807009 -0.027312253 -0.25162968 -0.064068176 -0.17113636
-0.26678774 -0.16907227 -0.010561314 -0.075835 -0.09051865 -0.14624757 -0.19011565 -0.013888863
-0.03049265 -0.115729176 -0.21450341 -0.1123316 -0.38508323 0.019321743 -0.047386006 -0.012943538
-0.11815852 -0.2567061 -0.27195603 -0.1391289 -0.17388634 -0.11088991 -0.08011735 -0.2326492
-0.15357809 -0.21033782 -0.21195519 -0.054153092 -0.15163971 -0.15820473 0.00486177 -0.070818014
-0.1590281 -0.21391852 -0.15509647 -0.091622725 -0.17885146 -0.27991286 0.028910285 -0.13835634
-0.1489957 -0.25266767 -0.0708159 -0.11651463 -0.07571771 -0.12045025 -0.08745129 -0.18005851
-0.1836493 -0.024573142 -0.18524517 -0.034419186 -0.024284864 -0.21836364 -0.27344096 0.1246894
-0.16103539 -0.09851127 -0.14661051 -0.12150834 -0.12995541 -0.026020003 -0.17614922 -0.1133027
-0.011146987 -0.03824262 -0.008884455 -0.086980216 -0.3113648 -0.07453868 -0.09999118 -0.23540622
-0.05966775 -0.047774334 0.052921485 -0.27826717 -0.04868958 -0.29328087 -0.23213835 -0.033444997
-0.22752607 -0.30906567 -0.20911288 -0.016117806 -0.15236063 -0.17397903 -0.0016891701 -0.21738221
-0.294418 -0.29800433 -0.24574415 -0.22198611 -0.11641194 -0.13250776 0.059249777 -0.1023554
-0.082423516 -0.031001572 -0.26862782 -0.17092441 -0.33394644 -0.1674539 -0.09530988 -0.046502024
-0.360437 -0.10284343 -0.1405787 -0.16219546 0.20941858 -0.024892427 -0.049043063 -0.09970589
-0.28055823 -0.20670871 -0.19312707 -0.22147486 -0.022716708 -0.14857653 -0.31145743 -0.21394664
-0.008741824 -0.0921341 -0.18512528 -0.10329487 -0.2293033 -0.11534 -0.119349025 -0.32766113
-0.18423942 -0.31283042 -0.37105358 -0.04148319 -0.23555996 -0.17524657 -0.123993464 0.005333308
-0.09512022 0.0071968804 -0.052730426 -0.3562245 -0.13637574 -0.12519796 -0.2582671 -0.218137
-0.11753192 -0.27589676 -0.033539325 0.06762818 -0.22522397 -0.14537752 -0.19636445 -0.2805381
-0.17030987 -0.14059797 -0.026781222 -0.2586849 -0.061681528 -0.19845171 -0.14067347 -0.08978026
-0.2744414 -0.021843748 -0.03254612 -0.21853265 -0.24374506 -0.24644738 -0.1901991 -0.2646277
-0.19207281 -0.041121416 -0.21924366 -0.26245704 -0.0816994 -0.2608321 -0.21232726 0.030704714
-0.0751009 -0.14037535 0.04072294 -0.11082844 -0.048550285 -0.2126872 0.115973316 -0.021729983
-0.14884883 -0.11258072 -0.15997538 -0.093165696 -0.19528806 -0.17654635 0.12551625 -0.30197665
-0.052064728 -0.010952288 -0.0067638 -0.26376352 -0.0668523 -0.28457695 -0.14426811 0.32903248
0.026659263 -0.2391628 -0.16665807 -0.12358073 -0.19966175 -0.24419056 -0.05214888 0.06947374
-0.13675506 -0.04513482 -0.119050846 -0.17741416 -0.22764088 -0.10890945 -0.13658568 -0.23311411
-0.11827461 -0.15327488 -0.15090087 -0.1009629 0.054963026 -0.14526503 -0.17773272 -0.18435884
-0.28190017 -0.130283 -0.33727428 -0.023592459 -0.08656607 -0.15784769 -0.1729905 -0.034540363
00000000: 900f 03be fa38 c2bc 4d14 b0bd 9c3e 0f3c
00000010: eb74 26bb c4d4 3abe ee64 06be 9766 16be
00000020: e091 c4bd 7d6f 08bd 0259 80be 2309 b7bd
00000030: 7dd9 e6bd 4f98 68be 9ed6 d1bd 1a31 1bbd
00000040: bb25 0ebe b53b 75be 8f67 76be da53 dd3d
00000050: f2bd dfbc 9bd5 80be 2d36 83bd 5f3e 2fbe
00000060: 6798 88be 4821 2dbe 5d09 2dbc 614f 9bbd
00000070: d861 b9bd ecc1 15be adad 42be 1d8e 63bc
00000080: b9cb f9bc 6b03 edbd c8a6 5bbe 1c0e e6bd
00000090: a129 c5be a248 9e3c d417 42bd 2211 54bc
000000a0: 18fd f1bd fb6e 83be d23d 8bbe ce77 0ebe
000000b0: 430f 32be 401a e3bd 9114 a4bd 983b 6ebe
000000c0: 9343 1dbe cc62 57be c80a 59be a2cf 5dbd
000000d0: 7147 1bbe 6c00 22be 7c4f 9f3b 0909 91bd
000000e0: 43d8 22be 750d 5bbe 9cd1 1ebe b2a4 bbbd
000000f0: d624 37be bd50 8fbe 43d5 ec3c 49ad 0dbe
00000100: 5492 18be a85d 81be ed07 91bd 399f eebd
00000110: e311 9bbd 9fae f6bd a919 b3bd 4261 38be
00000120: 900e 3cbe 9d4d c9bc e9b0 3dbe 22fb 0cbd
00000130: 0df1 c6bc b89a 5fbe 7400 8cbe 285d ff3d
00000140: 76e6 24be 47c0 c9bd 1121 16be 5dd9 f8bd
00000150: 0813 05be e727 d5bc 7660 34be 3f0b e8bd
00000160: daa1 36bc 4ba4 1cbd 1b90 11bc af22 b2bd
00000170: 356b 9fbe bca7 98bd 2dc8 ccbd 540e 71be
00000180: 2c66 74bd 05af 43bd 33c4 583d 0979 8ebe
00000190: ba6e 47bd e928 96be adb5 6dbe 9ffd 08bd
000001a0: 98fc 68be db3d 9ebe b021 56be 7d09 84bc
000001b0: 6d04 1cbe 8f27 32be 2567 ddba 7199 5ebe
000001c0: f5bd 96be 0694 98be 5ba4 7bbe 5450 63be
000001d0: 6269 eebd 1db0 07be e5af 723d b59f d1bd
000001e0: a9cd a8bd 02f7 fdbc 9689 89be cf06 2fbe
000001f0: 07fb aabe 0979 2bbe d431 c3bd e878 3ebd
00000200: 338b b8be 949f d2bd ddf3 0fbe 9116 26be
00000210: d371 563e 34eb cbbc 61e1 48bd 9a32 ccbd
00000220: 54a5 8fbe 73ab 53be 1ac3 45be 4eca 62be
00000230: 6418 babc 7224 18be 5977 9fbe d414 5bbe
00000240: de39 0fbc ceb0 bcbd 7b91 3dbe 438c d3bd
00000250: 7cce 6abe 6137 ecbd 436d f4bd 33c3 a7be
00000260: 42a9 3cbe 4f2b a0be bcfa bdbe 47ea 29bd
00000270: a136 71be d673 33be 49f0 fdbd 08c3 ae3b
00000280: 64ce c2bd cfd3 eb3b dcfb 57bd 0f63 b6be
00000290: 15a6 0bbe e533 00be 963b 84be 4e5f 5fbe
000002a0: 93b4 f0bd 5742 8dbe 8860 09bd a580 8a3d
000002b0: 1da1 66be d8dd 14be c313 49be b1a2 8fbe
000002c0: b665 2ebe eaf8 0fbe 4b64 dbbc 5972 84be
000002d0: c5a5 7cbd ed36 4bbe b50c 10be b7de b7bd
000002e0: 9583 8cbe a9f1 b2bc 154f 05bd 06c7 5fbe
000002f0: 4e98 79be b45c 7cbe 8ec3 42be 487d 87be
00000300: bcae 44be ee6e 28bd 6981 60be c560 86be
00000310: 0452 a7bd c98b 85be 516c 59be 7488 fb3c
00000320: 80ce 99bd 8ebe 0fbe 19cd 263d 05fa e2bd
00000330: aadc 46bd acca 59be 6b83 ed3d 1403 b2bc
00000340: d46b 18be b890 e6bd 96d0 23be a8cd bebd
00000350: 98f9 47be 91c8 34be 5587 003e af9c 9abe
00000360: d341 55bd 3a71 33bc dea2 ddbb 030c 87be
00000370: dce9 88bd 12b4 91be 05bb 13be f276 a83e
00000380: 8764 da3c 18e7 74be 6aa8 2abe e517 fdbd
00000390: 2174 4cbe 170d 7abe 109a 55bd 4048 8e3d
000003a0: 8509 0cbe 4adf 38bd eed0 f3bd 0fac 35be
000003b0: b11a 69be eb0b dfbd 1edd 0bbe 77b5 6ebe
000003c0: f539 f2bd 17f4 1cbe c285 1abe a3c5 cebd
000003d0: e920 613d 5bc0 14be 91ff 35be 90c8 3cbe
000003e0: 3855 90be e868 05be 37af acbe f944 c1bc
000003f0: 8d49 b1bd d3a2 21be 6c24 31be 327a 0dbd

actor.4.weight f4 [128, 256]
0.08774954 -0.071857244 -0.05477912 -0.09091856 -0.21912718 -0.084346145 -0.10386684 -0.05795809
0.0056435647 0.040767245 0.27303883 -0.2011121 0.011635165 -0.4935874 0.058126364 0.05431619
0.1588757 0.094179966 -0.09472903 -0.1274475 0.13363628 0.20572224 0.016774254 -0.15840021
-0.021674622 0.104324445 -0.18002377 -0.051582716 -0.12714651 0.11798135 -0.21395114 0.011564694
0.030566085 0.02636759 -0.028702818 -0.21242976 -0.015015266 -0.30337045 -0.14733098 -0.024437036
0.031806726 -0.037561744 -0.05263714 -0.36680722 -0.11479056 0.035092134 -0.043386664 -0.09000676
0.06837583 0.0061006485 0.0009725874 -0.011489727 0.32445815 -0.10367732 -0.091604166 0.039221037
-0.038965758 0.17188545 0.017895795 -0.04716427 0.1192601 0.090088084 -0.04350641 0.024825314
-0.22842857 -0.08933492 -0.11014783 0.12638915 -0.07888494 -0.32738405 -0.12586448 0.047654916
-0.3449529 -0.29093626 0.12375155 0.016589567 -0.037018113 0.11638368 -0.11270958 -0.32875
0.15422186 -0.024674244 -0.32694283 -0.3510607 0.10775346 0.064238906 0.12776038 -0.08307173
0.0024378493 -0.24030414 -0.15664537 -0.10657031 0.02501594 -0.26466003 -0.2080551 0.15349972
-0.009569479 -0.052122876 -0.051032435 0.06202543 -0.24468946 -0.15196437 0.057708032 -0.09984199
0.085519455 -0.07228447 0.17791295 -0.0072152577 -0.096953385 0.03577232 0.04575316 -0.064361505
0.075732775 0.156284 -0.120243475 0.03263003 -0.044812087 -0.22659388 0.13847716 0.10051415
-0.06484148 -0.07316989 -0.21889667 0.14320566 -0.035911232 0.16589855 0.055436205 -0.17690769
0.10367404 -0.025934974 -0.22154094 -0.0776476 0.008021198 -0.11905128 -0.11185114 -0.45129192
0.088806376 -0.1730157 0.11613386 0.19161093 -0.10488315 -0.054401606 -0.13826275 0.12054258
-0.18363538 -0.02836758 -0.1299756 -0.16286166 0.10251228 -0.227196 0.07074759 -0.028807843
0.023950988 -0.1109802 0.0005201603 -0.0627091 -0.27142867 0.29262137 -0.072877675 0.07162431
0.16107695 -0.18383937 -0.019367535 0.03129085 0.010370113 -0.020025019 0.106008485 -0.16131368
0.11722501 0.17338859 -0.005851556 0.0702345 -0.0692271 0.14046028 -0.033038355 0.05054773
-0.076115385 -0.09481423 0.09454336 0.049759716 -0.031022953 -0.07454005 0.2149644 -0.14342786
-0.15626058 -0.002896412 0.030357704 -0.15398197 -0.17152557 0.038925868 0.22052997 -0.08935329
-0.28883466 -0.02871739 -0.18125148 -0.0063901716 -0.21810332 0.0055799736 0.06434584 0.044863258
0.0066977856 -0.028600348 -0.05656816 -0.13610284 0.048097365 0.024492554 -0.12865673 0.069756
-0.14486022 -0.15782623 -0.04118451 -0.24568255 0.0830863 0.027659217 -0.1610928 0.10166801
-0.3379281 -0.04604061 0.06051879 0.22630993 0.09573887 0.13826546 0.24776936 -0.13817984
-0.19944063 0.14117442 -0.11433819 -0.018673189 0.0041772705 -0.09481487 -0.40796247 -0.032269474
0.17313948 0.066064335 -0.19783375 -0.17675461 -0.033280913 -0.2224255 0.063849494 0.053407125
0.05197905 0.1491256 -0.32344776 0.23526485 0.04118759 -0.002445424 -0.29133597 0.08143816
0.1436464 -0.25164196 -0.23710915 -0.1684811 -0.028589701 0.19538717 0.06469017 -0.021209193
00000000: 08b6 b33d e429 93bd 1260 60bd 8333 babd
00000010: e062 60be acbd acbd 23b8 d4bd 7665 6dbd
00000020: a7ed b83b 8efb 263d bfcb 8b3e 55f0 4dbe
00000030: 6ba1 3e3c 7db7 fcbe e915 6e3d a77a 5e3d
00000040: 50b0 223e 6de1 c03d 4b01 c2bd 9981 02be
00000050: f3d7 083e daa8 523e 296a 893c aa33 22be
00000060: fa8e b1bc 0ea8 d53d 2758 38be 6648 53bd
00000070: b232 02be 35a0 f13d 0216 5bbe d879 3d3c
00000080: ba65 fa3c d800 d83c 2c22 ebbc 3087 59be
00000090: 9702 76bc 5f53 9bbe efdd 16be 2e30 c8bc
000000a0: c547 023d 58da 19bd 0b9a 57bd 28ce bbbe
000000b0: 5017 ebbd c5bc 0f3d 37b6 31bd 7755 b8bd
000000c0: a108 8c3d f3e7 c73b 3cf5 7e3a 683f 3cbc
000000d0: 611f a63e c654 d4bd f79a bbbd 3da6 203d
000000e0: 8f9a 1fbd bd02 303e 349a 923c 522f 41bd
000000f0: a43e f43d 1a80 b83d c733 32bd 755e cb3c
00000100: 2ee9 69be 3af5 b6bd 2f95 e1bd 286c 013e
00000110: 6d8e a1bd e29e a7be 9ee2 00be cd31 433d
00000120: ab9d b0be 99f5 94be 7471 fd3d d8e6 873c
00000130: 4ea0 17bd 915a ee3d 48d4 e6bd ec51 a8be
00000140: 56ec 1d3e a421 cabc 0d65 a7be 3abe b3be
00000150: d9ad dc3d b08f 833d 9ed3 023e 8321 aabd
00000160: 53c4 1f3b 4a12 76be a567 20be 8941 dabd
00000170: 3bee cc3c 8581 87be 650c 55be 082f 1d3e
00000180: 4ec9 1cbc cc7e 55bd 6307 51bd 610e 7e3d
00000190: e08f 7abe 8c9c 1bbe 425f 6c3d f579 ccbd
000001a0: d324 af3d e109 94bd d02e 363e f86d ecbb
000001b0: 7f8f c6bd ff85 123d aa67 3b3d f7cf 83bd
000001c0: c919 9b3d ea08 203e 3642 f6bd 11a7 053d
000001d0: e18c 37bd 3a08 68be f5cc 0d3e 5dda cd3d
000001e0: 9ccb 84bd 18da 95bd 7326 60be 81a4 123e
000001f0: a817 13bd 4fe1 293e 1311 633d 4a27 35be
00000200: 0e53 d43d 9575 d4bc a1db 62be b405 9fbd
00000210: 586b 033c 28d1 f3bd 3612 e5bd bc0f e7be
00000220: 1ee0 b53d 072b 31be 97d7 ed3d a835 443e
00000230: facc d6bd 38d4 5ebd c094 0dbe 07df f63d
00000240: ea0a 3cbe 2163 e8bc 5318 05be 35c5 26be
00000250: f5f1 d13d 11a6 68be 1de4 903d 6dfe ebbc
00000260: dd34 c43c 9649 e3bd 5e5b 083a a16d 80bd
00000270: b3f8 8abe 78d2 953e e440 95bd c4af 923d
00000280: 5bf1 243e 6340 3cbe aaa8 9ebc d62a 003d
00000290: 68e7 293c 820b a4bc fa1a d93d 6a2f 25be
000002a0: ab13 f03d c78c 313e 69be bfbb 1bd7 8f3d
000002b0: f0c6 8dbd d2d4 0f3e 3a53 07bd 230b 4f3d
000002c0: 62e2 9bbd f72d c2bd f39f c13d d8d0 4b3d
000002d0: d923 febc 74a8 98bd a11f 5c3e c1de 12be
000002e0: c602 20be bbd1 3dbb b8b0 f83c 73ad 1dbe
000002f0: 66a4 2fbe bb70 1f3d 9cd2 613e dcfe b6bd
00000300: 23e2 93be bb40 ebbc fd99 39be a564 d1bb
00000310: 7a56 5fbe 36d8 b63b c0c7 833d 89c2 373d
00000320: 1979 db3b 474b eabc 04b4 67bd 8b5e 0bbe
00000330: be01 453d 9ca4 c83c 97be 03be 3cdc 8e3d
00000340: 3d56 14be 339d 21be 17b1 28bd 3594 7bbe
00000350: 2629 aa3d 9595 e23c 83f5 24be 5137 d03d
00000360: e904 adbe 1495 3cbd 8de2 773d cabd 673e
00000370: be12 c43d 7695 0d3e 40b7 7d3e 047f 0dbe
00000380: 2a3a 4cbe 0790 103e 242a eabd 84f8 98bc
00000390: 7ce1 883b 4c2e c2bd 75e0 d0be ff2c 04bd
000003a0: 7a4b 313e bd4c 873d ee94 4abe 29ff 34be
000003b0: 9151 08bd 83c3 63be 86c3 823d 6ec1 5a3d
000003c0: fce7 543d 62b4 183e f29a a5be 45e9 703e
000003d0: 52b4 283d 6843 20bb fd29 95be 0dc9 a63d
000003e0: 0b18 133e 37d7 80be becc 72be 4f86 2cbe
000003f0: f334 eabc 9313 483e 487c 843d e7be adbc

actor.4.bias f4 [128]
-0.15330708 -0.25138855 -0.07062293 -0.061481774 -0.18647544 -0.014819579 -0.16711932 -0.15120056
-0.20962441 -0.10110903 -0.13333149 -0.25524616 -0.14970356 -0.25973156 -0.03485392 -0.24949995
-0.050861772 -0.18991168 -0.19204608 -0.20393385 -0.10456174 -0.14328587 -0.09721094 -0.049312394
-0.061458394 -0.21770926 -0.15972242 -0.16177563 -0.1329877 -0.12426927 -0.23092073 -0.056968223
-0.08096877 -0.22583763 -0.08512514 -0.12370026 -0.084787995 -0.17184354 -0.15116948 -0.20651993
-0.34379682 -0.06942923 -0.12091287 -0.45980316 -0.18107359 -0.13822931 -0.09612336 -0.07649483
-0.19548759 -0.19145966 -0.17121428 -0.20019282 -0.02817647 -0.1373968 -0.12787612 -0.1942124
-0.019872233 -0.13827868 -0.038234957 -0.049404606 -0.3029255 -0.09751486 -0.13892223 -0.1398256
-0.09262363 -0.19818348 -0.11579234 -0.12369816 -0.111838765 -0.19223064 -0.052821208 -0.12350871
-0.12958571 -0.17721625 -0.10703522 -0.21886687 -0.22529155 -0.07271926 -0.08342366 -0.11313366
-0.078946434 -0.27714556 -0.14782362 -0.12977861 -0.11869216 -0.4525697 -0.13761845 -0.09074056
-0.19378367 -0.15441029 -0.13413107 -0.10147207 -0.20939709 -0.07037642 -0.23907539 -0.091949835
-0.114434585 -0.0723612 0.049708143 -0.0050268536 -0.21967661 -0.113267414 -0.0670107 -0.2048019
-0.19433008 -0.123734266 -0.087312475 -0.1201268 -0.16334617 -0.1511618 -0.1005164 -0.07424425
-0.47105885 -0.2961162 -0.14536011 -0.08994734 -0.10179394 -0.12450102 -0.15122676 -0.12207283
-0.13979964 -0.12723288 -0.1490037 -0.07331716 -0.11419651 -0.11324869 -0.14989756 -0.17706943
00000000: 88fc 1cbe 00b6 80be c1a2 90bd 50d4 7bbd
00000010: 6bf3 3ebe d2cd 72bc 5421 2bbe 52d4 1abe
00000020: c8a7 56be 4012 cfbd 0d88 08be a0af 82be
00000030: e44b 19be 89fb 84be fcc2 0ebd ea7c 7fbe
00000040: 6f54 50bd 3578 42be baa7 44be 09d4 50be
00000050: 7724 d6bd 88b9 12be 8816 c7bd cbfb 49bd
00000060: ccbb 7bbd 2def 5ebe 468e 23be 83a8 25be
00000070: ed2d 08be e380 febd 7c76 6cbe 8357 69bd
00000080: f4d2 a5bd fb41 67be 1756 aebd 9056 fdbd
00000090: 54a5 adbd c1f7 2fbe 2ccc 1abe f679 53be
000000a0: 2306 b0be ea30 8ebd 2ba1 f7bd 526b ebbe
000000b0: 5b6b 39be fc8b 0dbe 53dc c4bd 52a9 9cbd
000000c0: e62d 48be 000e 44be cc52 2fbe 59ff 4cbe
000000d0: 57d2 e6bc bfb1 0cbe f5f1 02be 9edf 46be
000000e0: 18cb a2bc ed98 0dbe 429c 1cbd 7c5c 4abd
000000f0: 0d19 9bbe dfb5 c7bd a141 0ebe 712e 0fbe
00000100: 75b1 bdbd 9cf0 4abe 8924 edbd 7655 fdbd
00000110: b90b e5bd 1cd8 44be 0d5b 58bd 22f2 fcbd
00000120: 1eb2 04be 2d78 35be 4835 dbbd a31e 60be
00000130: d4b2 66be d6ed 94bd 06da aabd 9fb2 e7bd
00000140: abae a1bd 06e6 8dbe 135f 17be afe4 04be
00000150: e014 f3bd 37b7 e7be daeb 0cbe 30d6 b9bd
00000160: 3a6f 46be bb1d 1ebe a859 09be 97d0 cfbd
00000170: 316c 56be 8321 90bd 2ed0 74be 3250 bcbd
00000180: ae5c eabd 1c32 94bd c49a 4b3d 4eb8 a4bb
00000190: e8f2 60be bff8 e7bd e83c 89bd 97b7 51be
000001a0: 77fe 46be 6468 fdbd e2d0 b2bd 0a05 f6bd
000001b0: 3844 27be 29ca 1abe 8bdb cdbd 5f0d 98bd
000001c0: a02e f1be 8b9c 97be 48d9 14be 5036 b8bd
000001d0: 5779 d0bd 64fa febd 30db 1abe 5201 fabd
000001e0: a327 0fbe 5649 02be 6d94 18be 4f27 96bd
000001f0: dcdf e9bd eeee e7bd bf7e 19be b051 35be

actor.6.weight f4 [10, 128]
0.01571815 -0.006917437 -0.015701229 0.008127236 0.0153543865 0.003500747 -0.014622959 0.03864291
-0.026583841 0.021404732 -0.029582815 0.038926654 0.024507469 0.03286925 0.0068234913 -0.01785994
0.053022206 0.028404491 -0.043456037 0.024608232 -0.006954244 -0.01938421 0.0024733373 -0.025083154
0.006366035 -0.008595038 0.069387354 0.039212707 0.0072001824 -0.023052728 -0.0010310239 0.040234342
-0.0020319908 -0.01120617 -0.016331594 0.020913044 0.0016277893 -0.030804895 0.009243358 0.018885924
-0.002777015 0.011173651 -0.033287853 0.00783486 0.027390685 -0.012875727 0.030200379 0.018629763
0.032370202 0.0062447586 0.051317837 0.009502614 0.005851154 0.06767317 -0.020890258 0.013718481
-0.000119241864 0.017337743 -0.025963703 0.027527977 -0.017559424 -0.006353955 -0.011989598 -0.0046185786
0.0024266317 0.0074058613 -0.018562518 -0.029793968 -0.015338524 -0.01749786 -0.022102969 0.02624442
0.0069303364 -0.010389675 -0.016191084 -0.016411053 0.05862165 0.01181223 0.031027501 -0.021468353
-0.012538647 0.035434846 0.00044187385 0.007620921 0.014331857 0.0016312982 0.009915794 0.023298966
-0.012100837 0.032931563 0.0172182 0.0180735 0.017629141 0.0076103457 0.005001199 -0.073508754
-0.050453298 -0.06401041 -0.024533724 -0.025625473 0.022648083 -0.021895854 -0.013347416 -0.004888284
-0.0072775125 -0.054399647 0.047286008 -0.04933733 0.0022479224 -0.0290759 0.018157655 -0.009229817
0.017014455 0.02366822 0.009251837 -0.0041896943 -0.006770876 0.0007847582 -0.0005902549 -0.05335079
0.03489627 -0.0042195776 -0.023186747 0.21889076 0.0226101 -0.008524378 -0.01028644 -0.013760689
-0.007162568 -0.012002349 0.06395671 -0.026224963 -0.027985167 0.0081708385 -0.013701198 -0.00257555
-0.004271202 -0.019361978 -0.054484732 -0.025165655 0.022518119 -0.04034988 0.025607063 0.0026946587
-0.0011690268 -0.028093688 0.011233216 -0.012419604 0.06294532 0.0153591605 0.007086323 0.008181645
0.025714684 -0.005911132 -0.00081551535 -0.015165622 -0.03546572 0.0028572355 0.0046827807 0.04406642
0.007915341 -0.0023884312 -0.017482925 -0.051456727 0.0032447278 -0.0048937444 0.012122908 0.054202426
0.00089992135 -0.017158603 0.01098822 -0.009160918 -0.008498101 0.014158126 0.001140146 -0.007358333
-0.001390573 -0.057997555 0.036548074 0.0146044 0.20768897 -0.029051691 -0.035980973 -0.055774715
-0.0055716787 -0.0763107 -0.0052749193 0.0050358176 -0.020339284 -0.044687796 0.032030668 -0.0071588187
-0.014712932 0.004344547 -0.0009992047 0.03587479 0.012685366 0.0049234596 0.00051253324 -0.013910155
0.030003363 0.007514572 0.0019995251 -0.0034814996 -0.015138847 0.021192081 -0.024629442 0.033719983
-0.017793352 0.033301797 0.0242607 0.031198185 0.019967671 0.009048098 0.05039121 -0.042520285
0.012799153 -0.045265 -0.028628917 0.025495471 -0.007983916 -0.0053737448 -0.022030916 0.05142664
0.027563654 0.01599099 -0.0015735494 0.016002197 -0.008424067 0.019824443 0.04021083 0.009524284
0.0026189098 0.018492585 0.010864792 -0.006842369 0.0017182997 -0.022406997 0.014206619 0.016299808
0.019786473 -0.018673716 -0.018201835 0.04284112 0.0049516065 -0.02798378 -0.00029748672 0.010857218
-0.0058476934 0.045734465 0.05886353 8.5918175e-05 -0.03138475 -0.021879248 0.018376583 -0.027529987
00000000: 5ac3 803c abab e2bb dd9f 80bc 1928 053c
00000010: f790 7b3c ca6c 653b 2395 6fbc 0748 1e3d
00000020: 5bc6 d9bc fa58 af3c a957 f2bc 8e71 1f3d
00000030: e3c3 c83c e8a1 063d 9897 df3b 024f 92bc
00000040: d02d 593d 89b0 e83c f5fe 31bd 3497 c93c
00000050: 6de0 e3bb a3cb 9ebc b717 223b 307b cdbc
00000060: 2c9a d03b 34d2 0cbc f51a 8e3d 819d 203d
00000070: 82ef eb3b 13d9 bcbc 6c23 87ba c4cc 243d
00000080: 262b 05bb 159a 37bc d6c9 85bc d551 ab3c
00000090: 8c5b d53a 8c5a fcbc 7471 173c a7b6 9a3c
000000a0: 95fe 35bb b011 373c d858 08bd c95d 003c
000000b0: 6e62 e03c b7f4 52bc c966 f73c 729d 983c
000000c0: 9e96 043d d5a0 cc3b a732 523d dab0 1b3c
000000d0: 0abb bf3b 3b98 8a3d 0c22 abbc 7bc3 603c
000000e0: 7d11 fab8 e207 8e3c d5b1 d4bc 5a82 e13c
000000f0: c8d8 8fbc d634 d0bb 0570 44bc 7257 97bb
00000100: 2008 1f3b deac f23b 6c10 98bc 7b12 f4bc
00000110: 6f4e 7bbc ac57 8fbc 4911 b5bc 8afe d63c
00000120: e017 e33b 7539 2abc 2aa3 84bc 7970 86bc
00000130: 411d 703d 1588 413c 632d fe3c 66de afbc
00000140: e66e 4dbc 2124 113d 4eab e739 ebb8 f93b
00000150: 2ad0 6a3c 49d1 d53a db75 223c 79dd be3c
00000160: 9742 46bc 3fe3 063d 2f0d 8d3c e00e 943c
00000170: fd6a 903c 3560 f93b 19e1 a33b c28b 96bd
00000180: 1ea8 4ebd e417 83bd f3fa c8bc 83ec d1bc
00000190: 7988 b93c ef5e b3bc 1faf 5abc e62d a0bb
000001a0: 3378 eebb 2ad2 5ebd f9ae 413d f115 4abd
000001b0: e151 133b 9530 eebc 5dbf 943c a938 17bc
000001c0: e661 8b3c dbe3 c13c 0495 173c b449 89bb
000001d0: 39de ddbb 3bb8 4d3a 56bb 1aba 5c86 5abd
000001e0: 64ef 0e3d 6244 8abb 22f2 bdbc e624 603e
000001f0: d138 b93c d5a9 0bbc 7588 28bc 8374 61bc
00000200: fab3 eabb 80a5 44bc bcfb 823d bcd5 d6bc
00000210: 2641 e5bc fbde 053c fd7a 60bc 8fca 28bb
00000220: 70f5 8bbb 039d 9ebc 622b 5fbd 3428 cebc
00000230: eb77 b83c ea45 25bd e7c5 d13c df98 303b
00000240: 083a 99ba bc24 e6bc 860b 383c 987b 4bbc
00000250: 7ae9 803d fda4 7b3c 6334 e83b 4e0c 063c
00000260: 9aa7 d23c 2bb2 c1bb 4fc8 55ba 3b79 78bc
00000270: 8144 11bd 7540 3b3b 0372 993b fe7e 343d
00000280: 59af 013c 3a87 1cbb 5a38 8fbc 4ac4 52bd
00000290: 80a5 543b b45b a0bb 299f 463c 5d03 5e3d
000002a0: b3e8 6b3a 3390 8cbc ef07 343c ad17 16bc
000002b0: 9e3b 0bbc 7cf7 673c f470 953a 2c1e f1bb
000002c0: e343 b6ba d88e 6dbd 6fb3 153d 4b47 6f3c
000002d0: 6bac 543e d0fd edbc c960 13bd 0774 64bd
000002e0: a192 b6bb c948 9cbd 3bd9 acbb 8003 a53b
000002f0: 929e a6bc 8d0a 37bd 9732 033d 8694 eabb
00000300: 820e 71bc b45c 8e3b bff7 82ba 72f1 123d
00000310: 48d6 4f3c f954 a13b 865b 063a 6be7 63bc
00000320: 9dc9 f53c cc3c f63b 770a 033b df29 64bb
00000330: ed08 78bc 049b ad3c afc3 c9bc f71d 0a3d
00000340: 5dc3 91bc 7767 083d 60be c63c 5693 ff3c
00000350: 3e93 a33c 793e 143c 0367 4e3d c029 2ebd
00000360: 8ab3 513c cb67 39bd 3187 eabc e1db d03c
00000370: f9ce 02bc 3d16 b0bb 2e7a b4bc bea4 523d
00000380: 2ccd e13c 89ff 823c 8e3f ceba 0a17 833c
00000390: 1905 0abc df66 a23c 1cb4 243d be0b 1c3c
000003a0: 04a2 2b3b c37d 973c 3e02 323c f435 e0bb
000003b0: 9238 e13a e18e b7bc e1c2 683c 2d87 853c
000003c0: 3e17 a23c 9ff9 98bc 041c 95bc 2c7a 2f3d
000003d0: 1641 a23b 3d3e e5bc fef7 9bb9 79e2 313c
000003e0: 029e bfbb 1054 3b3d e31a 713d f82e b438
000003f0: 4c8d 00bd 1c3c b3bc 7d8a 963c 9186 e1bc

actor.6.bias f4 [10]
-0.08774372 -0.11257658 -0.2525863 -0.341559 -0.16826697 0.021040775 0.16308983 -0.14837728
-0.033425134 -0.068702206
00000000: fbb2 b3bd 8d8e e6bd fe52 81be d2e0 aebe
00000010: 2d4e 2cbe b45d ac3c 0501 273e 37f0 17be
00000020: cbe8 08bd beb3 8cbd
