example_model/exported/policy.onnx (onnx, 805685 bytes, 8 tensors)

actor.0.weight f4 [512, 66]
0	0x3d5cfcdf	0.053952094
1	0x3c8736d4	0.016505636
2	0xbe0c45ed	-0.1369855
3	0x3f1b435f	0.60649675
4	0x3ea48483	0.32132348
5	0x3dd24095	0.10266224
6	0xbf12380d	-0.57116777
7	0xbe0c73b4	-0.13716012
8	0xbf1cb377	-0.6121134
9	0x3ccd5866	0.025066566
10	0xbe36160f	-0.17781852
11	0xbd1ecc14	-0.038768843
12	0x3debd3b7	0.11514991
13	0xbe741e6a	-0.23839727
14	0x3e7de19b	0.24793093
15	0xbef8b60b	-0.48576388
16	0xbc71f770	-0.014768466
17	0xbb9f7c48	-0.0048671104
18	0x3d14b114	0.036301687
19	0x3d3b4bf7	0.045726743
20	0x3e20fc02	0.15721133
21	0x3d8dd1f8	0.06924814
22	0x3d00321d	0.03129779
23	0xbe480df6	-0.19536576
24	0x3e551ca1	0.20811702
25	0x3dbb08c6	0.09132533
26	0xb9b2dc0f	-0.00034114762
27	0xbbecb520	-0.00722374
28	0x3ce49468	0.027902797
29	0x3b9eeaf4	0.004849786
30	0xbc5c0a4b	-0.013430188
31	0xbd0ce80c	-0.034400985
32	0x3dc8317c	0.097750634
33	0xbcfe973b	-0.031077972
34	0xbd3fce72	-0.04682774
35	0xbcd00f43	-0.025397902
36	0x3c08a503	0.008340123
37	0x3cf90122	0.030396048
38	0x3d805796	0.06266706
39	0x3d204162	0.039124854
40	0x3c2861ff	0.01027727
41	0xbda2a0c7	-0.07940822
42	0xbc02a876	-0.0079747345
43	0xbd566a16	-0.052347265
44	0xbd274f7b	-0.040847283
45	0x3d4a8910	0.04944712
46	0xbb4b2ed1	-0.0031003247
47	0xbbd97204	-0.006635906
48	0x3dc8dc01	0.098075874
49	0x3cafc604	0.021456726
50	0x3bee780e	0.007277495
51	0x3d62dd9e	0.055387132
52	0xbdbc1689	-0.09183986
53	0xbd31f3e9	-0.0434455
54	0xbd28783a	-0.041130282
55	0x3da9437a	0.08264823
56	0x3d971ffa	0.07379146
57	0xbda727fc	-0.08161923
58	0x3db122b9	0.08649201
59	0x3e46d7d4	0.1941827
60	0x3e1efaa5	0.15525301
61	0x3e4802b7	0.19532286
62	0x3b9e77ca	0.0048360573
63	0xbd358b1b	-0.044322114
64	0x3dca4eef	0.09878337
65	0x3df83ffc	0.12121579
66	0x3de85978	0.1134519
67	0xbe323676	-0.17403588
68	0xbd8b7028	-0.068085015
69	0x3f4edb91	0.8080378
70	0x3ec51061	0.3848906
71	0xbd7d449d	-0.061833013
72	0x3f45f05d	0.7731989
73	0xbd805f0e	-0.0626813
74	0xbf0ef3ae	-0.55840576
75	0x3df10372	0.11768235
76	0xbe05fd30	-0.13084865
77	0x3c6f2e3b	0.014598425
78	0xbe2cae4a	-0.16863361
79	0xbdd71264	-0.105015546
80	0x3dc80d43	0.097681545
81	0xbe5d93f8	-0.21638477
82	0xbe66896a	-0.22513357
83	0x3de47d6e	0.11156736
84	0xbeab5044	-0.33459675
85	0xbdc08928	-0.094011605
86	0x3e913e3d	0.28367797
87	0x3d0a34e8	0.03374186
88	0xbe3aab85	-0.18229492
89	0x3e1177e7	0.14205895
90	0x3e3237fd	0.1740417
91	0x3b9dc3a9	0.0048145843
92	0x3c15ad20	0.0091355145
93	0x3cde4cc3	0.027136212
94	0x3e0a6adc	0.13517326
95	0xbda068d2	-0.07832493
96	0x3d51d93f	0.051232573
97	0x3d01713d	0.031602133
98	0x3d35d96c	0.044396803
99	0xbca17610	-0.019709617
100	0xbaf9beac	-0.0019054017
101	0xbd924eee	-0.07143961
102	0x3d80ed28	0.06295234
103	0xbca51a70	-0.020154208
104	0x3cb806ca	0.022464175
105	0xbc9c3a7c	-0.019070856
106	0xbd881a82	-0.06645681
107	0xbd2ea1c2	-0.042634733
108	0x3d44458d	0.04791789
109	0x3cebdacd	0.028790856
110	0x3d88d38d	0.06680975
111	0x3b5f4eac	0.0034073992
112	0xbda4e9c5	-0.080524005
113	0xbcb25357	-0.021768255
114	0xbc85e338	-0.016343698
115	0xbd5ecfba	-0.054397322
116	0xbdb964a0	-0.09052396
117	0x3d5bb8e7	0.053643133
118	0xbd9d85d0	-0.07691538
119	0x3d525fa6	0.05136075
120	0xbd9b575f	-0.07585024
121	0x3decf336	0.11569826
122	0x3ca1c6a0	0.019748032
123	0xbe119de7	-0.14220391
124	0xbd8c86b3	-0.06861629
125	0xbddd3186	-0.108004615
126	0xbd50ce5f	-0.05097806
127	0xbdb8e5de	-0.09028219
128	0x3e0de639	0.13857354
129	0xbaa3a827	-0.0012486026
130	0xbde67680	-0.11253071
131	0xbaadfd51	-0.0013274347
132	0xbd31c3e1	-0.043399695
133	0x3e05f363	0.13081126
134	0xbe48115e	-0.19537875
135	0xbf36e69f	-0.7144565
136	0x3eaba94b	0.33527598
137	0x3d815c72	0.06316461
138	0xbf69bd6a	-0.9130465
139	0xbdab7303	-0.08371546
140	0x3e53f018	0.20697057
141	0xbd81b649	-0.06333596
142	0x3e1d56b2	0.15365103
143	0x3d78a8fb	0.060708027
144	0xbd64ddfa	-0.055875756
145	0xbbaefc0f	-0.0053401063
146	0x3e37ebbe	0.17961022
147	0xbe51bc7a	-0.20482054
148	0x3c8fbaee	0.01754519
149	0x3d9b1c04	0.07573703
150	0xbd433d9c	-0.047666177
151	0x3e83a2fa	0.2571028
152	0x3d80c094	0.06286731
153	0xbe7f5a6e	-0.2493684
154	0x3e68d3bd	0.22737022
155	0x3cf5430c	0.029939197
156	0x3d246cc0	0.040142775
157	0x3d6ca6a4	0.05777611
158	0x3e152512	0.14564922
159	0x3d704ffd	0.058670033
160	0x3ca7fd80	0.02050662
161	0xbd8b3c9c	-0.0679867
162	0x3cd245f2	0.025668118
163	0xbc96ff5b	-0.01843231
164	0xbd3ef070	-0.046616018
165	0xbc39623a	-0.011314923
166	0x3ce674b0	0.028131813
167	0x3dc4df85	0.096129455
168	0x3c607f52	0.0137022305
169	0x3cd98c15	0.026556054
170	0xbd8d1441	-0.06888629
171	0x3d717b83	0.05895568
172	0x3d241921	0.040063027
173	0xbe044942	-0.1291857
174	0x3e166393	0.14686422
175	0x3cbb36e7	0.022853328
176	0xbdec47bd	-0.115371205
177	0xbd10b7d5	-0.035331566
178	0xbd1ccc65	-0.038280863
179	0xbd8a9457	-0.06766575
180	0xbc4c9ddc	-0.0124888085
181	0x3d5c49aa	0.05378119
182	0x3d0aaa36	0.033853732
183	0xbdb44b52	-0.08803429
184	0xbdfe181c	-0.12406942
185	0xbe102560	-0.14076757
186	0x3dcf2c69	0.101158924
187	0x3de3a0e5	0.111146726
188	0xbe1d628e	-0.15369627
189	0xbe213c21	-0.15745594
190	0xbd8faf3a	-0.07015844
191	0xbd58404f	-0.052795704
192	0x3db7496a	0.089495495
193	0xbdca13c9	-0.09867055
194	0x3dbd94f9	0.0925693
195	0xbcbc6492	-0.022997174
196	0x3cb2eba7	0.021840883
197	0x3d1ee88e	0.038796
198	0x3e0d9f6a	0.13830343
199	0xbdf0bddb	-0.11754962
200	0xbd367308	-0.044543296
201	0xbf6e8133	-0.9316589
202	0x3f526001	0.8217774
203	0x3d6b8d54	0.057507828
204	0xbe8ec0df	-0.27881524
205	0x3bb4c0d3	0.0055161505
206	0x3eca058b	0.39457354
207	0x3dc143cf	0.094367616
208	0xbf026c65	-0.50946647
209	0x3e1c5b02	0.15269092
210	0x3e7cad35	0.24675448
211	0xbc2e0ab2	-0.010622667
212	0xbe825f03	-0.25463113
213	0x3de81aba	0.11333223
214	0x3d82160a	0.0635186
215	0xbe813817	-0.25238106
216	0x3d41a0a6	0.047272347
217	0xbd971402	-0.07376863
218	0xbea173de	-0.31533712
219	0x3d8225be	0.06354855
220	0x3db4b132	0.0882286
221	0xbdebb660	-0.11509395
222	0xbe73f0d0	-0.23822331
223	0x3c254d27	0.010089195
224	0xbc916bdf	-0.017751632
225	0x3d9b006e	0.07568441
226	0xbd9b7355	-0.07590357
227	0x3d45bf8b	0.048278373
228	0x3d0eb695	0.034842093
229	0x3dbbaff8	0.09164423
230	0x3d9695f7	0.07352822
231	0x3d0ad4ae	0.033894233
232	0xbce3a408	-0.027788177
233	0xbdc067de	-0.09394811
234	0x3c9aeadb	0.018910816
235	0xbcf9871b	-0.030459931
236	0x3c9ff11d	0.019524151
237	0xbc8cd0c6	-0.017189395
238	0x3d811fc2	0.063048854
239	0xbb05a877	-0.0020394602
240	0xbd895306	-0.067052886
241	0x3d0888d9	0.033333633
242	0x3c2c9921	0.010534556
243	0x3dc9bbc6	0.09850268
244	0x3bb18c5d	0.005418344
245	0x3bdeb0b6	0.006795968
246	0xbd10d8c7	-0.035362985
247	0x3d1707b7	0.03687259
248	0xbd39722b	-0.045274895
249	0x3d6791e9	0.056535635
250	0x3d2001ab	0.03906409
251	0x3c816699	0.015795993
252	0x3c45ec3b	0.0120802475
253	0x3d88c045	0.066772975
254	0x3b4895fd	0.0030606978
255	0x3db82969	0.08992273

actor.0.bias f4 [512]
0	0xbc49cab7	-0.012316397
1	0xbe0c8dc8	-0.1372596
2	0x3dcd8626	0.100353524
3	0xbe19a9a4	-0.15006119
4	0x3cfe9edc	0.03108161
5	0xbe044587	-0.12917148
6	0xbe028458	-0.12745798
7	0xbe308141	-0.17236806
8	0xbdd9fceb	-0.106439434
9	0xbd97a0b0	-0.074036956
10	0xbd935287	-0.07193475
11	0xbe0581d8	-0.13037813
12	0xbddb8770	-0.10719192
13	0xbd9b5da8	-0.07586223
14	0x3e1351bc	0.14386648
15	0xbd3d132d	-0.046160866
16	0xbd82c434	-0.06385079
17	0xbd0c7777	-0.034293618
18	0xbd090436	-0.03345128
19	0x3ddc2d6b	0.1075085
20	0x3de0fb87	0.10985475
21	0x3e0c5eed	0.13708086
22	0x3e125b1b	0.14292566
23	0xbd1a0a70	-0.03760761
24	0xbda07fcb	-0.078368746
25	0x3c820524	0.015871592
26	0xbe36836e	-0.17823574
27	0xbd2a11ae	-0.041520767
28	0xbde964c4	-0.11396173
29	0x3de8138b	0.113318525
30	0x3da0bb46	0.078482196
31	0x3ce83b37	0.028348548
32	0xbdf3020e	-0.11865626
33	0x3caf6e23	0.021414822
34	0xbe259a66	-0.1617218
35	0xbd4ddb02	-0.05025769
36	0xbdd68725	-0.104749955
37	0xbe1081fc	-0.14112085
38	0xbd8aad86	-0.06771378
39	0xbde39af2	-0.11113538
40	0xbe304c13	-0.1721652
41	0xbd60d391	-0.054889265
42	0xbb91b3fb	-0.004446504
43	0xbdf97923	-0.12181308
44	0x3d8953f4	0.06705466
45	0x3e07d5cb	0.1326515
46	0x3d9b2875	0.07576076
47	0x3d1167fd	0.03549956
48	0x3d8b22f9	0.0679378
49	0x3e33995b	0.17538969
50	0x3d8726d2	0.06599201
51	0xbe1b3557	-0.15157066
52	0x3dc7f7f8	0.09764093
53	0xbca08365	-0.019593904
54	0xbdb9c35e	-0.090704665
55	0xbdcc078f	-0.09962379
56	0xbdb17f54	-0.08666864
57	0xbdb5a22b	-0.08868822
58	0xbde4d728	-0.1117385
59	0xbe225927	-0.15854321
60	0xbd0b6e29	-0.034040604
61	0xbd955c37	-0.07292979
62	0x3dacb22a	0.084324196
63	0x3c2cc9a5	0.010546123
64	0x3dbade81	0.091244705
65	0x3e46758d	0.1938078
66	0x3dab0475	0.083504595
67	0x3a337446	0.0006845634
68	0xbddca8b9	-0.10774369
69	0xbbff4834	-0.0077905897
70	0xbc3493e1	-0.011021585
71	0xbc86a0ac	-0.016434036
72	0x3d75dd1b	0.060025316
73	0x3d6b2b94	0.057414606
74	0xbe1e6625	-0.15468653
75	0x3dc0cee1	0.09414459
76	0x3d8f1ffa	0.06988521
77	0x3cee3b7c	0.029081099
78	0xbe2a1a3d	-0.16611572
79	0x3dacb6e5	0.08433322
80	0xbde1f47d	-0.110329606
81	0xbd815b3c	-0.0631623
82	0x3d67f51f	0.05663025
83	0x3d9457e4	0.07243326
84	0x3e0feb55	0.14054616
85	0x3cdf8c8f	0.027288703
86	0xbd9bf38a	-0.07614811
87	0xbe3b4d29	-0.18291153
88	0xbda4fb27	-0.08055716
89	0xbe22f930	-0.1591537
90	0x3d70145d	0.05861317
91	0x3dbbe496	0.09174459
92	0x3dcbc305	0.099493064
93	0x3ddccc45	0.10781149
94	0x3d269b6c	0.040675566
95	0x3e2d69c5	0.16934879
96	0xbb89f9a4	-0.0042106677
97	0x3e088aa1	0.13334133
98	0x3e37bf8b	0.17944162
99	0x3d9880b1	0.07446421
100	0x3e1ff72b	0.15621631
101	0xbd9086db	-0.07056972
102	0x3c9b9680	0.018992662
103	0xbd8e939e	-0.069617495
104	0xbd9eb001	-0.07748414
105	0xbe185749	-0.14877047
106	0x3be1cf16	0.0068911416
107	0x3de24305	0.11047939
108	0xbd9f0b52	-0.07765831
109	0xbd64e880	-0.05588579
110	0xbd34626c	-0.044039175
111	0xbdd4325b	-0.10361167
112	0x3d3ff587	0.046865012
113	0x3dec7262	0.11545254
114	0xbd8a0bd7	-0.067405395
115	0x3df93f6a	0.121702984
116	0xbb2c2a00	-0.002627015
117	0x3d79fce8	0.061032206
118	0x3cd9e64a	0.026599068
119	0xbdd71d74	-0.105036646
120	0xbd8e20a5	-0.0693982
121	0xbd247105	-0.040146846
122	0x3d6c082f	0.057624992
123	0x3d56a6cc	0.052405164
124	0xbdac2e17	-0.084072284
125	0xbc9b37eb	-0.018947562
126	0xbe22bde7	-0.15892754
127	0x3defd9ca	0.11711462
128	0xbe31042d	-0.17286749
129	0xbc4dfff6	-0.012573233
130	0xbcd91079	-0.026497113
131	0xbdee7418	-0.11643237
132	0xbd51de51	-0.051237408
133	0x3d5f3aeb	0.054499548
134	0x3dddfba2	0.10839011
135	0x3e116160	0.14197302
136	0x3e0570be	0.13031289
137	0x3d8638e1	0.065538175
138	0x3e24b7f7	0.16085802
139	0x3dee756c	0.1164349
140	0xbd520e1c	-0.051282987
141	0x3dc7506e	0.097321376
142	0xbd83720f	-0.06418239
143	0xbd7f82fc	-0.062380776
144	0x3d09c710	0.033637106
145	0x3e230052	0.15918091
146	0x3d0bf993	0.03417356
147	0xbbf5f72a	-0.007506271
148	0xbe01a4a6	-0.12660465
149	0xbe429429	-0.19001831
150	0xbe1b4e60	-0.15166616
151	0x3e156daa	0.14592615
152	0x3de3b7fb	0.11119076
153	0xbd9e981a	-0.07743855
154	0xbd87f2fc	-0.066381425
155	0xbdb01924	-0.08598545
156	0xbd97202f	-0.073791854
157	0xbe2759cb	-0.16342847
158	0x3cda1708	0.02662231
159	0x3d17939c	0.037006006
160	0xbdd2611e	-0.1027243
161	0xbd73cc4b	-0.059521
162	0x3d746c7c	0.05967377
163	0xbd232975	-0.03983446
164	0xbdab1c7e	-0.08355044
165	0x3dbfc2ed	0.09363351
166	0x3ddd42b6	0.1080374
167	0xbe31c6b9	-0.17360963
168	0x3be9a0b5	0.0071297535
169	0x3dc0ee45	0.09420446
170	0x3b13ae22	0.0022534211
171	0xbd085498	-0.0332838
172	0xbcd1db86	-0.025617372
173	0xbdb3c643	-0.0877805
174	0xbda7e2b2	-0.081975356
175	0x3d959e06	0.07305531
176	0x3d657c08	0.05602649
177	0x3dc9577c	0.098311394
178	0x3c39303c	0.011303004
179	0xbd1524f3	-0.03641219
180	0x3da59b60	0.08086276
181	0xbe228476	-0.15870842
182	0xbdbbe3b2	-0.09174289
183	0x3e099513	0.13435774
184	0xbe122364	-0.14271313
185	0xbdbf5998	-0.093432605
186	0xbbbc7472	-0.005751186
187	0xbda327a1	-0.07966543
188	0xbcde7e76	-0.02715991
189	0x3c94ae2c	0.018149458
190	0xbc083544	-0.008313481
191	0xbdf1d007	-0.11807256
192	0x3db3fe01	0.08788682
193	0x3e099678	0.13436306
194	0xbd224f00	-0.03962612
195	0x3bfb54af	0.007670007
196	0xbd4890d5	-0.048966248
197	0x3df73328	0.12070304
198	0xbdc2f8d5	-0.09520117
199	0x3de09b6f	0.109671466
200	0xbd87cea5	-0.06631211
201	0x3d97fd9b	0.07421418
202	0xbdd23ac3	-0.10265114
203	0x3d749e5e	0.059721343
204	0x3da6a496	0.08136861
205	0x3d155153	0.03645451
206	0xbc01c1b7	-0.00791972
207	0xbe006c03	-0.12541203
208	0xbdb48f6c	-0.08816418
209	0x3d4d80a4	0.05017151
210	0x3d83770c	0.06419191
211	0xbdc907d8	-0.09815949
212	0xbe0f1739	-0.13973702
213	0x3d0f03e1	0.03491581
214	0xbbdb4cbe	-0.006692498
215	0xbe0c3e7d	-0.13695712
216	0xbdf694ad	-0.120400764
217	0xbdb2cad7	-0.08730095
218	0xbc4d0986	-0.012514478
219	0x3e631121	0.22174503
220	0xbe171c8a	-0.1475698
221	0x3d486f35	0.04893418
222	0x3c794267	0.015213585
223	0xbde08e10	-0.10964596
224	0x3ca1195a	0.019665409
225	0xbd98980b	-0.07450875
226	0x3d7f6a5b	0.062357288
227	0xbda53819	-0.080673404
228	0x3e06b985	0.13156708
229	0xbd15fb8a	-0.03661684
230	0xbe4670c7	-0.19378959
231	0xbdf962f4	-0.12177077
232	0x3d99ac3b	0.075035535
233	0xbd7b763b	-0.06139205
234	0x3cfcc423	0.030855244
235	0x3d893952	0.06700386
236	0xbd47a50a	-0.048741378
237	0x3deb3394	0.11484447
238	0xbdfa1f9b	-0.122130595
239	0x3d93e1f3	0.07220831
240	0xbc500a6f	-0.0126978
241	0xbc83bc28	-0.01608093
242	0x3d4699f6	0.048486672
243	0xbcf7ce60	-0.030249774
244	0xbdcf23fd	-0.10114286
245	0xbce9ac5f	-0.028524576
246	0xbcc369d7	-0.02385418
247	0x3d2b80a5	0.04187073
248	0xbd04f872	-0.0324635
249	0x3da1ef46	0.07906966
250	0xbe3840f4	-0.17993528
251	0xbdc9c019	-0.09851093
252	0x3e144a9f	0.1448159
253	0x3c8c4948	0.017124787
254	0xbcaa1729	-0.020762997
255	0xbd7b23e5	-0.06131353

actor.2.weight f4 [256, 512]
0	0x3d7d6223	0.06186117
1	0x3d11a8b5	0.035561282
2	0xbd3b3e8d	-0.04571395
3	0x3d41f978	0.047357053
4	0x3d5b84d1	0.05359346
5	0x3d8ad317	0.067785434
6	0x3d6e0ad5	0.0581158
7	0x3d3376a2	0.04381431
8	0x3c00e945	0.007868116
9	0x3c8c2f2c	0.017112337
10	0x3d880110	0.06640828
11	0x3d98fc47	0.07469993
12	0x3dbd0524	0.09229496
13	0x3d4c6328	0.04989925
14	0x3c448142	0.011993708
15	0x3b7dbcfb	0.0038717377
16	0xbd7347ab	-0.05939452
17	0xbc5e644f	-0.01357372
18	0x3d231463	0.039814364
19	0x3d0a37ed	0.03374474
20	0xbd768db9	-0.06019375
21	0xbaa5ce70	-0.0012650024
22	0x3ce6eca5	0.028189013
23	0x3d97987c	0.07402131
24	0x3cbb08ec	0.022831403
25	0xbda9a99a	-0.08284302
26	0xbd423a54	-0.047418907
27	0xbd888db4	-0.06667653
28	0xbc5b776f	-0.013395174
29	0xbd3119b7	-0.043237414
30	0xbd1ed386	-0.038775943
31	0xbdf9b3dc	-0.121925086
32	0xbad294d8	-0.0016066087
33	0xbc585ae5	-0.013205265
34	0x3d2c1f46	0.042022012
35	0x3dd23de0	0.10265708
36	0xbd1f57fe	-0.038902275
37	0x3c8328a5	0.016010592
38	0xbd83cadc	-0.06435177
39	0xbdb7f869	-0.08982927
40	0x3cdd338e	0.027002122
41	0xbd476b8f	-0.04868656
42	0x3ddc3bab	0.10753568
43	0x3be0ab32	0.0068563456
44	0xbc5d2af2	-0.0134990085
45	0xbcbd030e	-0.023072746
46	0xbb8939a2	-0.0041877786
47	0x3c4c607d	0.0124741765
48	0xbcdeff59	-0.027221369
49	0xbd506ac4	-0.05088307
50	0xbdfd8d18	-0.12380427
51	0xbc1846de	-0.00929424
52	0xbd1639e8	-0.036676317
53	0x3da0ec64	0.07857588
54	0xbd63c465	-0.05560722
55	0xbdbb137c	-0.09134576
56	0x3d3a3c7d	0.045467842
57	0x3c75b040	0.014995635
58	0x3d7ccbdd	0.061717857
59	0x3d1bb76a	0.038016714
60	0x3d94dc93	0.07268634
61	0x3daa231a	0.08307476
62	0x3dec9a56	0.11552875
63	0xbc2f80b0	-0.010711834
64	0xbd3d401f	-0.04620373
65	0xbc4a3ebf	-0.012344061
66	0x3c943687	0.018092407
67	0x3cd8ddf6	0.026473027
68	0x3db2676a	0.08711131
69	0x3cf3cd91	0.029761108
70	0x3dae6747	0.08515792
71	0xbc90f35c	-0.017694168
72	0x3d689f80	0.056792736
73	0x3c9a18ad	0.018810594
74	0x3d74eda9	0.059796963
75	0xbc8ed77c	-0.017436735
76	0xbc4d3464	-0.012524698
77	0x3ca2f7d0	0.019893557
78	0xbcd541c4	-0.026032336
79	0xbd2dad41	-0.042401556
80	0xbdfdcba6	-0.123923585
81	0x3d752ade	0.059855334
82	0x3be2b9b6	0.006919111
83	0x3d3ae65b	0.04562984
84	0xbc22deaf	-0.009940787
85	0x3c976b4b	0.018483778
86	0xbd2d0fbf	-0.042251345
87	0x3c70007f	0.014648556
88	0x3c8163d4	0.015794672
89	0xbcb0c4fe	-0.021578308
90	0xbd5373a4	-0.051623955
91	0x3c4180d4	0.0118105
92	0xbd143de5	-0.03619184
93	0xbddea05f	-0.10870432
94	0x3d0a3049	0.033737455
95	0x3c97898a	0.0184982
96	0xbd752d79	-0.05985782
97	0xbd64fa64	-0.055902854
98	0x3cc3d977	0.023907406
99	0xbd663a43	-0.056207906
100	0xbd83e12f	-0.06439435
101	0xbcc162ba	-0.023606647
102	0xbcc9e634	-0.024645902
103	0x3c9c5756	0.019084614
104	0xbcbe6977	-0.023243649
105	0xbcbe8565	-0.023256967
106	0x3d2a52fe	0.041583054
107	0xbd7897d8	-0.060691684
108	0xbd81026a	-0.062992886
109	0x3e02486e	0.12722942
110	0x3cca7d1a	0.024717856
111	0xbd2eae3b	-0.042646628
112	0x3d308d7f	0.04310369
113	0xbdacc568	-0.0843609
114	0x3d9389ff	0.07204055
115	0x3d0b8eb8	0.034071654
116	0x3cd82cbf	0.026388524
117	0xbd5dcd8e	-0.05415111
118	0x3b99773c	0.0046834033
119	0x3d83ff37	0.06445163
120	0x3d23b148	0.03996399
121	0x3de1b9b3	0.110217474
122	0xbad468a3	-0.00162055
123	0xbd31581f	-0.04329693
124	0x3d478cc0	0.048718214
125	0xbbe79479	-0.00706726
126	0x3cc5c9f1	0.024144145
127	0xbc49932b	-0.012303154
128	0xbcdb3d6f	-0.026762692
129	0x3b8f3288	0.0043700375
130	0xbd960ff7	-0.07327264
131	0xbc136baf	-0.008997842
132	0x3c4226b6	0.01185005
133	0x3b64ed3b	0.003493144
134	0xbc984c0d	-0.018590951
135	0xbd212f72	-0.039351888
136	0xbd8638bb	-0.06553789
137	0x3b11640b	0.0022184874
138	0xbd9422eb	-0.072332226
139	0xbc52709d	-0.012844232
140	0x3d9444f9	0.07239718
141	0xbc61f4dc	-0.013791289
142	0x3c04a18a	0.008095155
143	0xbd881e38	-0.06646389
144	0xbdb8d4fa	-0.09024997
145	0xbc6bf2f3	-0.014401185
146	0xbc69eac7	-0.014277167
147	0x3d1c0688	0.038092166
148	0xbd39e763	-0.045386683
149	0xbd1d1aa7	-0.038355496
150	0xbca9124e	-0.020638611
151	0x3d0814d0	0.033222973
152	0x3d1bc414	0.03802879
153	0x3d1e877f	0.038703438
154	0xbd232af5	-0.03983589
155	0xbae113ce	-0.001717204
156	0x3dd5233c	0.10407111
157	0xbd3a70df	-0.0455178
158	0xbdb5c5c2	-0.0887561
159	0xbd9c65e5	-0.07636622
160	0x3c9d4bce	0.019201186
161	0xbd810989	-0.06300647
162	0xbce50cd0	-0.027960211
163	0xbd31fd80	-0.043454647
164	0xbd9feeb9	-0.078092046
165	0xbd9690bc	-0.07351825
166	0x3d3aca1e	0.04560291
167	0xbbac6ee4	-0.0052622426
168	0x3c8d635f	0.017259298
169	0x3d643b82	0.055720814
170	0xbd82f9d3	-0.063953064
171	0xbd7c917f	-0.061662193
172	0x3c9dc62b	0.019259533
173	0xbc925632	-0.017863367
174	0xbd818d7c	-0.06325814
175	0x3def0db0	0.116725326
176	0xbc83e640	-0.016101003
177	0xbc0c7dc1	-0.008574904
178	0xbcf485fa	-0.029849041
179	0xbc7c014a	-0.015381167
180	0x3c21cef4	0.009876002
181	0x3cce2334	0.02516327
182	0xbda08ad8	-0.07838982
183	0xbd0c4a6c	-0.03425066
184	0x3d7ab0ad	0.061203647
185	0x3ddd0085	0.10791115
186	0xbca2548d	-0.019815708
187	0xbc6c5e85	-0.014426832
188	0xbd08d562	-0.033406623
189	0x3d4b855b	0.049687725
190	0xbcae1c55	-0.021253744
191	0xbe084bae	-0.1331012
192	0xbd8b0227	-0.0678752
193	0xbd04e51a	-0.03244505
194	0x3c7605b0	0.015016004
195	0xbd7d3f44	-0.061827913
196	0xbdb45773	-0.08805742
197	0xbca1ce54	-0.019751705
198	0x3d13316a	0.035935797
199	0xbd82d5ec	-0.063884586
200	0xbaa8089d	-0.001281995
201	0x3ab0b59a	0.0013481856
202	0xbca925d0	-0.020647913
203	0xbd3ee0ef	-0.046601232
204	0xbdc5b2e5	-0.09653262
205	0x3da629ea	0.08113463
206	0x3d6ec047	0.05828884
207	0x3d7a378f	0.06108814
208	0xbd1c9036	-0.038223468
209	0xbc91944a	-0.017770905
210	0xbc18d41d	-0.0093279155
211	0xbd1a6809	-0.037696872
212	0x3d953ef1	0.07287396
213	0x3c98e1bb	0.018662324
214	0xbd814d9a	-0.063136294
215	0xbc4c7512	-0.012479084
216	0x3d3d8c2b	0.046276253
217	0xbc867598	-0.016413495
218	0xbd42df53	-0.04757626
219	0x3bb0c221	0.0053942357
220	0x3c34d02d	0.011035961
221	0xbcfd5d9b	-0.030928424
222	0x3cb831e2	0.022484723
223	0x3c05a481	0.008156897
224	0xbd9355ca	-0.07194097
225	0x3c6b1c5e	0.014350025
226	0x3cb0b947	0.021572722
227	0x3ce023b2	0.02736077
228	0x3d5a500b	0.05329899
229	0xbc02e4a5	-0.007989083
230	0x3d79c0a5	0.060974736
231	0x3da81dd5	0.08208815
232	0xbd859c3b	-0.06523939
233	0xbc97bff6	-0.018524151
234	0xbccc1bb7	-0.02491556
235	0xbd14b872	-0.036308713
236	0xbd2eff3c	-0.04272388
237	0xbe122503	-0.14271931
238	0x3c8e4edd	0.01737159
239	0x3d22e086	0.039764903
240	0xbcc1765d	-0.02361601
241	0x3d0c1276	0.034197293
242	0xbca86cd9	-0.020559715
243	0xbd929216	-0.0715677
244	0xbcf37482	-0.029718641
245	0x3d2bbe7a	0.0419297
246	0xbc9d6f99	-0.019218253
247	0xbce1deba	-0.027572025
248	0x3b9ec247	0.004844937
249	0x3d4765ca	0.048681058
250	0x3d21d575	0.03951021
251	0xbd4243a3	-0.047427785
252	0xbd593956	-0.053033195
253	0xbd0d7155	-0.03453191
254	0x3d3f80ad	0.046753574
255	0x3c60859f	0.013703733

actor.2.bias f4 [256]
0	0xbd615a3d	-0.0550177
1	0xbaf85101	-0.001894504
2	0xbe0479f4	-0.12937146
3	0xbd88e4bb	-0.06684252
4	0x3cdc7673	0.02691195
5	0xbd0c0a9e	-0.034189813
6	0x3c0daae0	0.008646697
7	0x3c16d942	0.009207072
8	0x3c8a6884	0.01689554
9	0xbd3cfdd4	-0.046140507
10	0xbc75e402	-0.015007975
11	0xbb6aee67	-0.0035847665
12	0xbddb9405	-0.10721592
13	0xbc92abe4	-0.01790423
14	0xbd711a86	-0.058863185
15	0xbd7f73d0	-0.062366307
16	0xbdbe9724	-0.093061715
17	0xbde9d899	-0.11418266
18	0x3c96a17e	0.018387552
19	0x3d4c5200	0.04988289
20	0xbd215dec	-0.03939621
21	0xbda67f94	-0.08129802
22	0xbbaba473	-0.0052381097
23	0xbdaa1166	-0.083041
24	0xbdb09eca	-0.086240366
25	0xbda728a7	-0.08162051
26	0xbdc1ee04	-0.09469226
27	0xbd54dc28	-0.05196777
28	0xbdab0ac1	-0.083516605
29	0xbd3f45af	-0.046697315
30	0xbcc58861	-0.024112882
31	0x3d35682a	0.04428879
32	0xbd960226	-0.073246285
33	0x3d83a4f6	0.06427948
34	0xbdc9e6d6	-0.098584816
35	0x39dcc47f	0.0004210807
36	0xbcd80eea	-0.0263743
37	0xbd39384d	-0.04521971
38	0xbc761c57	-0.015021405
39	0xbd9dc793	-0.077040814
40	0xbc8591dd	-0.016304905
41	0x3c59f2d1	0.013302521
42	0x3ca30359	0.019899057
43	0xbd44a6de	-0.0480107
44	0xbe13f885	-0.14450271
45	0x3d913265	0.0708969
46	0xbd30ed3e	-0.043195
47	0x3dd97ba9	0.106192894
48	0xbd0a81bd	-0.033815134
49	0x3b8f0b28	0.0043653436
50	0xbdc8815d	-0.09790299
51	0xbd68463b	-0.056707602
52	0x3bc8f292	0.0061324323
53	0xbdf47d0b	-0.119379126
54	0x3d09c87b	0.03363846
55	0x3d4203ce	0.04736691
56	0xbbda6f09	-0.0066660685
57	0xbc83cbc2	-0.01608837
58	0x3d3dc14f	0.04632693
59	0xbdab30c1	-0.083589084
60	0xbd98777d	-0.074446656
61	0xbd875952	-0.066088334
62	0x3d83e1ee	0.06439577
63	0xbcebad5e	-0.028769191
64	0xbd1a75c3	-0.037709963
65	0xbb5cfc19	-0.0033719598
66	0xbd94c0d9	-0.07263345
67	0x3d4bf5eb	0.049795073
68	0xbe006a0e	-0.12540457
69	0xbca6d3f6	-0.020364743
70	0x3d118d24	0.035534993
71	0xbce74882	-0.028232817
72	0x3d162d60	0.036664367
73	0xbd5ff9d7	-0.054681625
74	0xbdb6a3e8	-0.089179814
75	0xbcd2d225	-0.02573497
76	0xbd34fa01	-0.044183735
77	0xbc0b9586	-0.008519536
78	0xbd97cc26	-0.07411985
79	0xbdf3d390	-0.11905587
80	0xbc9a120c	-0.018807434
81	0xbc95ca09	-0.018284814
82	0xbd816eb1	-0.06319941
83	0xbd909a07	-0.070606284
84	0x3cde5330	0.027139276
85	0xbdccb21c	-0.09994909
86	0xbd0635f9	-0.032766316
87	0xbdfe3805	-0.12413029
88	0xbd80bc0c	-0.06285867
89	0x3ccf9db7	0.025343759
90	0x3badb5e8	0.005301226
91	0x3bb0a635	0.005390907
92	0xbda4c450	-0.08045256
93	0xbc2118a2	-0.009832533
94	0x3cda5c77	0.026655419
95	0xbdb3cf48	-0.0877977
96	0xbdf45c9e	-0.11931728
97	0xbd3b8523	-0.045781266
98	0xbd500a17	-0.050790872
99	0xbd9c0142	-0.076174274
100	0xbcde2db6	-0.027121406
101	0xbde1bd33	-0.11022415
102	0x3c3f2b0e	0.01166798
103	0xbd039b78	-0.03213069
104	0xbdc57974	-0.09642306
105	0x3c718d5e	0.014743177
106	0xbc3e6a5d	-0.011622039
107	0xbd8b0d04	-0.06789592
108	0xbd0ebd56	-0.034848534
109	0xbcd9542d	-0.026529396
110	0xbd660d05	-0.05616476
111	0x3bfbab44	0.0076803286
112	0xbd9388de	-0.0720384
113	0x3dd15dfc	0.10223004
114	0x3b9b93a3	0.0047478243
115	0x3d35410a	0.04425148
116	0xbc8109aa	-0.015751678
117	0xbdca3aab	-0.09874471
118	0xbcda5d9c	-0.026655965
119	0xbc61bd52	-0.013778048
120	0x3c3a59c8	0.011373945
121	0xbce00bd4	-0.02734939
122	0xbdad9694	-0.08475986
123	0xbccd4398	-0.025056645
124	0x3c64a4d0	0.01395531
125	0xbcd96578	-0.026537642
126	0xbd8953cf	-0.06705438
127	0x3d1c3386	0.038135074
128	0xbd1512af	-0.03639477
129	0xbc9c7a6e	-0.019101348
130	0xbe0b541c	-0.13606304
131	0xbd51175f	-0.05104768
132	0xbd8578aa	-0.065171555
133	0x3b0355d1	0.0020040164
134	0x37b0c8dc	2.1074367e-05
135	0xbd290a3b	-0.041269522
136	0xbdb3d653	-0.087811135
137	0x3b8b9a34	0.004260326
138	0x3c832c40	0.016012311
139	0xbd0a5164	-0.033769026
140	0x3d2b4c83	0.041821014
141	0xbdaa66e8	-0.08320409
142	0x3b40d011	0.0029420892
143	0xbd7c8c90	-0.06165749
144	0x3bb3a7a6	0.0054826317
145	0x3cd5d74c	0.026103638
146	0xbdcda330	-0.10040891
147	0xbd13b509	-0.03606132
148	0x3ad03067	0.0015883566
149	0x3d01c87b	0.031685334
150	0xbe2b1ef6	-0.1671103
151	0xbcf917bc	-0.030406825
152	0xbc5cfa9c	-0.013487484
153	0xbcbe5a13	-0.02323631
154	0xbe3bb1b5	-0.18329509
155	0x3d0dd631	0.034628097
156	0xbc8e2c9d	-0.017355258
157	0x3c2baa84	0.010477666
158	0x3d63bb5d	0.055598605
159	0xbd748713	-0.05969913
160	0xbd1d236e	-0.038363867
161	0xbc4d68c9	-0.01253719
162	0xbce241cd	-0.027619267
163	0x3c1da9ac	0.009622972
164	0xbd468cbd	-0.048474062
165	0x3c83ad6f	0.01607391
166	0xbd8971f7	-0.0671119
167	0xbdf5a154	-0.119936615
168	0xbcc98011	-0.0245972
169	0x3d9733f4	0.07382956
170	0xbdb67807	-0.08909612
171	0xbda8f4b5	-0.08249799
172	0xbd31e173	-0.043427896
173	0xbd2ccf4d	-0.042189885
174	0x3c331247	0.010929651
175	0xbcf3d1cb	-0.029763123
176	0xbe1c0772	-0.15237215
177	0x3d2a3ef6	0.04156395
178	0xbdb451ba	-0.088046506
179	0xbd5fc8b3	-0.05463476
180	0x3bf98fbf	0.007616013
181	0xbdcd88c5	-0.10035852
182	0xbd80cf19	-0.06289501
183	0xbdfd792d	-0.12376628
184	0xbc81b28c	-0.015832208
185	0x3d73ea7d	0.059549797
186	0x3cf189dc	0.029484682
187	0x3cd64a66	0.026158523
188	0xbd7d7c16	-0.061885916
189	0xbd50a307	-0.050936725
190	0xbdd54991	-0.10414422
191	0xbc5a9973	-0.013342249
192	0xbd8cec42	-0.06881
193	0x3c938e22	0.01801211
194	0x3d1ce778	0.038306683
195	0x3a9c6f26	0.001193498
196	0xbd1c0376	-0.038089238
197	0xbd7d3e4b	-0.061826985
198	0x3d1fc103	0.03900243
199	0x3d39060c	0.045171782
200	0x3d9a7e00	0.07543564
201	0xbe1867e7	-0.14883386
202	0x3df34a4a	0.11879404
203	0xbc4940ce	-0.012283517
204	0xbc2dc42c	-0.010605853
205	0xbc657e8e	-0.014007224
206	0x3cd079b7	0.025448663
207	0x3d51090d	0.051034022
208	0x3d2ca1d2	0.04214651
209	0xbcb3fea3	-0.021972006
210	0xbdcdc2e8	-0.10046941
211	0xbd1b739d	-0.037952054
212	0xbd3c945a	-0.046039917
213	0xbc6153cf	-0.013752892
214	0xbd410ee5	-0.047133345
215	0x3cde419e	0.027130898
216	0x3d6073e4	0.054798022
217	0x3d247409	0.040149722
218	0x3d1e5c3b	0.038662177
219	0xbcda7289	-0.026665943
220	0xbd3af4c4	-0.045643583
221	0x3bd6ce57	0.0065553593
222	0xbd92daa5	-0.071706094
223	0x3d180b57	0.03712019
224	0xbd56862d	-0.052374054
225	0xbd4a1742	-0.049338587
226	0xbd0de9e7	-0.034646895
227	0xbbde7cb6	-0.006789769
228	0x3ce82570	0.028338164
229	0xbda83730	-0.08213651
230	0xbd6c839f	-0.05774271
231	0x3cb7700f	0.0223923
232	0x3c6aac80	0.014323354
233	0x3d0760a0	0.033051133
234	0xbc0300a9	-0.007995763
235	0x3bdcd431	0.0067391624
236	0x3cf9fc94	0.030515946
237	0x3ca8af72	0.020591471
238	0xbd23f514	-0.040028647
239	0xbd0ba605	-0.034093875
240	0x3cae4acd	0.021275902
241	0x3d298db7	0.041394915
242	0xbddbfa6d	-0.10741124
243	0xbcc5014d	-0.024048472
244	0xbd926027	-0.07147246
245	0xbd7efc42	-0.06225229
246	0xbda9a21d	-0.08282874
247	0xbc88c229	-0.016694145
248	0xbd877009	-0.06613166
249	0xbd260f80	-0.040542126
250	0x39a1b361	0.0003084196
251	0xbcf3c818	-0.029758498
252	0x3cb54c34	0.022131063
253	0x3bbcc2bf	0.00576052
254	0xbc7b074e	-0.015321566
255	0xbdbd614b	-0.09247073

actor.4.weight f4 [128, 256]
0	0x3d826c07	0.06368261
1	0x3d20f7c6	0.039298795
2	0x3d276112	0.040864058
3	0xbd8b5135	-0.068025984
4	0xba0c4419	-0.00053507235
5	0x3b4430da	0.0029936344
6	0x3d12f1c0	0.035875082
7	0x3c7d2411	0.015450493
8	0x3c7d9595	0.015477558
9	0x3ca71402	0.020395283
10	0x3cc94b85	0.024572143
11	0x3d65cfbf	0.056106325
12	0x3d051ec7	0.032500055
13	0xbd3a530a	-0.04548935
14	0xbd343834	-0.043998912
15	0x3d89efcf	0.06735193
16	0x3dd00933	0.101580046
17	0xbd2b6dd4	-0.041852787
18	0x3d9adc26	0.07561521
19	0xbd580ab9	-0.0527446
20	0x3c590b5d	0.013247338
21	0x3cebbec4	0.028777488
22	0xbcd9fa79	-0.026608692
23	0xbca11767	-0.01966448
24	0x3c4fa188	0.012672789
25	0xbb261cae	-0.0025346684
26	0x3d90ee90	0.07076752
27	0xbd0430ed	-0.03227322
28	0x3da28a03	0.0793648
29	0xbbbf9dbd	-0.0058476613
30	0xbbc18591	-0.005905815
31	0xbc6833dd	-0.014172521
32	0x3d61cc6e	0.0551266
33	0xbb599082	-0.0033197706
34	0x3dbdb5af	0.09263169
35	0x3bd528fc	0.00650513
36	0x3d515f7e	0.05111646
37	0xbb261fa5	-0.0025348451
38	0x3d6c9e01	0.05776787
39	0x3d809d42	0.062799945
40	0xbb75ebfa	-0.0037524686
41	0x3a8a1006	0.001053334
42	0xbca36d98	-0.01994972
43	0xbce729b0	-0.02821812
44	0x3da0b78e	0.0784751
45	0xbd555e8c	-0.05209212
46	0x3bcf8d86	0.0063340096
47	0xbdd730ba	-0.10507341
48	0xbd6789ae	-0.056527786
49	0x3dbc9cf8	0.09209627
50	0x3dae6c63	0.08516767
51	0x3d7dc380	0.06195402
52	0x3d5555dd	0.05208384
53	0x3d50f950	0.051019013
54	0xbcf7b0d1	-0.03023568
55	0x3bf3d2d6	0.007440905
56	0x3d8cb269	0.068699665
57	0x3da70604	0.08155444
58	0x3d496bb9	0.049174998
59	0x3d8a4bca	0.06752737
60	0x3ce24c27	0.027624203
61	0xbd4ae364	-0.049533263
62	0x3bcd11ed	0.0062582404
63	0x3d745308	0.059649497
64	0xbce10ef1	-0.027472945
65	0xbcc507b3	-0.024051523
66	0x3dd01e39	0.101620145
67	0xbd856b72	-0.06514634
68	0xbbba54d0	-0.00568638
69	0xbda4a4bd	-0.08039234
70	0x3bda55ca	0.006663059
71	0xbcf06345	-0.02934421
72	0xbd38fc78	-0.045162648
73	0xbd07bf06	-0.03314116
74	0x3d4249a7	0.04743352
75	0xbcea3dd5	-0.028593937
76	0xbdca75f6	-0.098857805
77	0xbd26e21f	-0.04074299
78	0x3cd780e0	0.02630657
79	0x3d49a1cd	0.04922657
80	0x3dc7313b	0.09726187
81	0xbd84b2a4	-0.064793855
82	0x3d40958c	0.04701762
83	0xbcaf3cdd	-0.021391327
84	0xbd9503f3	-0.07276144
85	0x3d84950c	0.06473741
86	0xbd296395	-0.041354734
87	0xbd525222	-0.05134786
88	0xbbc92795	-0.0061387517
89	0x3d899603	0.067180656
90	0xbc91ce44	-0.01779855
91	0x3c972ae7	0.018453075
92	0xbca7cfd4	-0.020484842
93	0x3bb63c95	0.005561421
94	0xbcbd7c3e	-0.023130532
95	0x3dde48e1	0.10853744
96	0xbd015c49	-0.03158215
97	0x3dee294a	0.11628969
98	0x3d7c4ea9	0.061598454
99	0xbb2e9479	-0.002663879
100	0x3d97a4e5	0.07404498
101	0xbc115f85	-0.008872871
102	0x3d0b956b	0.034078043
103	0xbc8a80e2	-0.01690716
104	0x3c2474fc	0.010037657
105	0xbbf4a553	-0.0074659972
106	0xbc556b6b	-0.013026099
107	0x3d3ec1f8	0.0465717
108	0x3d3c4b08	0.045969993
109	0x3bf1904e	0.007371939
110	0x3cc71538	0.02430211
111	0xbd18a0f9	-0.03726289
112	0xbcb6f45b	-0.022333315
113	0x3d6aa559	0.057286594
114	0xbd4edb79	-0.050502274
115	0xbd64b1e5	-0.055833716
116	0x3d997e5f	0.074948065
117	0x3cb9160b	0.022593519
118	0xbd7d02f7	-0.061770406
119	0x3d14942b	0.036274116
120	0x3d8d7124	0.069063455
121	0x3dbff1e4	0.09372309
122	0x3dafddfe	0.085872635
123	0xbd390656	-0.045172058
124	0xbd6f70d9	-0.05845723
125	0x3d01dbba	0.03170369
126	0x3d94f4ea	0.07273276
127	0x3d7efa36	0.06225034
128	0x3d5daeee	0.054121904
129	0xbd2ae77b	-0.041724663
130	0x3d8e3a13	0.069446705
131	0xbc5c5fda	-0.013450587
132	0xbcb2043e	-0.021730538
133	0x3c850a6d	0.016240323
134	0xbcc6cd01	-0.024267675
135	0x3e12c915	0.14334519
136	0xbd905ce8	-0.070489705
137	0x3c27669a	0.010217333
138	0x3db23717	0.08701914
139	0x3d8fb733	0.07017364
140	0x3be78138	0.0070649646
141	0x3d6f1c89	0.058376823
142	0xbcdb138d	-0.026742721
143	0x3dece9e3	0.11568048
144	0xbd85a9a3	-0.06526496
145	0x3cfc865e	0.03082579
146	0x3dca2e33	0.09872093
147	0xbc8f2f5e	-0.017478641
148	0xbaf793fe	-0.001888871
149	0x3cc4ee3d	0.024039382
150	0x3df85e2d	0.121273376
151	0xbc6d5501	-0.014485599
152	0x3d7acded	0.061231542
153	0x3d5d1c68	0.05398217
154	0x3e026bd2	0.12736443
155	0x3d5b9c52	0.053615876
156	0x3ced0bb0	0.028936237
157	0xbc23e757	-0.010003886
158	0xbd0217cd	-0.03176098
159	0x3d242ece	0.0400837
160	0x3cf7dfb5	0.030258039
161	0x3de1a97b	0.11018654
162	0xbd936fcb	-0.07199057
163	0xbc0d042c	-0.008606952
164	0xbce3989b	-0.027782729
165	0x3bad8ec0	0.005296558
166	0x3dd99ab9	0.10625214
167	0x3d6ac544	0.057317033
168	0x3d1c6c15	0.038189013
169	0xbcbc38a1	-0.022976222
170	0x3cf3f6ce	0.029780772
171	0xbcb43058	-0.021995708
172	0x3d97d707	0.0741406
173	0xbd4a08a4	-0.049324647
174	0xbd2e092f	-0.042489227
175	0x3cd00cf6	0.025396805
176	0x3d9f0c86	0.077660605
177	0x3d3a6212	0.045503683
178	0x3d22edbc	0.039777502
179	0x3d51c1e6	0.051210307
180	0x3d4ef6e1	0.05052841
181	0x3d265ac3	0.0406139
182	0x3b8c9049	0.004289661
183	0x3d5415a8	0.051778466
184	0x3d48b2b1	0.04899854
185	0xbcb2e921	-0.02183968
186	0xbd9d766f	-0.07688605
187	0x3d826ae4	0.06368044
188	0xbc8d6fe2	-0.017265264
189	0xbd160e52	-0.03663475
190	0x3d1db066	0.038498305
191	0xbd39e426	-0.045383595
192	0x3d9622f4	0.073308855
193	0x3d582dde	0.052778117
194	0x3d87ef24	0.06637409
195	0x3c86d987	0.016461147
196	0x3cdc6d62	0.026907627
197	0x3d73b5cc	0.059499547
198	0xbcb6b5f7	-0.022303564
199	0xbc5d808b	-0.013519417
200	0xbca17915	-0.019711057
201	0x3d42ae19	0.047529314
202	0xbd13bfdc	-0.036071643
203	0x3c8bb457	0.017053766
204	0x3d8ea04b	0.06964167
205	0x3b3566cf	0.0027679687
206	0x3c023d81	0.007949234
207	0xbd97bbb5	-0.07408849
208	0xbb25a155	-0.0025273163
209	0x3d284ac9	0.041086946
210	0xbcc71807	-0.02430345
211	0x3cf3b1fa	0.029747952
212	0xbd86f42a	-0.06589539
213	0xbd5a9169	-0.05336133
214	0x3c81d943	0.015850669
215	0x3d032009	0.032012973
216	0xbd361ebb	-0.0444629
217	0x3c1205df	0.008912533
218	0xbd671421	-0.05641568
219	0x3caa01b7	0.02075277
220	0x3c25dd4b	0.010123561
221	0x3ccc769d	0.024958903
222	0x3cea0248	0.02856554
223	0x3da7dafb	0.08196064
224	0x3d52e331	0.051486198
225	0xbca03193	-0.019554889
226	0x3d430df9	0.047620747
227	0xbce7e21c	-0.02830606
228	0x3caa70d4	0.020805754
229	0x3c355cea	0.011069516
230	0xbd7d2ecd	-0.06181221
231	0xbba8bae4	-0.005149232
232	0xbc96ff6e	-0.018432345
233	0xbcba762a	-0.022761423
234	0x3b8f864f	0.0043800245
235	0x3d9010b7	0.07034438
236	0x3d415827	0.04720321
237	0x3cb81a25	0.022473404
238	0xbc344a81	-0.011004091
239	0x39b52b7f	0.00034555417
240	0x3c392dbf	0.011302411
241	0xbcd1aaf3	-0.02559421
242	0xbcbdb289	-0.023156421
243	0x3d723666	0.05913391
244	0x3cb468fe	0.02202272
245	0x3c8c72f3	0.017144656
246	0xbcc47fa4	-0.023986645
247	0xbc81d653	-0.015849268
248	0x3c96915e	0.018379863
249	0x3d3470ba	0.044052817
250	0x3cc5f680	0.024165392
251	0x3c10ae6d	0.008830649
252	0xbd24da0d	-0.040247012
253	0xbc5971e2	-0.013271781
254	0x3c14d0f2	0.00908302
255	0xbd9e98ed	-0.07744012

actor.4.bias f4 [128]
0	0xbdb7a6f0	-0.08967388
1	0xbd9811dc	-0.074252814
2	0xbdbd2e2e	-0.09237324
3	0xbd420afd	-0.04737376
4	0x3d2b614b	0.041840833
5	0xbc9c584f	-0.019085078
6	0xbc7bd101	-0.015369655
7	0xbddb12ee	-0.1069697
8	0xbdc9d871	-0.09855736
9	0xbda2c5e5	-0.07947902
10	0xbd25f0b0	-0.04051274
11	0xbd5524b9	-0.052036975
12	0xbb83ffe9	-0.0040283096
13	0x3c7f87fa	0.015596384
14	0xbd5fc772	-0.054633565
15	0x3d1d75fc	0.038442597
16	0xbce13f38	-0.027495965
17	0xbdd20eb3	-0.1025671
18	0x3c947676	0.018122893
19	0xbc9b0286	-0.018922102
20	0xbc00fba7	-0.007872499
21	0xbcdde19a	-0.027085114
22	0x3d223872	0.03960461
23	0xbc001935	-0.00781851
24	0xbda0d400	-0.07852936
25	0x3c5a8c08	0.01333905
26	0x3cd29289	0.025704639
27	0xbbcbfc38	-0.006225135
28	0xbbc455b9	-0.0059916642
29	0xbdd5273d	-0.10407875
30	0xbbdb5c6f	-0.0066943686
31	0x3d8dda78	0.06926435
32	0xbdbb6c77	-0.091515474
33	0xbd9e45fe	-0.07728194
34	0xba54db71	-0.00081198575
35	0xbb83e0e2	-0.004024611
36	0xbd64623d	-0.05575775
37	0xbd98b461	-0.074562795
38	0x3d457fcc	0.04821758
39	0x3d97091f	0.073747866
40	0xbd91c6a0	-0.07117963
41	0xbd3c60dd	-0.045990814
42	0x3c762648	0.015023775
43	0x3d8b908e	0.06814681
44	0x3d735f5d	0.059417117
45	0x3d94cce6	0.07265644
46	0xbd4e0435	-0.05029698
47	0xbd0ee34e	-0.034884743
48	0xbd8959ea	-0.06706603
49	0xbd705a27	-0.058679726
50	0xbd2df6b9	-0.04247162
51	0xbde3a4e4	-0.11115435
52	0x3c65d43b	0.0140276505
53	0xbd7489f7	-0.059701886
54	0xbcc10609	-0.023562448
55	0xbd1289d5	-0.035775978
56	0xbd744f05	-0.05964567
57	0xbca5adc7	-0.020224465
58	0xbd883720	-0.06651139
59	0x3c0c8efd	0.008579013
60	0xbd6219bc	-0.055200323
61	0x3d1cb611	0.03825957
62	0xbd2dee7e	-0.042463772
63	0xbde5c0a8	-0.11218387
64	0x3bd19f72	0.006397181
65	0xbd00b9ed	-0.031427313
66	0xbd59fc65	-0.053219218
67	0x3d5b575c	0.05355011
68	0xbe1377f8	-0.14401233
69	0x3d04be50	0.03240806
70	0xbcffe059	-0.031234907
71	0xbce16a38	-0.02751647
72	0xbd916366	-0.07099037
73	0xbcb6c39a	-0.022310067
74	0xbd86c409	-0.065803595
75	0xbd35f704	-0.044425026
76	0x3c4a3888	0.01234258
77	0xbe01ba7e	-0.12668797
78	0xbd5cbed9	-0.053892944
79	0x3cf3847a	0.029726256
80	0x3d264a44	0.04059817
81	0xbc402d62	-0.01172957
82	0xbc36dc5d	-0.011160937
83	0x3d01114c	0.031510636
84	0x3d036764	0.032081023
85	0xbda05a54	-0.07829729
86	0xbbbb85c8	-0.005722735
87	0xbc9b4eff	-0.018958567
88	0xbd420ac7	-0.04737356
89	0x3ca705a1	0.020388426
90	0xbc14a3e0	-0.009072274
91	0xbd7228c6	-0.059120916
92	0x3db19ffb	0.08673092
93	0xbd32f729	-0.04369274
94	0xbba9b297	-0.0051787603
95	0xbbff5c0e	-0.007792956
96	0xbcdb4a93	-0.026768958
97	0x3d306f5b	0.043074947
98	0xbd6859c1	-0.05672622
99	0x3d024627	0.031805184
100	0xbd83fbe5	-0.064445294
101	0x3bc91c9f	0.006137445
102	0xbd83f852	-0.06443848
103	0xbd0ba34e	-0.034091286
104	0xbda34644	-0.079723865
105	0x3d669203	0.05629159
106	0x3d960274	0.07324687
107	0xbdce5644	-0.100750476
108	0xbd2cd4ab	-0.042195003
109	0xbce805da	-0.028323103
110	0x3cb11c62	0.02161998
111	0xbd2ba0fc	-0.041901574
112	0x3bf26d66	0.007398295
113	0xbd1b43f7	-0.037906613
114	0x3d197bd4	0.037471607
115	0xbd0fe72d	-0.035132576
116	0x3cd9aaaa	0.026570637
117	0x3cd7c1a5	0.026337454
118	0x3d11b7b8	0.0355756
119	0x3b98ede8	0.0046670325
120	0x3d471e79	0.048613045
121	0xbde29b3a	-0.11064763
122	0x3c03db0d	0.008047831
123	0xbd3f4ca4	-0.04670395
124	0xbd7cb06f	-0.061691698
125	0xbda68556	-0.081309006
126	0x3b8c290c	0.004277354
127	0x3cacef28	0.021110132

actor.6.weight f4 [20, 128]
0	0xba6947b1	-0.00088989275
1	0xbcc3c878	-0.023899302
2	0xbc1cc788	-0.009569056
3	0x3ac34d16	0.0014900293
4	0xbcec021b	-0.028809598
5	0x3d24bf90	0.04022175
6	0x3c864097	0.01638822
7	0xbce7117f	-0.028206585
8	0xbc2735fa	-0.01020574
9	0xbd34bb0a	-0.044123687
10	0xbc539b32	-0.012915419
11	0x3c3ec859	0.011644446
12	0x3c3e4a5b	0.011614407
13	0x3d090f26	0.033461712
14	0xbd202cf0	-0.039105356
15	0xbbc22929	-0.005925317
16	0x3c62019d	0.01379433
17	0x3d368f0d	0.044570018
18	0xbd0ecebe	-0.034865133
19	0xbc6507de	-0.013978926
20	0x3c21a838	0.009866767
21	0x3caa7a01	0.02081013
22	0xbcd93a24	-0.026516981
23	0xbc83a04b	-0.016067645
24	0xbcf7db36	-0.030255895
25	0x3bd7aca7	0.006581861
26	0xbc464a2e	-0.012102647
27	0x3d4ca7e4	0.0499648
28	0xbc40a32b	-0.011757652
29	0x3cbdec14	0.02318386
30	0xbd12e84a	-0.03586606
31	0x3c831e39	0.016005622
32	0xbca02913	-0.019550836
33	0x3ccd3e43	0.025054103
34	0x3ca076f8	0.019587979
35	0x3baa4238	0.005195882
36	0xbdaa63c7	-0.08319812
37	0xbc6bf44b	-0.014401506
38	0x3c7a6874	0.015283693
39	0x3be64288	0.007026974
40	0x3c9c479a	0.019077111
41	0xbdaffb94	-0.085929066
42	0x3cda4548	0.026644364
43	0xbb2b881d	-0.002617366
44	0x3c1d8e27	0.009616411
45	0xbca15554	-0.019694008
46	0x3c96843f	0.018373607
47	0xbc891ba5	-0.016736815
48	0xbd122c31	-0.035686675
49	0x3bcb4070	0.00620275
50	0xbc6d2e0e	-0.014476312
51	0x3b5810d0	0.0032969005
52	0x3c480bca	0.012209842
53	0x3c1f3c0d	0.009718907
54	0xbbf0980d	-0.0073423446
55	0xbc6ef540	-0.014584839
56	0xbd38d8dd	-0.045128692
57	0xbc1eae85	-0.009685163
58	0x3ca99dd9	0.02070515
59	0x3c8300f7	0.015991671
60	0xbc01fba3	-0.00793353
61	0x3d0f7e88	0.03503278
62	0xbc4b1ca4	-0.012396965
63	0x3db667ca	0.08906515
64	0x3b3ef151	0.0029135535
65	0xbbc2886a	-0.005936672
66	0xbc367720	-0.0111368
67	0x3cf19ae3	0.029492801
68	0x3c97da21	0.01853663
69	0x3bc56a2d	0.00602462
70	0x3cb741c1	0.022370221
71	0xbd2eba09	-0.042657886
72	0x3d223906	0.039605163
73	0x3d098bbd	0.03358053
74	0x370a1640	8.2306215e-06
75	0x3cf68405	0.030092249
76	0x39722af6	0.00023094923
77	0xbcdb34f4	-0.026758648
78	0xbc4d70a9	-0.012539067
79	0xbcf16238	-0.02946578
80	0xbd0e955e	-0.034810416
81	0x3940b73f	0.00018378811
82	0x3cd75aee	0.026288476
83	0xbbecdc49	-0.0072284085
84	0xbc340e6a	-0.010989765
85	0xbd3cd205	-0.046098728
86	0xbd8560e4	-0.06512621
87	0xbd876b13	-0.0661222
88	0x3d62b489	0.055347953
89	0x3bcf8e7e	0.006334125
90	0xbcc8f3e1	-0.024530353
91	0xbc9948d4	-0.018711485
92	0xbd219842	-0.039451845
93	0xbd88faed	-0.06688485
94	0x3b7e8cba	0.0038841204
95	0x3c6134fd	0.013745544
96	0xbc9ec381	-0.019380333
97	0xbc943229	-0.018090324
98	0x3a782fb9	0.00094675604
99	0xbcb1b9a3	-0.021694964
100	0xbb232f55	-0.0024900038
101	0x3c20d432	0.009816216
102	0xbd60abb6	-0.054851256
103	0x3b1fbca4	0.0024373913
104	0x3d083271	0.03325123
105	0xbb89776a	-0.0041951435
106	0xbcbf2543	-0.023333197
107	0x3d8a2dcb	0.067470156
108	0x3cd3a643	0.025836116
109	0xba1caea3	-0.00059769506
110	0xbcfe7d6b	-0.031065663
111	0x3c2965b1	0.0103391865
112	0xbc8d9cb0	-0.017286628
113	0xbc03542d	-0.008015675
114	0x3d012a63	0.031534564
115	0xbd4065de	-0.046972148
116	0x3d396d70	0.045270383
117	0xbb77eb18	-0.0037829336
118	0xbbfbcbe2	-0.007684217
119	0x3b74fc31	0.0037381763
120	0x3c0cd7e6	0.008596396
121	0x3c9a4577	0.018831952
122	0xbc224ca7	-0.009905971
123	0x3bf92d4f	0.007604278
124	0xbb6d2ed8	-0.003619125
125	0xbc3a0bbf	-0.01135534
126	0x3c28429d	0.010269788
127	0x3c4f5961	0.012655587
128	0x3deb8ce1	0.1150148
129	0x3ca5eda7	0.020254923
130	0x3d53ad30	0.051678836
131	0x3d0d5324	0.034503117
132	0xbde2f371	-0.11081589
133	0x3d27a489	0.040928397
134	0xbc65fe9f	-0.014037757
135	0x3e1a5d36	0.1507462
136	0x3d4a7c7d	0.049435128
137	0x3d4030a8	0.046921402
138	0x3d782453	0.060581516
139	0x3d9de07b	0.07708832
140	0x3c12b9a5	0.008955394
141	0x3c4bee71	0.012446986
142	0x3d92e328	0.07172233
143	0x3d5896af	0.052878078
144	0x3d95e3ee	0.07318865
145	0x3d42f303	0.047595035
146	0x3c2ae866	0.010431385
147	0xbceb4161	-0.028717699
148	0xbda6f7f7	-0.08152764
149	0x3d6bd8fa	0.05757997
150	0x3d30435a	0.04303298
151	0x3b29cec3	0.0025910593
152	0x3e103f8c	0.14086741
153	0x3d9ab8b1	0.07554758
154	0x3bdd3fdd	0.006751998
155	0x3daa5deb	0.08318695
156	0x3c1548c9	0.009111592
157	0x3d46f738	0.04857561
158	0xbdb0e068	-0.08636552
159	0xbd592609	-0.05301479
160	0x3c91d99a	0.017803956
161	0x3de07cfe	0.1096134
162	0xbdcc7895	-0.09983937
163	0x3cf61fd4	0.030044474
164	0x3dbb1ae4	0.09135988
165	0x3d961dbb	0.073298894
166	0xbda1f45c	-0.07907936
167	0xbe012e2c	-0.1261527
168	0x3d04c5e2	0.03241528
169	0x3d8bd63f	0.068279736
170	0xbdb6c3bd	-0.08924053
171	0xbcb0579e	-0.021526154
172	0xbdc7ecfd	-0.09761999
173	0xbd8c8c05	-0.06862644
174	0x3dd83db9	0.10558648
175	0xbddd1733	-0.107954405
176	0x3e47a6bf	0.19497202
177	0xbd131fdb	-0.03591905
178	0x3c23c539	0.009995752
179	0x3dc0c269	0.09412081
180	0xbd3afbc4	-0.04565026
181	0x3d307191	0.043077055
182	0xbabc6050	-0.0014371965
183	0x3dc0b77e	0.09409998
184	0x3dfa4724	0.122206
185	0xbd3063a0	-0.04306376
186	0xbd7b2d40	-0.06132245
187	0xbdd187fe	-0.102310166
188	0x3e00204d	0.12512322
189	0xbc8a1358	-0.016854927
190	0x3d267995	0.040643293
191	0xbc387e41	-0.01126057
192	0xbdb6dc72	-0.08928765
193	0x3aa8b488	0.0012871185
194	0x3df43880	0.11924839
195	0xbdd328c6	-0.10310511
196	0x3dca3b50	0.09874594
197	0x3b9227f3	0.0044603287
198	0x3d81fb3d	0.06346748
199	0xbdb940ad	-0.09045539
200	0x3e0daf0a	0.13836303
201	0xbcd47b91	-0.025937827
202	0x3daa9d0c	0.083307356
203	0x3d7673f6	0.060169183
204	0x3d6c3626	0.057668827
205	0x3d4c3a8f	0.049860533
206	0x3d8a53ef	0.0675429
207	0x3d740207	0.059572246
208	0x3c3864cf	0.011254503
209	0x3d9168ac	0.07100043
210	0x3d9aa5e4	0.075511724
211	0xbc84cd85	-0.01621128
212	0x3b3487c6	0.0027546748
213	0xbd34e43f	-0.044162985
214	0xbc435062	-0.01192102
215	0x3d815f8e	0.06317054
216	0x3d33d3ed	0.04390328
217	0xbd0f0d96	-0.034925066
218	0xbd76562e	-0.06014078
219	0x3da193d9	0.07889528
220	0x3b48988c	0.0030608503
221	0x3da95151	0.08267463
222	0x3c222214	0.00989582
223	0xbbc5bee5	-0.0060347193
224	0x3c5606d9	0.013063156
225	0xbd14ac93	-0.036297392
226	0x3d18169a	0.03713093
227	0xbda3e8f7	-0.08003419
228	0x3c46df08	0.012138136
229	0xbb75a895	-0.0037484516
230	0x3daed49f	0.08536648
231	0x3d7ef645	0.06224658
232	0xbcc7f910	-0.024410754
233	0xbd03eab8	-0.032206267
234	0xbdc393dc	-0.09549686
235	0x3dbe574c	0.09293994
236	0xbd7128ff	-0.058876988
237	0x3be8890e	0.0070964163
238	0x3e02d878	0.12777889
239	0x3bbea806	0.00581837
240	0x3d930586	0.07178788
241	0xbd3f79fa	-0.046747185
242	0x3cbf073d	0.023318881
243	0x3b46e55d	0.0030349114
244	0x3c4eda2b	0.0126252575
245	0x3d4fad08	0.050702125
246	0xbd0a6062	-0.033783324
247	0x3ddfa796	0.10920636
248	0xbce91388	-0.028451696
249	0x3d1a1406	0.037616752
250	0xbcb5f8d1	-0.022213371
251	0x3ded8858	0.11598271
252	0xbd977663	-0.07395627
253	0x3e0bc896	0.13650736
254	0xbd71900e	-0.058975272
255	0x3ccf617d	0.02531504

actor.6.bias f4 [20]
0	0xbd695cee	-0.05697339
1	0xbe211af3	-0.15732937
2	0x3d0a04b1	0.03369588
3	0x3e034c36	0.12822041
4	0x3ca59535	0.020212749
5	0xbdb885ec	-0.090099186
6	0x3c77ae19	0.015117192
7	0x3d73c78b	0.05951647
8	0xbdc7db1d	-0.097585894
9	0x3d8b75e9	0.06809599
10	0x3d757f7b	0.059936028
11	0x3ca8c2c8	0.020600691
12	0xbd044a6c	-0.032297537
13	0xbdaf3e19	-0.08556766
14	0x3caa77a6	0.020809006
15	0x3caea9ea	0.021321256
16	0xbd359e65	-0.04434051
17	0xbd0f0032	-0.034912296
18	0xbc30b4c3	-0.010785284
19	0x3d5b76a6	0.05357995
