exts/kbot/example_checkpoint/2025-01-30_19-04-38_model_8950/2025-01-30_06-06-04_policy_model_8950.onnx (onnx, 805685 bytes, 8 tensors)

actor.0.weight f4 [512, 66]
0	0xbe91b389	-0.28457287
1	0xbe95176a	-0.29119426
2	0x3e8766e1	0.26445678
3	0x3b96936b	0.0045952103
4	0xbf27b20e	-0.65506065
5	0x3d67e27c	0.056612477
6	0x3e906750	0.2820382
7	0xbdc6c701	-0.09705926
8	0xbefed6c6	-0.49773234
9	0x3e12b9a5	0.1432863
10	0x3e9a4ccc	0.30136716
11	0x3e0ae35e	0.13563296
12	0xbd594ba5	-0.053050656
13	0x3ec4aa8a	0.3841136
14	0xbdac15a4	-0.08402565
15	0xbdc4b573	-0.09604921
16	0x3f275862	0.65369236
17	0x3dd5ed45	0.10445646
18	0x3ec6cbb2	0.38827282
19	0x3e333c41	0.17503454
20	0x3f11fe81	0.5702897
21	0x3d1bdeaf	0.038054164
22	0xbefb61bd	-0.49098006
23	0x3e196c86	0.14982805
24	0xbec621d1	-0.38697675
25	0x3ef053cb	0.4693893
26	0x3dfcc868	0.12342912
27	0x3c034441	0.0080118785
28	0x3d12b8ff	0.035820957
29	0x3d504576	0.050847493
30	0xbd80af1e	-0.06283401
31	0x3d967207	0.07345968
32	0x3d7d43bf	0.061832186
33	0x3d0b9b5a	0.0340837
34	0x3d959a4c	0.073048204
35	0xbe0b09d8	-0.13577974
36	0x3d1a6d72	0.03770203
37	0xbcc56a0e	-0.024098422
38	0xbd47f047	-0.04881313
39	0x3d72dd9c	0.059293374
40	0xbd45ecf5	-0.048321683
41	0xbc964a2d	-0.018345917
42	0xbca26e43	-0.019827968
43	0xbd8a89da	-0.06764574
44	0xbad5392d	-0.001626765
45	0x3c3c6992	0.011499779
46	0x3da5a9d3	0.08089032
47	0xbe007d77	-0.12547861
48	0x3c850b85	0.016240845
49	0xbdf8ac4e	-0.121422395
50	0xbe00c22f	-0.12574075
51	0x3d8a9b4c	0.06767902
52	0x3e014581	0.1262417
53	0x3da27198	0.079318225
54	0xbe0f8d77	-0.14018808
55	0xbd76aa14	-0.060220793
56	0x3e6d822c	0.23194188
57	0xbd9d9017	-0.076934986
58	0x3d395f3b	0.045256834
59	0x3d85963d	0.06522796
60	0x3e2b37d6	0.16720518
61	0x3bdad56b	0.0066782734
62	0x3e14f6ed	0.1454732
63	0x3cd0d12b	0.025490364
64	0xbc296cd4	-0.010340888
65	0x3d68049b	0.056645017
66	0xbe1855b2	-0.1487644
67	0xbe17d867	-0.14828645
68	0x3e5a0fbc	0.21295065
69	0x3f2162c7	0.6304135
70	0x3f6577d5	0.89635974
71	0x3e676f4c	0.2260105
72	0x3eb3464c	0.3501457
73	0xbdbb67e4	-0.09150675
74	0x3e81be96	0.25340718
75	0x3e0c27c6	0.13687047
76	0x3ebabcc5	0.36472145
77	0x3e0cb935	0.13742526
78	0xbf778570	-0.96687984
79	0x3de4a1fc	0.111637086
80	0x3ba6e2dc	0.0050929617
81	0xbf3bcd3c	-0.7336004
82	0xbf3a23bb	-0.7271077
83	0x3ef719d8	0.48261905
84	0x3e038043	0.12841897
85	0x3e1c76b0	0.1527965
86	0xbe891ffe	-0.2678222
87	0x3bd2102d	0.0064106197
88	0x3b3746d8	0.002796581
89	0x3e16ba41	0.14719488
90	0x3f020854	0.5079396
91	0x3e4b368c	0.19845027
92	0x3d115102	0.035477646
93	0x3b43c2b6	0.0029870695
94	0x3da29888	0.07939249
95	0x3d26cb59	0.04072127
96	0xbca6aadf	-0.02034515
97	0x3d3f8f01	0.04676724
98	0xbaa066af	-0.0012237633
99	0xbcc1335f	-0.023584066
100	0xbce97f98	-0.028503224
101	0xbd3fa24c	-0.046785638
102	0x3c43821c	0.011932876
103	0x3cab4d3a	0.020910848
104	0xb961a728	-0.00021519943
105	0xbd814b81	-0.06313229
106	0x3c5d0d8a	0.0134919975
107	0x3d2c0b1a	0.042002775
108	0x3bc27ad3	0.005935052
109	0xbd0f7b7e	-0.03502988
110	0xbc16e48d	-0.009209764
111	0xbbf606cf	-0.007508136
112	0x3d9b9733	0.07597198
113	0xbd9ab3e9	-0.075538464
114	0xbe4fbae0	-0.20286131
115	0x3d167509	0.036732707
116	0xbe04b76e	-0.12960598
117	0x3c2d04de	0.010560242
118	0x3d0e2e2a	0.034711994
119	0x3d77b68e	0.060476832
120	0x3da3eff5	0.080047525
121	0x3dbe412a	0.09289773
122	0xbdef34f1	-0.1168002
123	0xbd6d27b2	-0.057899185
124	0xbc19dc1a	-0.009390855
125	0x3ddb6f3c	0.10714576
126	0xbe0648fb	-0.13113777
127	0xbdf35582	-0.11881544
128	0xb93fe0d6	-0.00018298937
129	0x3da5c35a	0.08093901
130	0xbd04d342	-0.032428034
131	0x3d882ce7	0.066491894
132	0x3e066c56	0.13127264
133	0x3e1a10c5	0.1504546
134	0x3d10a50b	0.035313647
135	0xbee83a0a	-0.4535678
136	0xbfda360a	-1.7047741
137	0x3d5b28f4	0.053505853
138	0xbe7208e0	-0.23636198
139	0xbe866084	-0.2624551
140	0xbefb47b3	-0.4907814
141	0x3d50411a	0.050843336
142	0xbd3a7788	-0.04552415
143	0xbe451929	-0.19247879
144	0x3f33d011	0.7023936
145	0xbebff431	-0.3749099
146	0xbdb548c7	-0.08851772
147	0xbe149946	-0.14511594
148	0x3ec9c2f8	0.39406562
149	0xbd1bd284	-0.03804256
150	0xbe3ee5ae	-0.18642303
151	0x3ef001ae	0.46876281
152	0x3d32ed32	0.04368324
153	0xbf2d5223	-0.67703456
154	0x3d1fc2a1	0.039003972
155	0xbead66b4	-0.3386742
156	0x3ba122d7	0.0049174833
157	0xbf144c1c	-0.57928634
158	0x3ddaebe7	0.10689526
159	0x3ceb1f52	0.028701458
160	0x3bef4be2	0.007302747
161	0x3d421b47	0.047389295
162	0xbd8a29b5	-0.06746236
163	0x3d3161cf	0.04330617
164	0xbcb24805	-0.021762857
165	0xbbbf5c39	-0.005839851
166	0xbbc8fd80	-0.006133735
167	0x3ca09673	0.01960299
168	0xbcb2dc80	-0.021833658
169	0x3cde0dd1	0.027106198
170	0xbcb20ea5	-0.021735499
171	0x3d832224	0.06402996
172	0x3b848ae0	0.0040448755
173	0xbb9e1bbc	-0.0048250835
174	0x3c9f3d4a	0.019438405
175	0x3ca834ec	0.020533048
176	0xbd303c64	-0.043026343
177	0x3d74aa5e	0.059732787
178	0x3e6e68c9	0.2328216
179	0xbd3ad5ad	-0.045613933
180	0xbd8dcd90	-0.069239736
181	0x3dbbb9d2	0.09166302
182	0x3dac53f2	0.08414449
183	0xbe8ab250	-0.27089167
184	0xbdacc8bd	-0.08436725
185	0x3c7aa96b	0.015299181
186	0xbdc016d7	-0.09379356
187	0x3d842f97	0.064543895
188	0xbd269af9	-0.040675137
189	0xbd9bcb43	-0.076071285
190	0x3d28f257	0.04124674
191	0xbdbc6245	-0.09198431
192	0x3e01f109	0.12689604
193	0x3db98bfe	0.090599045
194	0x3d7d1bb0	0.061793983
195	0x3d28ace1	0.041180495
196	0xbd6f870f	-0.05847841
197	0xbd85ff12	-0.065427914
198	0xbebeee7c	-0.37291324
199	0x3e8934c2	0.26798064
200	0x3aca9716	0.0015456404
201	0x3ecf4bf7	0.40487644
202	0xbfca89ba	-1.5823281
203	0xbd0eb932	-0.034844585
204	0xbe752414	-0.23939544
205	0xbd4d01b5	-0.050050456
206	0xbefe1b16	-0.4963004
207	0xbd107c7a	-0.03527496
208	0x3f1eac14	0.6198132
209	0xbea66cfe	-0.3250503
210	0x3ef6a5f9	0.48173502
211	0xbe7c96e5	-0.24666937
212	0x3da77ade	0.08177732
213	0x3d64d330	0.055865467
214	0x3d4864d3	0.04892428
215	0xbf154af7	-0.5831751
216	0xbf0785a0	-0.5293827
217	0x3f14c294	0.581094
218	0x3ebf2dc9	0.3733962
219	0xbd12ade8	-0.03581038
220	0xbe0a98ce	-0.13534853
221	0xbf3f9772	-0.7484046
222	0x3ea0b2f0	0.31386518
223	0xbea09dc5	-0.3137037
224	0x3d8fbc3a	0.07018323
225	0xbd80ce10	-0.06289303
226	0x3c6b6c0b	0.014369021
227	0xbd66209e	-0.05618345
228	0x3b9e912d	0.0048390836
229	0x3cc2a058	0.023758098
230	0xbd827767	-0.063704304
231	0x3bd38dc4	0.0064561088
232	0x3d09db1b	0.03365622
233	0xbd07ffd2	-0.033202954
234	0xbd445d37	-0.04794046
235	0xbcab8d03	-0.020941263
236	0xbcdb8093	-0.026794707
237	0x3d6ed6fd	0.058310498
238	0xbd231aaa	-0.03982035
239	0x3b8258ba	0.003977862
240	0x3b873e20	0.004127279
241	0x3c0167f3	0.007898319
242	0x3bc3948d	0.0059686364
243	0xbd198bd7	-0.037486877
244	0xbe1b4b70	-0.15165496
245	0x3d78d203	0.060747158
246	0x3e1564b6	0.145892
247	0x3db51e7c	0.08843705
248	0xbd634076	-0.055481397
249	0xbe1943ed	-0.14967318
250	0xbd525c46	-0.05135753
251	0xbe1633fb	-0.14668266
252	0xbe90bfcb	-0.28271326
253	0x3cf195d5	0.02949039
254	0xbda99a27	-0.08281355
255	0x3da9bb98	0.08287734

actor.0.bias f4 [512]
0	0xbd11ce9f	-0.03559744
1	0xbe7aded2	-0.24499062
2	0xbb3f9049	-0.0029230288
3	0xbd864482	-0.065560356
4	0xbea009c9	-0.31257465
5	0xbdb9298a	-0.09041126
6	0x3dcf7159	0.10129041
7	0x3ccd37be	0.025050994
8	0x3cb5822b	0.022156795
9	0xbbb7a7d5	-0.005604724
10	0xbc2971d6	-0.010342082
11	0x3e0830f6	0.13299927
12	0xbc2a3e16	-0.010390779
13	0x3b8ea20b	0.004352813
14	0xbe32e87a	-0.17471495
15	0xbcb303ca	-0.021852393
16	0x3da2a78b	0.079421125
17	0xbd5e9952	-0.054345436
18	0xba2b6980	-0.0006538853
19	0x3ceff72b	0.029292664
20	0x3d86a1a0	0.06573796
21	0xbe749d03	-0.2388802
22	0x3d480f5f	0.048842784
23	0x3dbd2a6e	0.092366084
24	0xbe11e7bd	-0.14248557
25	0x3df379a0	0.118884325
26	0x3d54b06e	0.05192607
27	0x3e1da926	0.15396556
28	0x3db4a4d1	0.08820499
29	0xbde2309c	-0.11044428
30	0x3db52194	0.08844295
31	0x3dd778e1	0.10521103
32	0xbe0a8e24	-0.13530785
33	0xbde9a63f	-0.11408662
34	0x3e852fbb	0.26012978
35	0xbdcaf95b	-0.09910842
36	0xbe149bb2	-0.14512518
37	0x3e0bdb38	0.13657844
38	0x3e14b8ec	0.14523667
39	0x3e0a32c5	0.1349593
40	0x3e1dd175	0.15411933
41	0xbe873442	-0.26407057
42	0xbe34e524	-0.17665535
43	0xbd5868ba	-0.05283425
44	0xbe3ae29f	-0.18250512
45	0xbdd1c015	-0.10241715
46	0x3d5c5984	0.053796306
47	0x3d92e34b	0.07172259
48	0x3e4f11ed	0.20221682
49	0xbd31bf49	-0.043395314
50	0x3dd65a4b	0.10466441
51	0x3dab5074	0.083649546
52	0x3e38b476	0.1803759
53	0x3de23062	0.110443845
54	0xbe89d0ca	-0.26917106
55	0xbe3738da	-0.17892781
56	0x3e32d4f6	0.1746405
57	0x3cfdfaa8	0.031003311
58	0xbc48c779	-0.012254589
59	0x3d6d2329	0.05789486
60	0x3d8f39d8	0.06993455
61	0xbe8ea2e2	-0.27858645
62	0x3ea0ec24	0.3143016
63	0x3d349d1b	0.04409514
64	0x3dbb2f68	0.091399014
65	0xbd95b91c	-0.073106974
66	0x3d1a5629	0.037679825
67	0xbdcaab69	-0.09895975
68	0x3cd27efe	0.02569532
69	0x3dfa5b69	0.12224466
70	0xbdc807a8	-0.09767085
71	0xbdaa3028	-0.08309966
72	0xbe75915f	-0.23981236
73	0xbda58fc6	-0.08084063
74	0x3e2e7c35	0.17039569
75	0x3e1b5956	0.15170798
76	0xbcbe7e34	-0.023253538
77	0x3eab0155	0.33399454
78	0x3df0de6f	0.11761176
79	0x3e0f4ede	0.13994929
80	0xbe6519d6	-0.22373137
81	0x389ef927	7.580435e-05
82	0xbcee7cdc	-0.029112272
83	0xbd631431	-0.055439178
84	0xbda8f2cb	-0.08249434
85	0x3d5f4387	0.05450776
86	0xbe32bbbc	-0.17454427
87	0xbd963881	-0.07334996
88	0x3e69a98d	0.22818585
89	0xbe0b79cd	-0.13620682
90	0x3e19839a	0.14991608
91	0xbe15c6b0	-0.14626575
92	0x3d05f699	0.032705877
93	0xbd1ddbff	-0.038539883
94	0x3dd0e007	0.1019898
95	0xbd97d730	-0.07414091
96	0x38843efb	6.3059815e-05
97	0x3d8abc20	0.06774163
98	0xbd417055	-0.04722627
99	0x3d9dde98	0.07708472
100	0x3e3dd041	0.18536474
101	0x3dadea9e	0.08492015
102	0xbdc07614	-0.093975216
103	0x3d54d33a	0.051959254
104	0xbc993242	-0.018700723
105	0xbd029229	-0.03187767
106	0x3cb07d13	0.021544015
107	0xbca882a3	-0.020570105
108	0xbe5b48b2	-0.2141445
109	0xbe09c5f7	-0.13454424
110	0xbe27a533	-0.16371612
111	0x3c9bc539	0.019014942
112	0xbc58a0d5	-0.013221939
113	0xbd80fc5d	-0.062981345
114	0x3d3d6be6	0.046245478
115	0xbdbf57ec	-0.09342942
116	0x3da5b9f3	0.080921076
117	0x3cfcbe19	0.030852364
118	0x3d2d10d8	0.04225239
119	0xbd374216	-0.04474076
120	0x3dfd4413	0.123665
121	0x3bd37b72	0.006453925
122	0xbc25268a	-0.010079989
123	0x3e0a40f4	0.1350134
124	0xbdb0095d	-0.08595536
125	0x3e30014b	0.17187993
126	0xbddb2925	-0.10701207
127	0xbd1373c9	-0.035999093
128	0xbd4166e1	-0.047217254
129	0x3d87603f	0.06610154
130	0xbd52449e	-0.05133497
131	0xbe336282	-0.17518046
132	0x3d90d26e	0.07071386
133	0x3de1f77b	0.11033531
134	0xbd33b85f	-0.043877
135	0x3db4b003	0.08822634
136	0xbe1bdb87	-0.15220462
137	0xbe77164a	-0.24129596
138	0xbdec9a5f	-0.115528814
139	0x3e0f324a	0.13984028
140	0x3dfbf348	0.123022616
141	0xbe388f36	-0.1802338
142	0xbdd239e1	-0.10264946
143	0xbe22c685	-0.15896042
144	0xbd8ebfca	-0.069701746
145	0xbe00b6d4	-0.12569743
146	0xbd506379	-0.050876115
147	0xbdfd30a1	-0.12362791
148	0x39dfa81d	0.0004265913
149	0xbe07d290	-0.13263917
150	0xbd5bad00	-0.053631783
151	0x3ddc0d5f	0.10744738
152	0xbe2c311d	-0.1681561
153	0x3d228931	0.039681617
154	0x3e16937a	0.14704695
155	0xbe3b2dbe	-0.18279168
156	0x3d883cb1	0.06652201
157	0x3e296698	0.16543043
158	0xbb8d7712	-0.004317173
159	0xbe0d46af	-0.13796495
160	0x3e553747	0.20821868
161	0x3d2f97cd	0.042869378
162	0xbe4d39cd	-0.2004158
163	0xbe1b4ec5	-0.15166767
164	0xbdb1cb5c	-0.08681366
165	0x3dde56fc	0.10856435
166	0xbd8afeb2	-0.067868605
167	0xbe265489	-0.16243185
168	0x3d4dd8c8	0.050255567
169	0xbd17c7a9	-0.037055645
170	0xbe3135db	-0.173057
171	0xbe0bff61	-0.13671638
172	0x3cfe9b32	0.031079862
173	0xbe1dd516	-0.15413317
174	0x3e009f02	0.12560657
175	0x3c52207f	0.0128251305
176	0xbd9d244c	-0.07672939
177	0x3e073cef	0.13206838
178	0x3d24c843	0.040230047
179	0xbdb86c41	-0.09005023
180	0x3e23d37c	0.15998644
181	0x3df2fae5	0.118642606
182	0xbe3a5489	-0.1819631
183	0x3d82fad2	0.063954964
184	0x3ecf421a	0.4048012
185	0xbd12b6fd	-0.035819042
186	0xbc8dfb23	-0.017331665
187	0x3de5f7f6	0.112289354
188	0x3e055d2b	0.13023822
189	0xbdb40602	-0.087902084
190	0xbd74c9f1	-0.0597629
191	0xbc904f7f	-0.017616032
192	0xba54cd42	-0.0008117744
193	0xbda95596	-0.08268277
194	0xbdd32a62	-0.10310818
195	0x3bd5dbb5	0.0065264353
196	0x3de6466c	0.11243901
197	0xbc22ba31	-0.009932087
198	0xbe10cef0	-0.1414144
199	0x3d8c415d	0.068484046
200	0xbdd96487	-0.10614877
201	0xbe02cd4f	-0.12773632
202	0x3c829056	0.015937965
203	0xbdcd4a88	-0.10023981
204	0xbcbc1440	-0.022958875
205	0xbe774d40	-0.24150562
206	0xbf2d0fe8	-0.67602396
207	0x3975deac	0.00023447972
208	0x3d574141	0.052552465
209	0xbde915af	-0.11381089
210	0xbe32054e	-0.17384836
211	0xbdb5a44c	-0.08869228
212	0x3e2249a6	0.15848407
213	0x3ccbaa61	0.024861516
214	0x3b4641aa	0.0030251541
215	0xbdc2c350	-0.09509909
216	0xbd7b1d8b	-0.06130747
217	0xbe32b771	-0.1745279
218	0xbda93c50	-0.08263457
219	0xbd2cc7c7	-0.04218271
220	0x3d6eee71	0.058332864
221	0xbe3e3737	-0.1857575
222	0x3cc4113b	0.023933997
223	0xbdb0f3dc	-0.086402625
224	0xbd4db080	-0.05021715
225	0xbcd93ce4	-0.026518293
226	0xbd10a803	-0.03531648
227	0x3e20da97	0.15708385
228	0xbcb313c6	-0.021860015
229	0x3d8745de	0.06605123
230	0x3c148683	0.009065273
231	0xbe4b3863	-0.19845729
232	0xbe2ee886	-0.17080888
233	0x3e489c5e	0.195909
234	0xbe212b6a	-0.15739217
235	0x3d6d219e	0.057893388
236	0x3d422a0d	0.047403384
237	0xbd0065e9	-0.03134719
238	0xbd5d3418	-0.05400476
239	0x3e579e00	0.21056366
240	0xbe6d79af	-0.2319095
241	0x3e20d646	0.15706739
242	0xbd2f90da	-0.04286275
243	0xbd4893ed	-0.048969198
244	0xbe3cfa00	-0.18454742
245	0x3bb584dc	0.0055395197
246	0x3cf8ad22	0.030355994
247	0xbd2e8dc2	-0.04261566
248	0xbd39a344	-0.045321718
249	0xbd8b8d6f	-0.06814086
250	0x3de33963	0.1109493
251	0xbc0739eb	-0.008253555
252	0x39f19751	0.00046079842
253	0xbdc3a45d	-0.09552834
254	0xbddcb76e	-0.10777174
255	0xbde1e67b	-0.11030289

actor.2.weight f4 [256, 512]
0	0xbde11b13	-0.10991492
1	0x3dbf8249	0.09351022
2	0xbccbc59b	-0.024874499
3	0x3c0c370c	0.008558046
4	0xbd58a3bb	-0.05289052
5	0x3c96f298	0.018426225
6	0xbdaf0539	-0.08545918
7	0xbd42eae2	-0.047587283
8	0x3d6c6f2d	0.057723213
9	0xbd07bd54	-0.03313954
10	0x3d30a760	0.04312837
11	0x3d16ccb2	0.036816306
12	0xbd942ef0	-0.07235515
13	0xbe081029	-0.13287415
14	0xbb39eaf5	-0.0028368805
15	0xbe09c383	-0.13453488
16	0x3b397ff4	0.0028305026
17	0xbc8c7ea4	-0.01715023
18	0xbd92007c	-0.07128999
19	0xbca9ca2a	-0.020726282
20	0xbd638bf7	-0.055553403
21	0xbc2d36a4	-0.010572109
22	0xbd43ea81	-0.047831062
23	0xbc5ad0ec	-0.013355475
24	0xbcdf3850	-0.027248532
25	0x3d48745a	0.048939086
26	0xbd8866ae	-0.066602096
27	0xbbaa7e31	-0.0052030315
28	0xbd316f05	-0.043318767
29	0x3d8fcbb8	0.07021278
30	0xbc34c6ef	-0.011033758
31	0x3d3d989a	0.04628811
32	0xbc95468c	-0.018222116
33	0x3d22c1f5	0.039735753
34	0xbd9855e5	-0.07438258
35	0xbd1f6fbf	-0.03892493
36	0xbd6b827f	-0.057497498
37	0xbe24a10f	-0.16077064
38	0x3d6b9cf3	0.057522725
39	0xbd88d79a	-0.06681748
40	0xbe024efc	-0.12725443
41	0x3d01764b	0.031606954
42	0xbde81ab9	-0.11333222
43	0x3cd69379	0.026193367
44	0xbb93b194	-0.004507253
45	0x3daf477f	0.08558559
46	0xbdd98666	-0.106213376
47	0x3cdd3922	0.027004782
48	0xbcf36eda	-0.029715944
49	0xbd1d20fa	-0.038361527
50	0x3cbb3b5a	0.02285545
51	0x3d22d05a	0.03974948
52	0xbc4bafc4	-0.0124320425
53	0xbd99bd87	-0.075068526
54	0xbcab923f	-0.020943759
55	0x3d91d064	0.071198255
56	0x3d3ecbc4	0.046581045
57	0xbd0f5afc	-0.03499888
58	0x3de929ba	0.11384912
59	0xbd87c456	-0.06629245
60	0xbd8cd620	-0.068767786
61	0x3ccaa1f6	0.024735432
62	0xbd801ae6	-0.062551305
63	0xbd134c05	-0.03596117
64	0xbdd4aa8d	-0.103840925
65	0xbba95675	-0.005167777
66	0x3d8c832d	0.06860957
67	0x3e30e0bc	0.1727323
68	0xbd0dcb9f	-0.034618016
69	0xbdb34ba4	-0.08754662
70	0xbbdc71d2	-0.0067274356
71	0x3d86d8cf	0.06584322
72	0x3a241542	0.0006259271
73	0xbcd0ca02	-0.02548695
74	0xbcf77c9f	-0.030210791
75	0x3c894336	0.016755681
76	0x3d803f41	0.06262065
77	0x3da8fa58	0.08250874
78	0xbcaad79f	-0.02085477
79	0xbdb4c15f	-0.08825945
80	0x3d3122f9	0.043246243
81	0x3ddc06a0	0.10743451
82	0x37b5971d	2.1647249e-05
83	0x3d07fb02	0.033198364
84	0x3c93b3d1	0.01803008
85	0xbdc2d242	-0.0951276
86	0x3df5dae3	0.1200464
87	0xbd08d4b1	-0.033405963
88	0x3d862b07	0.065511756
89	0xbd3a34ba	-0.04546044
90	0xbd968361	-0.07349277
91	0xbd85ad0b	-0.06527146
92	0x3addc6fe	0.0016920266
93	0x3ca9fde7	0.020750953
94	0x3cb731be	0.022362586
95	0x3d1fe1ab	0.039033573
96	0x3d3b9a51	0.045801464
97	0xbc83b7da	-0.016078878
98	0xbd0eac6b	-0.0348324
99	0x3cca701a	0.024711657
100	0xbd4982e9	-0.04919711
101	0xbba79358	-0.0051140003
102	0x3c12fc12	0.008971231
103	0x3d75a51e	0.05997192
104	0xbc2d9368	-0.010594226
105	0xbd5b50b6	-0.05354377
106	0x3d98700a	0.07443245
107	0xbdf70359	-0.120611854
108	0x3e017ea7	0.1264597
109	0x3d0341a5	0.032045025
110	0xbd0a973c	-0.033835635
111	0xbc64ba4d	-0.013960433
112	0x3ce2acd4	0.027670301
113	0x3dec7ba2	0.115470186
114	0x3c91f278	0.017815813
115	0x3da80064	0.082031995
116	0x3d673287	0.05644467
117	0x3b387255	0.002814432
118	0x3c690a86	0.0142237
119	0x3d6aa45f	0.057285663
120	0x3c1b33cf	0.009472801
121	0xbd5875da	-0.052846767
122	0x3d10db2e	0.035365276
123	0xbdb35448	-0.0875631
124	0xbca46b3d	-0.020070666
125	0xbbf0087c	-0.00732523
126	0x3c84ad8e	0.016196039
127	0xbd084980	-0.03327322
128	0xbdb1da1a	-0.08684178
129	0x3b159bac	0.0022828383
130	0xbc9511e8	-0.018197015
131	0xbd915510	-0.070963025
132	0xbe00dd10	-0.12584329
133	0xbd5a7275	-0.05333181
134	0x3a49abb3	0.00076931267
135	0x3dda9eb7	0.10674804
136	0x3dfb0dd0	0.12258494
137	0x3d740faf	0.05958527
138	0xbc1f8687	-0.009736664
139	0x3d3af365	0.045642275
140	0xbd0629b8	-0.03275463
141	0x3ca33d43	0.019926673
142	0xbc812667	-0.015765382
143	0xbde63b4b	-0.11241778
144	0xbd8ab1b8	-0.067721784
145	0xbe002100	-0.12512589
146	0x3ca61587	0.020273937
147	0x3c94f50c	0.018183254
148	0xbe21ff0b	-0.15819947
149	0x3b7c9a5c	0.0038544154
150	0xbd575a6a	-0.05257646
151	0xbdb69cc0	-0.089166164
152	0xbda5c77e	-0.08094691
153	0x3cca4382	0.024690393
154	0x3db06074	0.08612147
155	0x3e1a04e1	0.15040924
156	0xbe1cabdc	-0.15299934
157	0x3d113651	0.03545219
158	0xbd436bdd	-0.04771029
159	0x3af394a4	0.0018583727
160	0xbd139bfe	-0.036037438
161	0x3c256c16	0.0100965705
162	0x3d0dfa7a	0.0346627
163	0x3c36048a	0.011109481
164	0x3d2eee27	0.04270759
165	0xbd65d528	-0.056111485
166	0xbdbb2542	-0.09137966
167	0xbd88c29f	-0.06677746
168	0xbd7a94f5	-0.061177213
169	0xbd4d2df8	-0.050092667
170	0xbdcb0853	-0.09913697
171	0x3d0e4bbb	0.03474019
172	0xbd9400b0	-0.07226694
173	0x3d4560ce	0.048188023
174	0xbe02f4ce	-0.12788698
175	0xbd94a998	-0.0725891
176	0xbc37a6fe	-0.011209248
177	0x3c87e9b6	0.016590934
178	0xbca0dbb0	-0.019636005
179	0x3d177381	0.036975387
180	0xbdabbcd4	-0.083856255
181	0xbc932d9d	-0.017966086
182	0x3dd828c8	0.105546534
183	0xbd9c6fdf	-0.07638525
184	0xbdb31a95	-0.087453045
185	0xbd8c3287	-0.06845575
186	0xbd93de0b	-0.07220086
187	0x3def55ae	0.11686264
188	0xbd1005c8	-0.035161763
189	0xbda77a4c	-0.08177623
190	0x3cd351ae	0.025795784
191	0x3d1276e2	0.035757907
192	0x3d6aa281	0.057283882
193	0xbd832814	-0.06404129
194	0x3d00b496	0.03142222
195	0x3d1eb004	0.03874208
196	0xbe1f58b2	-0.15561178
197	0xbd0a624a	-0.033785142
198	0x3d218518	0.03943357
199	0x3d57f3a8	0.052722603
200	0xbd1f57e2	-0.03890217
201	0xbd35c5f0	-0.04437822
202	0x3b162655	0.0022911031
203	0xbd747bef	-0.059688505
204	0xbd474070	-0.048645437
205	0x3d0d37ca	0.034477033
206	0x3c44f970	0.012022361
207	0x3cf7b1ae	0.030236091
208	0x3db151c8	0.08658177
209	0x3e350cb0	0.17680621
210	0x3d063fe7	0.032775786
211	0x3d33a586	0.043859027
212	0xbd3cea33	-0.046121787
213	0xbdd60f7c	-0.10452172
214	0x3d34884b	0.04407529
215	0xbbcba64e	-0.0062148934
216	0x3de61cf2	0.1123599
217	0x3d303976	0.04302355
218	0xbdca7b12	-0.09886755
219	0x3d910745	0.07081465
220	0xbe2ab806	-0.16671762
221	0x3df53780	0.119734764
222	0xbbd1c39c	-0.0064014923
223	0xbb2b13e5	-0.0026104387
224	0x3d27db1e	0.04098045
225	0xbd0b45b2	-0.034002014
226	0x3cb70e72	0.022345755
227	0x3cce3039	0.025169479
228	0x3cc8c503	0.024508005
229	0xbc62b072	-0.013836013
230	0xbddb7ce2	-0.10717179
231	0x3be86b19	0.007092845
232	0xbd327633	-0.043569755
233	0xbd2c5979	-0.042077515
234	0x3db02b55	0.08602015
235	0xba8d6aa6	-0.001078923
236	0x3d2f4941	0.04279447
237	0x3e203d22	0.1564832
238	0xbdaf8084	-0.08569434
239	0xbd1878a7	-0.037224438
240	0xbc7d704d	-0.015468669
241	0x3bb313e1	0.0054650162
242	0xbdb07cd8	-0.08617562
243	0xbc4bce52	-0.012439327
244	0x3cc467cb	0.023975274
245	0xbd5366c7	-0.051611688
246	0xbc17abe8	-0.009257294
247	0xbe1ab1f1	-0.15106942
248	0xbcc8f8a7	-0.02453263
249	0xbc56d7d1	-0.013112978
250	0xbd772bea	-0.060344614
251	0xbb17f30d	-0.002318564
252	0x3c82bdf8	0.015959725
253	0x3d6d3cb6	0.057919227
254	0xbc9458b8	-0.01810871
255	0xbb1b5db0	-0.0023706965

actor.2.bias f4 [256]
0	0xbd230288	-0.039797336
1	0xbcc1bca4	-0.023649521
2	0xbcad0e3a	-0.021124948
3	0xbd6d8650	-0.05798942
4	0x3e00c5e0	0.12575483
5	0xbd779daa	-0.060453095
6	0xbd0e8ec9	-0.03480414
7	0xbcc172db	-0.023614338
8	0xbe32f2a7	-0.17475377
9	0xbcfa04df	-0.0305199
10	0xbda8efcd	-0.08248863
11	0xbe796ab8	-0.24357116
12	0xbcc591b7	-0.024117334
13	0xbe4a1975	-0.19736274
14	0xbdfae6ce	-0.12251054
15	0xbe163e5d	-0.14672227
16	0x3da5753d	0.08079002
17	0xbe25e0f8	-0.161991
18	0xbc78814c	-0.0151675455
19	0x3e02e4ef	0.12782644
20	0xbd935198	-0.07193297
21	0x3dbae9ab	0.091266
22	0xbe3cf6a7	-0.18453465
23	0x3d9e92d9	0.07742853
24	0xbd179a65	-0.037012476
25	0xbda32c73	-0.079674624
26	0xbdd6056f	-0.10450255
27	0xbe1d5362	-0.1536384
28	0xbcb5c3a2	-0.022188012
29	0x3d396015	0.045257647
30	0xbe52c093	-0.20581274
31	0x3c469b98	0.012122057
32	0xbd42cafd	-0.047556866
33	0xbe03450f	-0.12819313
34	0xbbb3da17	-0.005488645
35	0xbe7832ba	-0.242381
36	0xbc93a2ab	-0.018021902
37	0xbd832a89	-0.06404597
38	0xbd21b785	-0.03948166
39	0xbdae5e72	-0.08514108
40	0xbe08dd1f	-0.13365601
41	0xbca17f21	-0.01971394
42	0xbd7347f1	-0.05939478
43	0xbe677702	-0.22603992
44	0xbdc541f5	-0.09631721
45	0xbd5daf3a	-0.054122187
46	0xbcf7763c	-0.030207746
47	0xbdffd191	-0.124911435
48	0xbe11e4f1	-0.1424749
49	0x3d5cd093	0.05390985
50	0xbc887f5b	-0.01666229
51	0xbda816a9	-0.08207447
52	0x3cb74d68	0.022375777
53	0xbe85a87e	-0.26105112
54	0x3e44f17e	0.19232747
55	0xbe50eeee	-0.20403644
56	0x3d988202	0.07446672
57	0x3b11035e	0.002212725
58	0xbde9a529	-0.11408455
59	0x3d5521a7	0.052034047
60	0xbdced651	-0.10099471
61	0xbc6af5f0	-0.014340863
62	0x3d0edb0b	0.034876864
63	0xbdc58ad3	-0.09645619
64	0xbda0d249	-0.07852609
65	0xbe170250	-0.14746976
66	0x3d56bb92	0.052424975
67	0xbe0ccc25	-0.1374975
68	0xbe3f3da4	-0.18675858
69	0xbdb9fe21	-0.09081674
70	0xbcbeb66e	-0.023280349
71	0x3a91026a	0.0011063342
72	0xbdcdc54f	-0.10047399
73	0x3c101e38	0.008796267
74	0xbdc72692	-0.097241536
75	0xbd44bdcc	-0.048032567
76	0xbd0f463a	-0.034979083
77	0x3c53c982	0.012926461
78	0xbd9a81cf	-0.0754429
79	0xbd7ad60a	-0.06123928
80	0xbcec780f	-0.028865842
81	0x3d08dbce	0.033412747
82	0x3dcfc7fa	0.101455644
83	0xbd6a6c65	-0.05723228
84	0xbd4c4580	-0.049870968
85	0xbd9252f8	-0.07144731
86	0xbdbd7966	-0.092516705
87	0xbd1bb4a5	-0.038014073
88	0x3bdd99e3	0.0067627295
89	0x3d60015c	0.054688796
90	0xbe12ce57	-0.14336525
91	0xbcebc4d4	-0.028780378
92	0xbda0e1af	-0.07855546
93	0xbd703a41	-0.058649305
94	0xbe47c1c9	-0.19507517
95	0x3bf3a3fc	0.00743532
96	0x3d8590e0	0.06521773
97	0xbd1ff089	-0.03904775
98	0xbd0542a7	-0.032534268
99	0xbd818c74	-0.063256174
100	0xbd2b6d1a	-0.041852094
101	0xbc36c95d	-0.011156407
102	0xbd86a214	-0.06573883
103	0xbe1639c8	-0.1467048
104	0x3db61fc3	0.08892777
105	0xbde31823	-0.11088588
106	0xbca1f018	-0.019767806
107	0xbddb8a4f	-0.1071974
108	0xbe0fc4be	-0.14039895
109	0x3c837c5e	0.016050514
110	0xbe0bb016	-0.1364139
111	0xbdcb33e7	-0.09922009
112	0xbd21a8ca	-0.03946761
113	0x3d6ecf4a	0.058303155
114	0x3bb13a0e	0.005408532
115	0xbd36a7c0	-0.044593573
116	0xbe11aacc	-0.1422531
117	0x3c308f30	0.010776326
118	0x3b287c09	0.0025708696
119	0x3dad4333	0.08460083
120	0xbd0adaaf	-0.03389996
121	0x3d4a5078	0.049393147
122	0xbe35c96a	-0.17752615
123	0x3d8fb7af	0.07017457
124	0xbd8db0ec	-0.06918511
125	0xbe63d2fa	-0.2224845
126	0xbd9a64c4	-0.07538751
127	0xbe2d7a47	-0.16941176
128	0xbe21e70a	-0.1581079
129	0x3c87f283	0.01659513
130	0xbbd1b164	-0.0063993204
131	0xbd1f13c5	-0.038837213
132	0x3d30f353	0.043200802
133	0x3c0b7d14	0.008513708
134	0x3d09e012	0.033660956
135	0xbb84ec76	-0.0040565087
136	0x3ce7ff7a	0.028320063
137	0xbd7aca7a	-0.061228253
138	0xbcfc40e8	-0.030792668
139	0xbdbf8d8e	-0.09353171
140	0xbd2a32e5	-0.041552443
141	0xbda6623f	-0.08124208
142	0x3e2b19f6	0.16709122
143	0xbe083d4d	-0.13304634
144	0x3b8bb97e	0.0042640558
145	0xbd20af0c	-0.039229438
146	0x3e09b9c1	0.13449766
147	0x3ddf6f1f	0.109098665
148	0xbe097ea0	-0.1342721
149	0xbdc4501d	-0.09585593
150	0x3c242d26	0.01002053
151	0x3bc3010e	0.0059510535
152	0x3d899ff7	0.06719964
153	0x3db46aea	0.08809455
154	0x3d308d52	0.043103524
155	0xbd2e1b64	-0.04250659
156	0x3c762c32	0.015025185
157	0x3a21707e	0.0006158425
158	0x3bc262f6	0.005932207
159	0xbd930e0b	-0.07180413
160	0xbe632752	-0.22182968
161	0x3ac66426	0.0015136048
162	0xbc975497	-0.018472953
163	0xbdaee447	-0.08539634
164	0xbd8eecd9	-0.06978769
165	0x3d676711	0.056494776
166	0xbd59c09c	-0.053162202
167	0x3d86d084	0.0658274
168	0xbd56f157	-0.052476253
169	0x3c2ad312	0.0104263
170	0xbd1f99ee	-0.03896516
171	0x3b589313	0.0033046647
172	0xbda23a1e	-0.07921241
173	0xbe430c46	-0.1904765
174	0xbd13a41b	-0.036045175
175	0xbd3686c7	-0.044562127
176	0xbe02ef68	-0.12786639
177	0xbd84ada0	-0.06478429
178	0xbd919c5b	-0.071099006
179	0x3b869b69	0.004107882
180	0xbdc1f106	-0.094698
181	0xbe143618	-0.1447376
182	0xbd196335	-0.037448127
183	0xbdf97ff2	-0.12182607
184	0xbd5d05a5	-0.05396046
185	0xbe1a61e9	-0.15076412
186	0xbe1014a7	-0.14070378
187	0x3d89a9eb	0.067218624
188	0xbd60aa7d	-0.05485009
189	0xbda7bcb2	-0.08190288
190	0xbc912954	-0.017719902
191	0x3c365df1	0.011130796
192	0xbe16b046	-0.1471568
193	0xbd8243ba	-0.06360574
194	0xbe09c2ee	-0.13453266
195	0x3d72dffd	0.059295643
196	0xbc7f76b1	-0.015592263
197	0x3d4fcdf9	0.05073354
198	0xbd793696	-0.060843073
199	0xbcb69d1f	-0.022291718
200	0xbe379278	-0.17926967
201	0xbc9d7408	-0.019220367
202	0xbc3bde96	-0.011466643
203	0xbdc9884f	-0.09840452
204	0x3d34e331	0.04416198
205	0xbc4de816	-0.012567541
206	0xbd623542	-0.05522657
207	0xbde79167	-0.1130703
208	0x3d15c632	0.036565967
209	0xbd138f8d	-0.036025573
210	0xbd125a2b	-0.035730522
211	0xbd431a2c	-0.04763238
212	0xbd79a8bb	-0.06095193
213	0xbe0d883f	-0.13821505
214	0xbd54e49c	-0.05197583
215	0xbd9513e9	-0.07279188
216	0xbe588844	-0.21145731
217	0xbe0b4a3d	-0.13602538
218	0x3c9cc1d8	0.0191354
219	0xbd37c4bd	-0.04486536
220	0xbce54a69	-0.027989583
221	0xbbcaebad	-0.0061926455
222	0xbdadfde7	-0.08495694
223	0xbe143624	-0.14473778
224	0xbdb0cb3d	-0.086325146
225	0xbd6f0525	-0.058354516
226	0xbcbdaef7	-0.023154719
227	0xbe173406	-0.14765939
228	0xbd381b8d	-0.04494815
229	0xbd8be2ed	-0.06830392
230	0x3d30aa2f	0.04313105
231	0xbe6282fd	-0.2212028
232	0x3c29a59b	0.010354425
233	0x3dab8343	0.083746456
234	0x3d85b4e9	0.065286465
235	0xbc276e42	-0.010219159
236	0xbe0c30e1	-0.13690521
237	0x3d0071c5	0.0313585
238	0xbdfc2577	-0.12311833
239	0xbda4ae7e	-0.08041094
240	0xbd9fefbf	-0.078094
241	0x3c84b62a	0.016200144
242	0xbd294623	-0.041326653
243	0xbda26343	-0.07929089
244	0x3c872566	0.016497325
245	0xbd17c8c2	-0.037056692
246	0x3b0a4441	0.0021097811
247	0x3df0aae1	0.117513426
248	0x3e049a90	0.12949586
249	0xbe12c590	-0.14333177
250	0xbdd8bd5c	-0.105829924
251	0x3caeb461	0.021326246
252	0xbe1fcc74	-0.15605336
253	0x3d9e176e	0.077193126
254	0xbdd6db97	-0.10491102
255	0x3d9117bd	0.07084606

actor.4.weight f4 [128, 256]
0	0xbdc244b9	-0.09485764
1	0x3a92fa3c	0.0011213492
2	0xbab1b543	-0.0013558049
3	0xbbe995f0	-0.0071284696
4	0x3d0e644c	0.03476362
5	0xbd248fc2	-0.04017616
6	0xbcb6d393	-0.022317683
7	0x3c0e201d	0.008674649
8	0x3beac56d	0.0071646483
9	0xbbd63058	-0.0065365247
10	0xbd30a19a	-0.043122865
11	0xbd40d753	-0.04708035
12	0x3d362ca8	0.04447618
13	0xbd22442c	-0.039615795
14	0xbd2f10ee	-0.042740755
15	0x3dc363ef	0.09540545
16	0x3cc3f12a	0.023918707
17	0xbdc53ab6	-0.09630339
18	0x3d5cdc67	0.05392113
19	0xbc8ba929	-0.017048435
20	0x3d88df94	0.06683269
21	0xbb4e400b	-0.0031471278
22	0x3cd1c7bf	0.025607942
23	0x3becebc8	0.0072302558
24	0xbc0e009e	-0.008667139
25	0xbd29b893	-0.04143579
26	0xbd9b4f17	-0.075834446
27	0xbdb41462	-0.0879295
28	0x3de53e80	0.111935616
29	0x3cd6ad87	0.026205791
30	0x3c5c277d	0.013437149
31	0xbd817c13	-0.063224934
32	0xbbc7e13e	-0.006099849
33	0xbd39b155	-0.045335133
34	0xbd32cc93	-0.04365213
35	0x3c636004	0.013877872
36	0xbc86890f	-0.016422777
37	0x3d3f6257	0.046724644
38	0xbe013ba0	-0.12620401
39	0xbcb87e8b	-0.022521278
40	0xbcfeadcd	-0.031088734
41	0xbcc3396e	-0.023831096
42	0xbd23296a	-0.039834417
43	0xbb64ed45	-0.0034931463
44	0x3cfdf780	0.031001806
45	0xbd210d7d	-0.039319504
46	0xbc3aefeb	-0.01140974
47	0x3aa6b052	0.0012717342
48	0x3b51c554	0.0032008486
49	0xbd0400b5	-0.032227237
50	0x3ce03d8f	0.027373103
51	0xbd93bc47	-0.072136454
52	0x3d7bfaeb	0.06151859
53	0xb996aeb8	-0.00028740405
54	0x3d63c911	0.055611674
55	0x3d233d65	0.039853472
56	0x3d14fc68	0.036373526
57	0x3df9e7e3	0.12202432
58	0x3d6a1370	0.057147443
59	0x3d3cdb09	0.046107326
60	0xbd9b97d8	-0.07597321
61	0xbe01cde7	-0.12676202
62	0xbd3322d1	-0.043734375
63	0x3d1dc01c	0.038513288
64	0x3d68e43f	0.056858297
65	0xbd41cb67	-0.04731312
66	0xbd08773b	-0.033316832
67	0xbc051478	-0.008122556
68	0xbd9dfce4	-0.07714251
69	0x3e0289bd	0.12747855
70	0xbc0f4633	-0.008744764
71	0x3d8b3a52	0.06798233
72	0x3c4fb206	0.012676721
73	0xbcb9c838	-0.02267848
74	0x3daafbd1	0.083488114
75	0xbc21a53c	-0.009866055
76	0x3a60c01a	0.0008573547
77	0x3cdff1da	0.027337003
78	0x3c240edd	0.010013309
79	0xbd7b0c32	-0.061290927
80	0xbd6ccb87	-0.057811286
81	0x3d286562	0.04111231
82	0xbddf2a07	-0.10896688
83	0xbc840079	-0.016113507
84	0xbcb7a602	-0.022418026
85	0xbcb23c57	-0.021757288
86	0xbcdb099a	-0.026737977
87	0x3d61e7ad	0.055152584
88	0x3c590ebe	0.013248144
89	0x3d3ecd76	0.04658266
90	0xbceb637d	-0.028733963
91	0xbcedbdc8	-0.029021159
92	0xbbd3eaac	-0.006467184
93	0x39c6bcff	0.00037906316
94	0xbd35f628	-0.044424206
95	0xbca34151	-0.019928606
96	0x3c6e478e	0.014543427
97	0x3d822b0d	0.063558675
98	0x3d239fd9	0.039947364
99	0x3d55cd63	0.052197825
100	0xbc81ac03	-0.015829092
101	0xbd5c032e	-0.05371397
102	0xbd5414c4	-0.051777616
103	0xbbd31cdf	-0.0064426507
104	0xbbfa4060	-0.0076370686
105	0x3d70d0e4	0.058792964
106	0xbd2e4566	-0.042546652
107	0xbba8c568	-0.005150486
108	0xbc50a54f	-0.012734725
109	0x3d7b9542	0.06142164
110	0xbd735db1	-0.059415523
111	0x3d70697b	0.058694344
112	0xbbe29df7	-0.0069158035
113	0xbaaa9038	-0.0013012951
114	0xba0841e9	-0.00051978097
115	0xbd18976a	-0.037253775
116	0xbe115eec	-0.14196366
117	0xbd86b702	-0.06577875
118	0x3d143b17	0.036189165
119	0x3d2a08c2	0.04151226
120	0xbc33ef5e	-0.010982363
121	0xbc51bac9	-0.012800881
122	0xbd17c824	-0.037056103
123	0xbc292dbf	-0.010325848
124	0xbda97691	-0.08274568
125	0xbd4df787	-0.05028489
126	0x3d9a3218	0.07529086
127	0xbc85e318	-0.016343638
128	0xbd0e27e0	-0.034705997
129	0xbdab86d6	-0.08375327
130	0x3d02bbb3	0.031917285
131	0x3b50f945	0.0031886857
132	0xbd46d8c3	-0.048546564
133	0xbca64360	-0.020295799
134	0x3d73d9ac	0.05953376
135	0x3c7501cf	0.0149540445
136	0x3c1cd941	0.009573282
137	0xbd87dab4	-0.06633511
138	0xbcf10ed5	-0.029426018
139	0xbca80e51	-0.02051464
140	0xbda44bb3	-0.08022251
141	0xbd8edf9f	-0.06976246
142	0x3d9cdebc	0.07659671
143	0x3cd292ef	0.025704829
144	0x3d1c5467	0.03816643
145	0xbccb3e8d	-0.0248101
146	0x3d70667c	0.058691487
147	0x3ce60591	0.028078826
148	0xbd647e35	-0.055784423
149	0x3d8e51fd	0.06949232
150	0xbd7138b5	-0.05889197
151	0x3d1c2723	0.03812326
152	0xbd564c56	-0.052318893
153	0x3d232e60	0.03983915
154	0x3d11c286	0.035585903
155	0x3c8f1812	0.017467532
156	0x3ca6926f	0.020333497
157	0xbd897ac4	-0.06712869
158	0x3c403e07	0.0117335385
159	0x3d1c7472	0.03819699
160	0x3d41d3a2	0.04732097
161	0x3d85d8a0	0.065354586
162	0xbcbfacc0	-0.023397803
163	0xbd935367	-0.07193642
164	0x3def35fd	0.11680219
165	0x3a7e3d06	0.0009698424
166	0x3d9c19ed	0.076221325
167	0x3c145707	0.009053952
168	0xbd79389a	-0.060844995
169	0xbcc5405a	-0.024078537
170	0x3d492057	0.049103107
171	0x3d6089bf	0.054818865
172	0x3d22ffb6	0.039794646
173	0xbcc03afc	-0.023465626
174	0xbccb708d	-0.024833942
175	0xbcb14574	-0.021639563
176	0xbd06b37e	-0.03288602
177	0xbc07a66a	-0.008279422
178	0x3ca9637d	0.020677323
179	0xbd1976e6	-0.037466906
180	0xbcd12559	-0.025530504
181	0xbd8042fd	-0.06262777
182	0xbda4d608	-0.08048636
183	0xbd1c3892	-0.038139887
184	0x3c522062	0.0128251035
185	0xbd557934	-0.05211754
186	0xbd315d72	-0.043302007
187	0xbd3ab924	-0.04558672
188	0x39fd4da9	0.00048313782
189	0xbda50b06	-0.08058743
190	0x3ce84e25	0.028357575
191	0xbd8e795a	-0.0695674
192	0xbc96476c	-0.018344603
193	0x3c4a2b39	0.012339407
194	0x3c7f5ec6	0.015586561
195	0x3cd5d3aa	0.026101906
196	0x3d370638	0.044683665
197	0x3cd5af5d	0.026084596
198	0x3c90aae5	0.017659614
199	0x3c90fd32	0.017698858
200	0x3b47b0aa	0.003047029
201	0x3d3c7aaa	0.04601542
202	0xbd4d1301	-0.05006695
203	0xbbde7e97	-0.006789993
204	0x3d0cde04	0.034391418
205	0xbcb0cc39	-0.021581756
206	0xbdb1822a	-0.08667405
207	0xbc9085ff	-0.01764202
208	0x3d80cb83	0.06288817
209	0x3c2b24b5	0.010445763
210	0xbcc67283	-0.024224525
211	0x3d713310	0.058886588
212	0x3cc6e18a	0.024277467
213	0xbd225e95	-0.03964098
214	0xbdafec25	-0.08589963
215	0x3d2f65e0	0.042821765
216	0xbc7b7acd	-0.015349102
217	0xbd35382e	-0.04424303
218	0x3c0ecf69	0.008716443
219	0xbc93900d	-0.018013025
220	0x3cc3d445	0.023904929
221	0xbd3e95c5	-0.04652955
222	0xbd9efa75	-0.07762615
223	0xbdad50a9	-0.0846265
224	0xbd9cd0ca	-0.07657011
225	0x3c92ffbe	0.017944213
226	0xbdfc7329	-0.123266526
227	0xbd226cd5	-0.03965457
228	0xbd01eab7	-0.031717982
229	0x3cff3ab5	0.031155923
230	0x3d755770	0.05989784
231	0xbd82e0ed	-0.063905574
232	0x3c5113f9	0.0127611095
233	0x3cfc0bd3	0.030767357
234	0xbb52479b	-0.0032086137
235	0xbcd5cb6d	-0.026097978
236	0x39dc8c25	0.00042066086
237	0xbc3c7665	-0.011502837
238	0xbcd03479	-0.025415646
239	0xbd8ecdbf	-0.06972837
240	0xbba4afcf	-0.005025841
241	0x3d176e91	0.03697068
242	0x3d66fe65	0.056394953
243	0x3c425887	0.011861927
244	0xbd2b3040	-0.04179406
245	0xbd165fdd	-0.036712516
246	0x3d02ea8f	0.031961974
247	0xbd394278	-0.045229405
248	0xbd8c0ce0	-0.06838393
249	0xbcab27fb	-0.020893088
250	0xbd0a1bbb	-0.033717852
251	0xbcd2ce31	-0.025733085
252	0x3c3426ba	0.010995561
253	0x3db2ae47	0.08724647
254	0xbd52941c	-0.05141078
255	0xbcfa5fed	-0.03056332

actor.4.bias f4 [128]
0	0x3d4659ed	0.048425604
1	0x3ca17970	0.019711226
2	0xbe038717	-0.12844501
3	0x3d33606b	0.043793123
4	0xbd627fa4	-0.05529751
5	0xbd5a3f34	-0.05328293
6	0x3d4dc946	0.050240777
7	0xbd65ea8e	-0.056131892
8	0xbd7eb100	-0.06218052
9	0xbd3d2e03	-0.04618646
10	0x3c378ed6	0.011203488
11	0x3d300117	0.04296979
12	0xbd05b7eb	-0.0326461
13	0xbd311d94	-0.0432411
14	0xbd5cc0f3	-0.05389495
15	0xbbffbd81	-0.007804573
16	0xbd928211	-0.071537144
17	0xbe0c9b5c	-0.1373114
18	0x3ced8d32	0.028997991
19	0xbe018eb9	-0.126521
20	0x3c939a5b	0.018017938
21	0x3d91902b	0.07107576
22	0xbc53ff9e	-0.012939362
23	0x3c0baa90	0.008524552
24	0xbd5395cf	-0.05165654
25	0xbe000ee3	-0.12505679
26	0xbe0860a5	-0.13318117
27	0xbd892665	-0.06696776
28	0xbd96b051	-0.073578484
29	0xbca79868	-0.020458415
30	0xbc08aa28	-0.00834135
31	0xbe8b80ee	-0.27246803
32	0xbd6c082f	-0.057624992
33	0xbbeb83df	-0.007187351
34	0xbdc94a65	-0.09828643
35	0x3c096355	0.008385499
36	0x3c970ced	0.01843878
37	0xbd00e2aa	-0.031466164
38	0xbe02da6d	-0.12778635
39	0x3c34ff6a	0.011047224
40	0xbda57c55	-0.08080355
41	0xbd90a34e	-0.07062398
42	0x3c274380	0.010208964
43	0xbd3f75c6	-0.046743177
44	0x3b8db64d	0.0043247105
45	0xbddf32da	-0.10898371
46	0x3cfdf616	0.031001132
47	0xbc3bff89	-0.011474499
48	0xbd215168	-0.039384276
49	0xbd9a0c97	-0.075219326
50	0xbd414818	-0.047187895
51	0xbd2d7016	-0.04234322
52	0xbded825f	-0.11597132
53	0xbe509fd3	-0.20373468
54	0x3c59d770	0.013295993
55	0xbdf48835	-0.11940042
56	0xbdcce6b8	-0.100049436
57	0x3cd0b3d9	0.025476383
58	0xbdc782b0	-0.097417235
59	0xbd862928	-0.06550819
60	0xbda009b4	-0.07814351
61	0xbd01cada	-0.031687595
62	0xbd932d84	-0.07186416
63	0x3d9c66ec	0.07636818
64	0xbde3cb76	-0.111227915
65	0x3cd1156e	0.025522914
66	0xbc8d0a90	-0.01721695
67	0xbdb91592	-0.09037317
68	0x3d06e027	0.032928612
69	0xbd8eb43d	-0.069679715
70	0xbd2f2e45	-0.042768735
71	0xbb5ca911	-0.0033670107
72	0xbd813630	-0.063091636
73	0x3db776de	0.08958219
74	0xbda8d904	-0.082445174
75	0x3cf07e18	0.029357001
76	0x3d30cf8b	0.04316668
77	0xbd2c8c84	-0.042126194
78	0xbd00aa75	-0.03141256
79	0xbc49581c	-0.012289073
80	0xbdb043ee	-0.086067066
81	0xbdb8ad34	-0.09017411
82	0xbda4ce13	-0.08047118
83	0xbd9f8e49	-0.077908106
84	0x39f1d688	0.0004612694
85	0x3d0a4d67	0.033765223
86	0xbd26ba24	-0.04070486
87	0x3d7ddb5e	0.061976783
88	0x3cfb8d18	0.030706927
89	0xbdd57e18	-0.10424441
90	0xbe0783cf	-0.13233875
91	0xbd4c0bc0	-0.049815893
92	0x3c916c9d	0.017751986
93	0xbc39d5da	-0.01134249
94	0xbdf47492	-0.119362965
95	0xbb6a7fce	-0.0035781744
96	0xbd3c617e	-0.045991413
97	0xbc5b6622	-0.01339105
98	0xbd8089d7	-0.06276291
99	0xbd7491aa	-0.05970923
100	0x3cd8c523	0.02646119
101	0xbe15180c	-0.14559954
102	0xbdb5d5fd	-0.08878706
103	0xbd69c1ac	-0.057069466
104	0x3cf4dd31	0.029890629
105	0xbdbbf73d	-0.09178016
106	0x3cf993b8	0.030465946
107	0xbd0d33a5	-0.03447308
108	0x3d447ee1	0.047972564
109	0x3bbb8056	0.005722086
110	0xbdb35501	-0.087564476
111	0x3a9fe9a0	0.0012200363
112	0xbcd2b069	-0.025718885
113	0xbda641a5	-0.081179895
114	0x3d4c7dac	0.049924538
115	0xbc850d80	-0.016241789
116	0xbde9a076	-0.114075586
117	0xbdd3ed00	-0.103479385
118	0xbe022e30	-0.12712932
119	0xbe1e2d1a	-0.15446892
120	0xbd99fd54	-0.07519022
121	0x3be27db4	0.0069119576
122	0xbde87471	-0.113503344
123	0xbd64be75	-0.055845696
124	0xbce0b939	-0.027432071
125	0xbddf45bc	-0.10901973
126	0x3d38c703	0.045111667
127	0xbe220976	-0.15823922

actor.6.weight f4 [20, 128]
0	0xbcd980b8	-0.026550636
1	0xbc45a6c4	-0.012063686
2	0x3cf221ed	0.029557193
3	0xbb8ce9fb	-0.0043003536
4	0xbc8d7a8c	-0.017270349
5	0xbbb170ae	-0.005415044
6	0xbcb775a6	-0.022394966
7	0x3d2c4017	0.04205331
8	0xbd0b67dd	-0.0340346
9	0x3de4d6ce	0.11173783
10	0xbb37b795	-0.0028033007
11	0x3ce19226	0.02753551
12	0x3c5941aa	0.013260284
13	0xbd2763ee	-0.040866785
14	0x3b982efa	0.004644272
15	0xbb6af39e	-0.0035850774
16	0xbb6f54f1	-0.0036519135
17	0x3dacff2e	0.08447109
18	0x3c57bd84	0.013167743
19	0xbd632f3a	-0.05546496
20	0xbd1f4380	-0.038882732
21	0xbc152aa4	-0.009104405
22	0xbc5eb96d	-0.013594014
23	0x3cae9c94	0.021314897
24	0xbd1804aa	-0.037113823
25	0x3d85da36	0.06535761
26	0xbd76132d	-0.06007688
27	0x3d01392e	0.03154867
28	0x3d47a0e4	0.04873742
29	0x3d2f5a2f	0.042810615
30	0xbd167f4a	-0.036742486
31	0x3d152265	0.036409754
32	0x3c919439	0.017770873
33	0x3cff40bf	0.031158803
34	0x3d97648e	0.07392226
35	0xbc05fc5c	-0.008177843
36	0x3c24b9fe	0.01005411
37	0xbc7f5337	-0.015583805
38	0xbcb5fde6	-0.022215795
39	0x3c734543	0.014848056
40	0xbd74df1f	-0.059783097
41	0xbb2371cf	-0.0024939661
42	0x3d748451	0.0596965
43	0xbda447c9	-0.080215044
44	0x3b142c35	0.0022609357
45	0xbc903bfa	-0.017606724
46	0xbb33c7ad	-0.0027432248
47	0xbc51b38f	-0.012799158
48	0xbc8cdf98	-0.017196462
49	0xbc70ff42	-0.014709296
50	0xbcb3a420	-0.021928847
51	0x3b9255b1	0.0044657816
52	0xbcdb639e	-0.0267809
53	0xba018601	-0.00049409276
54	0x3c041e5a	0.008063877
55	0xbd2d2962	-0.042275794
56	0x3c4b5759	0.012410962
57	0x3bbc9dcc	0.0057561155
58	0xbc52e783	-0.0128725795
59	0x3d327630	0.043569744
60	0xbcf7b050	-0.03023544
61	0xbb7eb242	-0.0038863574
62	0xbd4995b1	-0.049215022
63	0xbd0d6a69	-0.03452531
64	0xbd02f6c2	-0.031973608
65	0x3d150a3e	0.03638672
66	0x3bb27c08	0.0054469146
67	0xbaf1025b	-0.0018387543
68	0xbc66e096	-0.014091631
69	0x3daf5a1f	0.08562111
70	0x3c0a81a6	0.008453762
71	0x3c5df1ce	0.01354642
72	0xbb7353df	-0.0037128848
73	0x3ceabdb1	0.028654905
74	0x3cc89556	0.024485271
75	0xbadfe301	-0.0017081202
76	0x3c81c1ff	0.015839575
77	0x3ca3964a	0.019969124
78	0x3cbb3730	0.022853464
79	0x3bc2358d	0.005926794
80	0x3ad42ddb	0.0016187982
81	0x3cbd8919	0.023136662
82	0x3d2123bd	0.039340723
83	0x3cbfb71b	0.023402741
84	0x3d0a3e4d	0.03375082
85	0xbbdbac2c	-0.006703874
86	0xbd2c6f98	-0.04209861
87	0x3bd5ee43	0.006528647
88	0xba8c9109	-0.0010724376
89	0xbad74802	-0.0016424658
90	0xbcc7cdda	-0.02439015
91	0x3d81a6bb	0.063306294
92	0xbc949143	-0.018135672
93	0xbcdc5722	-0.026897017
94	0xbd7c5552	-0.061604805
95	0x3c900c8b	0.017584106
96	0x3c6211a4	0.013798151
97	0x3d9bea01	0.07612992
98	0xbc576b5c	-0.013148155
99	0x3c4927f7	0.012277595
100	0xbce61300	-0.028085232
101	0x3c3110f2	0.010807263
102	0xbd85a701	-0.06525994
103	0xbc0dac49	-0.008647033
104	0xbca07a81	-0.019589664
105	0x3dab580f	0.08366405
106	0x3a5136d7	0.0007980889
107	0xbbac9ba1	-0.005267576
108	0xbcd67aad	-0.026181543
109	0xbb6e92ea	-0.0036403486
110	0x3bccb2fb	0.006246922
111	0x3d23a866	0.03995552
112	0x3c875ff0	0.016525239
113	0x3cb76760	0.02238816
114	0xbce6d63e	-0.02817833
115	0x3d15ea32	0.0366003
116	0xbd27de42	-0.040983446
117	0x3cae3a26	0.021267962
118	0xbd0691a3	-0.032853734
119	0xbdba208d	-0.0908824
120	0xbc4a53b5	-0.012349059
121	0x3d0ac055	0.03387483
122	0x3c8f9715	0.017528096
123	0x3c41fd21	0.011840136
124	0xbc8e2560	-0.017351806
125	0xbd50a5ba	-0.0509393
126	0x3be97f98	0.007125806
127	0x3d1d312f	0.038376983
128	0xbe0230bf	-0.12713908
129	0x3d62404d	0.055237103
130	0x3e2f324e	0.17109033
131	0xbd15553e	-0.036458246
132	0x3cb349f6	0.021885853
133	0xba8766e7	-0.001033035
134	0xbe64dcb6	-0.2234982
135	0xbe5d80d2	-0.21631172
136	0xbaa5be34	-0.0012645186
137	0xbccc738c	-0.02495744
138	0x3dc5e2b3	0.0966238
139	0xbe78cd19	-0.24296989
140	0x3dadeae5	0.08492068
141	0x3d080164	0.03320445
142	0x3c70e5ba	0.014703209
143	0x3d5aa02a	0.0533754
144	0xbe38dd29	-0.18053116
145	0x3d9cc9fa	0.076557115
146	0xbe06adb4	-0.131522
147	0x3e32f77d	0.17477222
148	0x3d8ce86d	0.06880269
149	0xbea520aa	-0.32251483
150	0xbd175179	-0.036942933
151	0xbcdac0d6	-0.02670328
152	0xbd5ce362	-0.053927787
153	0x3d8ff82f	0.07029759
154	0x3dd3ae81	0.10336018
155	0xbe236e35	-0.1596001
156	0xbe152f23	-0.14568762
157	0x3d49715b	0.04918037
158	0x3d897e00	0.06713486
159	0x3e3a4740	0.18191242
160	0xbd6193c9	-0.05507258
161	0xbd676d31	-0.056500617
162	0x3d5367d0	0.051612675
163	0x3db8f0d9	0.09030313
164	0xbcfccf46	-0.030860554
165	0x3d2ca809	0.04215244
166	0x3df85b42	0.12126781
167	0x3d49cdc4	0.0492685
168	0x3dffd546	0.124918506
169	0x3e2dc823	0.16970877
170	0x3d9527ef	0.07283007
171	0x3e00c1b1	0.12573887
172	0xbe4835f6	-0.19551834
173	0x3da4089d	0.08009455
174	0xbcb311a9	-0.021859007
175	0xbe8d6032	-0.27612454
176	0x3cbd2df6	0.023093205
177	0x3dffe31c	0.124944896
178	0x3da773e8	0.08176404
179	0x3d16f4d3	0.036854576
180	0x3d43c69a	0.047796823
181	0x3e445c27	0.19175778
182	0xbe043e26	-0.12914333
183	0x3e646d2b	0.2230727
184	0x3e31c5eb	0.17360656
185	0xbdf47ea1	-0.11938215
186	0xbb90fbc0	-0.004424542
187	0x3bbb08cd	0.0057078362
188	0x3e42bdb0	0.19017673
189	0xbd6bca3a	-0.057565905
190	0x3d187dae	0.037229232
191	0xbe0673ad	-0.13130064
192	0x3e517ca1	0.20457698
193	0x3da34bdb	0.07973453
194	0xbcae4bc5	-0.021276364
195	0xbd91693f	-0.07100152
196	0x3d4305d3	0.047612976
197	0x3bafb6a1	0.0053623472
198	0xbc1f6f95	-0.009731193
199	0x3dbcb484	0.09214118
200	0x3d9deecf	0.07711565
201	0xbeaabda0	-0.33347797
202	0x3d910fa3	0.070830606
203	0xbe13a603	-0.14418797
204	0xbcf15790	-0.029460698
205	0x3ce6c418	0.028169677
206	0xbd8d989d	-0.06913874
207	0xbe4ce90f	-0.2001078
208	0x3d0b04c4	0.03394009
209	0x3cd9b792	0.026576791
210	0x3e3a19da	0.18173924
211	0xbdafc187	-0.08581834
212	0xbdf3fc62	-0.119133726
213	0xbe544d90	-0.20732713
214	0xbaee6cd8	-0.0018190397
215	0xbe27407e	-0.16333196
216	0xbd1ab838	-0.03777334
217	0x3d7873fc	0.060657486
218	0x3dbad80e	0.091232404
219	0x3cdf059e	0.027224358
220	0xbdb80816	-0.08985917
221	0xbe903ff7	-0.281738
222	0x3da492d2	0.08035816
223	0x3cd88a64	0.026433177
224	0xbd3eff8a	-0.04663042
225	0xbcc18cc4	-0.023626693
226	0x3e26e74d	0.16299172
227	0x3e096538	0.13417518
228	0xbd340c2d	-0.043956924
229	0x3d6d78f9	0.057976697
230	0xbc5654c1	-0.01308173
231	0xbd910d5f	-0.070826285
232	0xbde3a1db	-0.11114856
233	0x3cc09e5d	0.023513013
234	0xbb2c5509	-0.0026295802
235	0xbd8d92d2	-0.069127694
236	0xbe09e176	-0.13464913
237	0x3d251be2	0.040309794
238	0x3d77221f	0.060335275
239	0x3c987e3b	0.018614879
240	0x3d07767a	0.033071972
241	0x3d573763	0.052543055
242	0xbd21338b	-0.039355796
243	0x3d86385a	0.06553717
244	0xbd43b8d1	-0.047783677
245	0xbd0cb885	-0.03435566
246	0xbcc1b989	-0.02364804
247	0x3e10f1ff	0.14154814
248	0xbcb3e932	-0.021961782
249	0xbd3e6842	-0.046486147
250	0x3d2e7ad2	0.0425976
251	0xbd90fb12	-0.07079138
252	0x3d6c2b05	0.057658214
253	0x3e2df0d7	0.16986404
254	0xbd840e0e	-0.06447993
255	0x3e31f0fb	0.17377083

actor.6.bias f4 [20]
0	0x3d5c58f0	0.053795755
1	0xbe61e30e	-0.2205927
2	0xbd8eaaab	-0.06966146
3	0x3e127aac	0.14304608
4	0xbd16b7aa	-0.03679625
5	0x3ccff4a2	0.025385205
6	0x3d20048e	0.039066844
7	0xbd5f3f84	-0.054503933
8	0x3d92cd75	0.07168094
9	0xbd1d2946	-0.03836944
10	0xbda39991	-0.07988275
11	0xbc680144	-0.014160458
12	0xbcb94cf4	-0.022619702
13	0x3cc16d57	0.023611708
14	0xb9afc429	-0.00033524752
15	0x3de61815	0.11235062
16	0x3d9a9a15	0.0754892
17	0xbd81a881	-0.06330968
18	0xbd779bbb	-0.06045125
19	0x3db440b3	0.08801403
